…
I0627 17:51:21.913249  2422 solver.cpp:87] Creating training net from net file: examples/DecisionTree_CNN/extra/ST-CNN_x3.prototxt
I0627 17:51:21.923549  2422 net.cpp:294] The NetState phase (0) differed from the phase (1) specified by a rule in layer data
I0627 17:51:21.927768  2422 net.cpp:51] Initializing net from parameters: 
name: "BPRN"
state {
  phase: TRAIN
  level: 0
  stage: ""
}
layer {
  name: "data"
  type: "HDF5Data"
  top: "data"
  top: "label"
  include {
    phase: TRAIN
  }
  hdf5_data_param {
    source: "examples/DecisionTree_CNN/extra/train.txt"
    batch_size: 8
  }
}
layer {
  name: "conv0_I"
  type: "Convolution"
  bottom: "data"
  top: "conv0_I"
  param {
    name: "conv0_I_w"
    lr_mult: 1
  }
  param {
    name: "conv0_I_b"
    lr_mult: 1
  }
  convolution_param {
    num_output: 320
    pad: 1
    kernel_size: 3
    stride: 1
    weight_filler {
      type: "gaussian"
      std: 0.0264
    }
    bias_filler {
      type: "constant"
      value: 0
    }
  }
}
layer {
  name: "relu0_I"
  type: "PReLU"
  bottom: "conv0_I"
  top: "conv0_I"
  prelu_param {
    channel_shared: true
  }
}
layer {
  name: "conv0_PI"
  type: "Convolution"
  bottom: "data"
  top: "conv0_PI"
  param {
    name: "conv0_PI_w"
    lr_mult: 1
  }
  param {
    name: "conv0_PI_b"
    lr_mult: 1
  }
  convolution_param {
    num_output: 320
    pad: 1
    kernel_size: 3
    group: 5
    stride: 1
    weight_filler {
      type: "gaussian"
      std: 0.0264
    }
    bias_filler {
      type: "constant"
      value: 0
    }
  }
}
layer {
  name: "conv0_P"
  type: "Eltwise"
  bottom: "conv0_I"
  bottom: "conv0_PI"
  top: "conv0_P"
  eltwise_param {
    operation: SUM
    coeff: 1
    coeff: -1
  }
}
layer {
  name: "conv1_I"
  type: "Convolution"
  bottom: "conv0_I"
  top: "conv1_I"
  param {
    name: "conv1_I_w"
    lr_mult: 1
  }
  param {
    name: "conv1_I_b"
    lr_mult: 1
  }
  convolution_param {
    num_output: 40
    pad: 0
    kernel_size: 1
    stride: 1
    weight_filler {
      type: "gaussian"
      std: 0.224
    }
    bias_filler {
      type: "constant"
      value: 0
    }
  }
}
layer {
  name: "conv1_P"
  type: "Convolution"
  bottom: "conv0_P"
  top: "conv1_P"
  param {
    name: "conv1_P_w"
    lr_mult: 1
  }
  param {
    name: "conv1_P_b"
    lr_mult: 1
  }
  convolution_param {
    num_output: 40
    pad: 0
    kernel_size: 1
    stride: 1
    weight_filler {
      type: "gaussian"
      std: 0.224
    }
    bias_filler {
      type: "constant"
      value: 0
    }
  }
}
layer {
  name: "output_bp0"
  type: "Concat"
  bottom: "conv1_I"
  bottom: "conv1_P"
  top: "output_bp0"
}
layer {
  name: "relu_output_bp0"
  type: "PReLU"
  bottom: "output_bp0"
  top: "output_bp0"
  prelu_param {
    channel_shared: true
  }
}
layer {
  name: "conv1_bp1_I"
  type: "Deconvolution"
  bottom: "output_bp0"
  top: "conv1_bp1_I"
  param {
    name: "conv1_bp1_I_w"
    lr_mult: 1
  }
  param {
    name: "conv1_bp1_I_b"
    lr_mult: 1
  }
  convolution_param {
    num_output: 20
    pad: 2
    kernel_size: 7
    stride: 3
    weight_filler {
      type: "gaussian"
      std: 0.0452
    }
    bias_filler {
      type: "constant"
      value: 0
    }
  }
}
layer {
  name: "relu1_bp1_I"
  type: "PReLU"
  bottom: "conv1_bp1_I"
  top: "conv1_bp1_I"
  prelu_param {
    channel_shared: true
  }
}
layer {
  name: "conv1_bp1_PI"
  type: "Deconvolution"
  bottom: "output_bp0"
  top: "conv1_bp1_PI"
  param {
    name: "conv1_bp1_PI_w"
    lr_mult: 1
  }
  param {
    name: "conv1_bp1_PI_b"
    lr_mult: 1
  }
  convolution_param {
    num_output: 20
    pad: 2
    kernel_size: 7
    group: 5
    stride: 3
    weight_filler {
      type: "gaussian"
      std: 0.101
    }
    bias_filler {
      type: "constant"
      value: 0
    }
  }
}
layer {
  name: "conv1_bp1_P"
  type: "Eltwise"
  bottom: "conv1_bp1_I"
  bottom: "conv1_bp1_PI"
  top: "conv1_bp1_P"
  eltwise_param {
    operation: SUM
    coeff: 1
    coeff: -1
  }
}
layer {
  name: "concat_conv1_bp1"
  type: "Concat"
  bottom: "conv1_bp1_I"
  bottom: "conv1_bp1_P"
  top: "concat_conv1_bp1"
}
layer {
  name: "relu_concat_conv1_bp1"
  type: "PReLU"
  bottom: "concat_conv1_bp1"
  top: "concat_conv1_bp1"
  prelu_param {
    channel_shared: true
  }
}
layer {
  name: "conv2_bp1_I"
  type: "Convolution"
  bottom: "concat_conv1_bp1"
  top: "conv2_bp1_I"
  param {
    name: "conv2_bp1_I_w"
    lr_mult: 1
  }
  param {
    name: "conv2_bp1_I_b"
    lr_mult: 1
  }
  convolution_param {
    num_output: 40
    pad: 2
    kernel_size: 7
    stride: 3
    weight_filler {
      type: "gaussian"
      std: 0.0319
    }
    bias_filler {
      type: "constant"
      value: 0
    }
  }
}
layer {
  name: "relu2_bp1_I"
  type: "PReLU"
  bottom: "conv2_bp1_I"
  top: "conv2_bp1_I"
  prelu_param {
    channel_shared: true
  }
}
layer {
  name: "conv2_bp1_PI"
  type: "Convolution"
  bottom: "concat_conv1_bp1"
  top: "conv2_bp1_PI"
  param {
    name: "conv2_bp1_PI_w"
    lr_mult: 1
  }
  param {
    name: "conv2_bp1_PI_b"
    lr_mult: 1
  }
  convolution_param {
    num_output: 40
    pad: 2
    kernel_size: 7
    group: 5
    stride: 3
    weight_filler {
      type: "gaussian"
      std: 0.0714
    }
    bias_filler {
      type: "constant"
      value: 0
    }
  }
}
layer {
  name: "conv2_bp1_P"
  type: "Eltwise"
  bottom: "conv2_bp1_I"
  bottom: "conv2_bp1_PI"
  top: "conv2_bp1_P"
  eltwise_param {
    operation: SUM
    coeff: 1
    coeff: -1
  }
}
layer {
  name: "concat_conv2_bp1"
  type: "Concat"
  bottom: "conv2_bp1_I"
  bottom: "conv2_bp1_P"
  top: "concat_conv2_bp1"
}
layer {
  name: "weight_output_bp0"
  type: "Convolution"
  bottom: "output_bp0"
  top: "weight_output_bp0"
  param {
    name: "weight_outout_bp0_w"
    lr_mult: 1
  }
  param {
    name: "weight_outout_bp0_b"
    lr_mult: 1
  }
  convolution_param {
    num_output: 80
    pad: 0
    kernel_size: 1
    stride: 1
    weight_filler {
      type: "gaussian"
      std: 0.1581
    }
    bias_filler {
      type: "constant"
      value: 0
    }
  }
}
layer {
  name: "eltwise1_bp1"
  type: "Eltwise"
  bottom: "weight_output_bp0"
  bottom: "concat_conv2_bp1"
  top: "eltwise1_bp1"
  eltwise_param {
    operation: SUM
    coeff: 1
    coeff: -1
  }
}
layer {
  name: "conv3_bp1_I"
  type: "Deconvolution"
  bottom: "eltwise1_bp1"
  top: "conv3_bp1_I"
  param {
    name: "conv3_bp1_I_w"
    lr_mult: 1
  }
  param {
    name: "conv3_bp1_I_b"
    lr_mult: 1
  }
  convolution_param {
    num_output: 20
    pad: 2
    kernel_size: 7
    stride: 3
    weight_filler {
      type: "gaussian"
      std: 0.0452
    }
    bias_filler {
      type: "constant"
      value: 0
    }
  }
}
layer {
  name: "relu3_bp1_I"
  type: "PReLU"
  bottom: "conv3_bp1_I"
  top: "conv3_bp1_I"
  prelu_param {
    channel_shared: true
  }
}
layer {
  name: "conv3_bp1_PI"
  type: "Deconvolution"
  bottom: "eltwise1_bp1"
  top: "conv3_bp1_PI"
  param {
    name: "conv3_bp1_PI_w"
    lr_mult: 1
  }
  param {
    name: "conv3_bp1_PI_b"
    lr_mult: 1
  }
  convolution_param {
    num_output: 20
    pad: 2
    kernel_size: 7
    group: 5
    stride: 3
    weight_filler {
      type: "gaussian"
      std: 0.101
    }
    bias_filler {
      type: "constant"
      value: 0
    }
  }
}
layer {
  name: "conv3_bp1_P"
  type: "Eltwise"
  bottom: "conv3_bp1_I"
  bottom: "conv3_bp1_PI"
  top: "conv3_bp1_P"
  eltwise_param {
    operation: SUM
    coeff: 1
    coeff: -1
  }
}
layer {
  name: "concat_conv3_bp1"
  type: "Concat"
  bottom: "conv3_bp1_I"
  bottom: "conv3_bp1_P"
  top: "concat_conv3_bp1"
}
layer {
  name: "weight_concat_conv1_bp1"
  type: "Convolution"
  bottom: "concat_conv1_bp1"
  top: "weight_concat_conv1_bp1"
  param {
    name: "weight_concat_conv1_bp1_w"
    lr_mult: 1
  }
  param {
    name: "weight_concat_conv1_bp1_b"
    lr_mult: 1
  }
  convolution_param {
    num_output: 40
    pad: 0
    kernel_size: 1
    stride: 1
    weight_filler {
      type: "gaussian"
      std: 0.2236
    }
    bias_filler {
      type: "constant"
      value: 0
    }
  }
}
layer {
  name: "eltwise2_bp1"
  type: "Eltwise"
  bottom: "weight_concat_conv1_bp1"
  bottom: "concat_conv3_bp1"
  top: "output_bp1"
  eltwise_param {
    operation: SUM
  }
}
layer {
  name: "relu_output_bp1"
  type: "PReLU"
  bottom: "output_bp1"
  top: "output_bp1"
  prelu_param {
    channel_shared: true
  }
}
layer {
  name: "conv1_bp2_I"
  type: "Convolution"
  bottom: "output_bp1"
  top: "conv1_bp2_I"
  param {
    name: "conv1_bp2_I_w"
    lr_mult: 1
  }
  param {
    name: "conv1_bp2_I_b"
    lr_mult: 1
  }
  convolution_param {
    num_output: 40
    pad: 2
    kernel_size: 7
    stride: 3
    weight_filler {
      type: "gaussian"
      std: 0.0319
    }
    bias_filler {
      type: "constant"
      value: 0
    }
  }
}
layer {
  name: "relu1_bp2_I"
  type: "PReLU"
  bottom: "conv1_bp2_I"
  top: "conv1_bp2_I"
  prelu_param {
    channel_shared: true
  }
}
layer {
  name: "conv1_bp2_PI"
  type: "Convolution"
  bottom: "output_bp1"
  top: "conv1_bp2_PI"
  param {
    name: "conv1_bp2_PI_w"
    lr_mult: 1
  }
  param {
    name: "conv1_bp2_PI_b"
    lr_mult: 1
  }
  convolution_param {
    num_output: 40
    pad: 2
    kernel_size: 7
    group: 5
    stride: 3
    weight_filler {
      type: "gaussian"
      std: 0.0714
    }
    bias_filler {
      type: "constant"
      value: 0
    }
  }
}
layer {
  name: "conv1_bp2_P"
  type: "Eltwise"
  bottom: "conv1_bp2_I"
  bottom: "conv1_bp2_PI"
  top: "conv1_bp2_P"
  eltwise_param {
    operation: SUM
    coeff: 1
    coeff: -1
  }
}
layer {
  name: "concat_conv1_bp2"
  type: "Concat"
  bottom: "conv1_bp2_I"
  bottom: "conv1_bp2_P"
  top: "concat_conv1_bp2"
}
layer {
  name: "relu_concat_conv1_bp2"
  type: "PReLU"
  bottom: "concat_conv1_bp2"
  top: "concat_conv1_bp2"
  prelu_param {
    channel_shared: true
  }
}
layer {
  name: "conv2_bp2_I"
  type: "Deconvolution"
  bottom: "concat_conv1_bp2"
  top: "conv2_bp2_I"
  param {
    name: "conv2_bp2_I_w"
    lr_mult: 1
  }
  param {
    name: "conv2_bp2_I_b"
    lr_mult: 1
  }
  convolution_param {
    num_output: 20
    pad: 2
    kernel_size: 7
    stride: 3
    weight_filler {
      type: "gaussian"
      std: 0.0452
    }
    bias_filler {
      type: "constant"
      value: 0
    }
  }
}
layer {
  name: "relu2_bp2_I"
  type: "PReLU"
  bottom: "conv2_bp2_I"
  top: "conv2_bp2_I"
  prelu_param {
    channel_shared: true
  }
}
layer {
  name: "conv2_bp2_PI"
  type: "Deconvolution"
  bottom: "concat_conv1_bp2"
  top: "conv2_bp2_PI"
  param {
    name: "conv2_bp2_PI_w"
    lr_mult: 1
  }
  param {
    name: "conv2_bp2_PI_b"
    lr_mult: 1
  }
  convolution_param {
    num_output: 20
    pad: 2
    kernel_size: 7
    group: 5
    stride: 3
    weight_filler {
      type: "gaussian"
      std: 0.101
    }
    bias_filler {
      type: "constant"
      value: 0
    }
  }
}
layer {
  name: "conv2_bp2_P"
  type: "Eltwise"
  bottom: "conv2_bp2_I"
  bottom: "conv2_bp2_PI"
  top: "conv2_bp2_P"
  eltwise_param {
    operation: SUM
    coeff: 1
    coeff: -1
  }
}
layer {
  name: "concat_conv2_bp2"
  type: "Concat"
  bottom: "conv2_bp2_I"
  bottom: "conv2_bp2_P"
  top: "concat_conv2_bp2"
}
layer {
  name: "weight_output_bp1"
  type: "Convolution"
  bottom: "output_bp1"
  top: "weight_output_bp1"
  param {
    name: "weight_output_bp1_w"
    lr_mult: 1
  }
  param {
    name: "weight_output_bp1_b"
    lr_mult: 1
  }
  convolution_param {
    num_output: 40
    pad: 0
    kernel_size: 1
    stride: 1
    weight_filler {
      type: "gaussian"
      std: 0.2236
    }
    bias_filler {
      type: "constant"
      value: 0
    }
  }
}
layer {
  name: "eltwise1_bp2"
  type: "Eltwise"
  bottom: "weight_output_bp1"
  bottom: "concat_conv2_bp2"
  top: "eltwise1_bp2"
  eltwise_param {
    operation: SUM
    coeff: 1
    coeff: -1
  }
}
layer {
  name: "conv3_bp2_I"
  type: "Convolution"
  bottom: "eltwise1_bp2"
  top: "conv3_bp2_I"
  param {
    name: "conv3_bp2_I_w"
    lr_mult: 1
  }
  param {
    name: "conv3_bp2_I_b"
    lr_mult: 1
  }
  convolution_param {
    num_output: 40
    pad: 2
    kernel_size: 7
    stride: 3
    weight_filler {
      type: "gaussian"
      std: 0.0319
    }
    bias_filler {
      type: "constant"
      value: 0
    }
  }
}
layer {
  name: "relu3_bp2_I"
  type: "PReLU"
  bottom: "conv3_bp2_I"
  top: "conv3_bp2_I"
  prelu_param {
    channel_shared: true
  }
}
layer {
  name: "conv3_bp2_PI"
  type: "Convolution"
  bottom: "eltwise1_bp2"
  top: "conv3_bp2_PI"
  param {
    name: "conv3_bp2_PI_w"
    lr_mult: 1
  }
  param {
    name: "conv3_bp2_PI_b"
    lr_mult: 1
  }
  convolution_param {
    num_output: 40
    pad: 2
    kernel_size: 7
    group: 5
    stride: 3
    weight_filler {
      type: "gaussian"
      std: 0.0714
    }
    bias_filler {
      type: "constant"
      value: 0
    }
  }
}
layer {
  name: "conv3_bp2_P"
  type: "Eltwise"
  bottom: "conv3_bp2_I"
  bottom: "conv3_bp2_PI"
  top: "conv3_bp2_P"
  eltwise_param {
    operation: SUM
    coeff: 1
    coeff: -1
  }
}
layer {
  name: "concat_conv3_bp2"
  type: "Concat"
  bottom: "conv3_bp2_I"
  bottom: "conv3_bp2_P"
  top: "concat_conv3_bp2"
}
layer {
  name: "weight_concat_conv1_bp2"
  type: "Convolution"
  bottom: "concat_conv1_bp2"
  top: "weight_concat_conv1_bp2"
  param {
    name: "weight_concat_conv1_bp2_w"
    lr_mult: 1
  }
  param {
    name: "weight_concat_conv1_bp2_b"
    lr_mult: 1
  }
  convolution_param {
    num_output: 80
    pad: 0
    kernel_size: 1
    stride: 1
    weight_filler {
      type: "gaussian"
      std: 0.1581
    }
    bias_filler {
      type: "constant"
      value: 0
    }
  }
}
layer {
  name: "eltwise2_bp2"
  type: "Eltwise"
  bottom: "weight_concat_conv1_bp2"
  bottom: "concat_conv3_bp2"
  top: "output_bp2"
  eltwise_param {
    operation: SUM
  }
}
layer {
  name: "relu_output_bp2"
  type: "PReLU"
  bottom: "output_bp2"
  top: "output_bp2"
  prelu_param {
    channel_shared: true
  }
}
layer {
  name: "conv1_bp3_I"
  type: "Deconvolution"
  bottom: "output_bp2"
  top: "conv1_bp3_I"
  param {
    name: "conv1_bp3_I_w"
    lr_mult: 1
  }
  param {
    name: "conv1_bp3_I_b"
    lr_mult: 1
  }
  convolution_param {
    num_output: 20
    pad: 2
    kernel_size: 7
    stride: 3
    weight_filler {
      type: "gaussian"
      std: 0.0452
    }
    bias_filler {
      type: "constant"
      value: 0
    }
  }
}
layer {
  name: "relu1_bp3_I"
  type: "PReLU"
  bottom: "conv1_bp3_I"
  top: "conv1_bp3_I"
  prelu_param {
    channel_shared: true
  }
}
layer {
  name: "conv1_bp3_PI"
  type: "Deconvolution"
  bottom: "output_bp2"
  top: "conv1_bp3_PI"
  param {
    name: "conv1_bp3_PI_w"
    lr_mult: 1
  }
  param {
    name: "conv1_bp3_PI_b"
    lr_mult: 1
  }
  convolution_param {
    num_output: 20
    pad: 2
    kernel_size: 7
    group: 5
    stride: 3
    weight_filler {
      type: "gaussian"
      std: 0.101
    }
    bias_filler {
      type: "constant"
      value: 0
    }
  }
}
layer {
  name: "conv1_bp3_P"
  type: "Eltwise"
  bottom: "conv1_bp3_I"
  bottom: "conv1_bp3_PI"
  top: "conv1_bp3_P"
  eltwise_param {
    operation: SUM
    coeff: 1
    coeff: -1
  }
}
layer {
  name: "concat_conv1_bp3"
  type: "Concat"
  bottom: "conv1_bp3_I"
  bottom: "conv1_bp3_P"
  top: "concat_conv1_bp3"
}
layer {
  name: "relu_concat_conv1_bp3"
  type: "PReLU"
  bottom: "concat_conv1_bp3"
  top: "concat_conv1_bp3"
  prelu_param {
    channel_shared: true
  }
}
layer {
  name: "conv2_bp3_I"
  type: "Convolution"
  bottom: "concat_conv1_bp3"
  top: "conv2_bp3_I"
  param {
    name: "conv2_bp3_I_w"
    lr_mult: 1
  }
  param {
    name: "conv2_bp3_I_b"
    lr_mult: 1
  }
  convolution_param {
    num_output: 40
    pad: 2
    kernel_size: 7
    stride: 3
    weight_filler {
      type: "gaussian"
      std: 0.0319
    }
    bias_filler {
      type: "constant"
      value: 0
    }
  }
}
layer {
  name: "relu2_bp3_I"
  type: "PReLU"
  bottom: "conv2_bp3_I"
  top: "conv2_bp3_I"
  prelu_param {
    channel_shared: true
  }
}
layer {
  name: "conv2_bp3_PI"
  type: "Convolution"
  bottom: "concat_conv1_bp3"
  top: "conv2_bp3_PI"
  param {
    name: "conv2_bp3_PI_w"
    lr_mult: 1
  }
  param {
    name: "conv2_bp3_PI_b"
    lr_mult: 1
  }
  convolution_param {
    num_output: 40
    pad: 2
    kernel_size: 7
    group: 5
    stride: 3
    weight_filler {
      type: "gaussian"
      std: 0.0714
    }
    bias_filler {
      type: "constant"
      value: 0
    }
  }
}
layer {
  name: "conv2_bp3_P"
  type: "Eltwise"
  bottom: "conv2_bp3_I"
  bottom: "conv2_bp3_PI"
  top: "conv2_bp3_P"
  eltwise_param {
    operation: SUM
    coeff: 1
    coeff: -1
  }
}
layer {
  name: "concat_conv2_bp3"
  type: "Concat"
  bottom: "conv2_bp3_I"
  bottom: "conv2_bp3_P"
  top: "concat_conv2_bp3"
}
layer {
  name: "weight_output_bp2"
  type: "Convolution"
  bottom: "output_bp2"
  top: "weight_output_bp2"
  param {
    name: "weight_output_bp2_w"
    lr_mult: 1
  }
  param {
    name: "weight_output_bp2_b"
    lr_mult: 1
  }
  convolution_param {
    num_output: 80
    pad: 0
    kernel_size: 1
    stride: 1
    weight_filler {
      type: "gaussian"
      std: 0.1581
    }
    bias_filler {
      type: "constant"
      value: 0
    }
  }
}
layer {
  name: "eltwise1_bp3"
  type: "Eltwise"
  bottom: "weight_output_bp2"
  bottom: "concat_conv2_bp3"
  top: "eltwise1_bp3"
  eltwise_param {
    operation: SUM
    coeff: 1
    coeff: -1
  }
}
layer {
  name: "conv3_bp3_I"
  type: "Deconvolution"
  bottom: "eltwise1_bp3"
  top: "conv3_bp3_I"
  param {
    name: "conv3_bp3_I_w"
    lr_mult: 1
  }
  param {
    name: "conv3_bp3_I_b"
    lr_mult: 1
  }
  convolution_param {
    num_output: 20
    pad: 2
    kernel_size: 7
    stride: 3
    weight_filler {
      type: "gaussian"
      std: 0.0452
    }
    bias_filler {
      type: "constant"
      value: 0
    }
  }
}
layer {
  name: "relu3_bp3_I"
  type: "PReLU"
  bottom: "conv3_bp3_I"
  top: "conv3_bp3_I"
  prelu_param {
    channel_shared: true
  }
}
layer {
  name: "conv3_bp3_PI"
  type: "Deconvolution"
  bottom: "eltwise1_bp3"
  top: "conv3_bp3_PI"
  param {
    name: "conv3_bp3_PI_w"
    lr_mult: 1
  }
  param {
    name: "conv3_bp3_PI_b"
    lr_mult: 1
  }
  convolution_param {
    num_output: 20
    pad: 2
    kernel_size: 7
    group: 5
    stride: 3
    weight_filler {
      type: "gaussian"
      std: 0.101
    }
    bias_filler {
      type: "constant"
      value: 0
    }
  }
}
layer {
  name: "conv3_bp3_P"
  type: "Eltwise"
  bottom: "conv3_bp3_I"
  bottom: "conv3_bp3_PI"
  top: "conv3_bp3_P"
  eltwise_param {
    operation: SUM
    coeff: 1
    coeff: -1
  }
}
layer {
  name: "concat_conv3_bp3"
  type: "Concat"
  bottom: "conv3_bp3_I"
  bottom: "conv3_bp3_P"
  top: "concat_conv3_bp3"
}
layer {
  name: "weight_concat_conv1_bp3"
  type: "Convolution"
  bottom: "concat_conv1_bp3"
  top: "weight_concat_conv1_bp3"
  param {
    name: "weight_concat_conv1_bp3_w"
    lr_mult: 1
  }
  param {
    name: "weight_concat_conv1_bp3_b"
    lr_mult: 1
  }
  convolution_param {
    num_output: 40
    pad: 0
    kernel_size: 1
    stride: 1
    weight_filler {
      type: "gaussian"
      std: 0.2236
    }
    bias_filler {
      type: "constant"
      value: 0
    }
  }
}
layer {
  name: "eltwise2_bp3_1"
  type: "Eltwise"
  bottom: "weight_concat_conv1_bp3"
  bottom: "concat_conv3_bp3"
  top: "output_bp3_1"
  eltwise_param {
    operation: SUM
  }
}
layer {
  name: "eltwise2_bp3_2"
  type: "Eltwise"
  bottom: "output_bp3_1"
  bottom: "concat_conv3_bp1"
  top: "output_bp3"
  eltwise_param {
    operation: SUM
  }
}
layer {
  name: "relu_output_bp3"
  type: "PReLU"
  bottom: "output_bp3"
  top: "output_bp3"
  prelu_param {
    channel_shared: true
  }
}
layer {
  name: "conv_output_bp1"
  type: "Convolution"
  bottom: "output_bp1"
  top: "conv_output_bp1"
  param {
    name: "conv_outout_bp1_w"
    lr_mult: 1
  }
  param {
    name: "conv_outout_bp1_b"
    lr_mult: 1
  }
  convolution_param {
    num_output: 40
    pad: 0
    kernel_size: 1
    stride: 1
    weight_filler {
      type: "gaussian"
      std: 0.2236
    }
    bias_filler {
      type: "constant"
      value: 0
    }
  }
}
layer {
  name: "concat_bp3"
  type: "Concat"
  bottom: "conv_output_bp1"
  bottom: "output_bp3"
  top: "concat_bp3"
}
layer {
  name: "out_concat_bp3_I"
  type: "Convolution"
  bottom: "concat_bp3"
  top: "out_concat_bp3_I"
  param {
    name: "out_concat_bp3_I_w"
    lr_mult: 1
  }
  param {
    name: "out_concat_bp3_I_b"
    lr_mult: 1
  }
  convolution_param {
    num_output: 20
    pad: 1
    kernel_size: 3
    stride: 1
    weight_filler {
      type: "gaussian"
      std: 0.1054
    }
    bias_filler {
      type: "constant"
      value: 0
    }
  }
}
layer {
  name: "relu1_concat_bp3_I"
  type: "PReLU"
  bottom: "out_concat_bp3_I"
  top: "out_concat_bp3_I"
  prelu_param {
    channel_shared: true
  }
}
layer {
  name: "out_concat_bp3_PI"
  type: "Convolution"
  bottom: "out_concat_bp3_I"
  top: "out_concat_bp3_PI"
  param {
    name: "out_concat_bp3_PI_w"
    lr_mult: 1
  }
  param {
    name: "out_concat_bp3_PI_b"
    lr_mult: 1
  }
  convolution_param {
    num_output: 20
    pad: 0
    kernel_size: 1
    group: 5
    stride: 1
    weight_filler {
      type: "gaussian"
      std: 0.2357
    }
    bias_filler {
      type: "constant"
      value: 0
    }
  }
}
layer {
  name: "out_concat_bp3_P"
  type: "Eltwise"
  bottom: "out_concat_bp3_I"
  bottom: "out_concat_bp3_PI"
  top: "out_concat_bp3_P"
  eltwise_param {
    operation: SUM
    coeff: 1
    coeff: -1
  }
}
layer {
  name: "out_concat_bp3"
  type: "Concat"
  bottom: "out_concat_bp3_I"
  bottom: "out_concat_bp3_P"
  top: "out_concat_bp3"
}
layer {
  name: "relu_out_concat_bp3"
  type: "PReLU"
  bottom: "out_concat_bp3"
  top: "out_concat_bp3"
  prelu_param {
    channel_shared: true
  }
}
layer {
  name: "conv1_bp4_I"
  type: "Convolution"
  bottom: "out_concat_bp3"
  top: "conv1_bp4_I"
  param {
    name: "conv1_bp4_I_w"
    lr_mult: 1
  }
  param {
    name: "conv1_bp4_I_b"
    lr_mult: 1
  }
  convolution_param {
    num_output: 40
    pad: 2
    kernel_size: 7
    stride: 3
    weight_filler {
      type: "gaussian"
      std: 0.0319
    }
    bias_filler {
      type: "constant"
      value: 0
    }
  }
}
layer {
  name: "relu1_bp4_I"
  type: "PReLU"
  bottom: "conv1_bp4_I"
  top: "conv1_bp4_I"
  prelu_param {
    channel_shared: true
  }
}
layer {
  name: "conv1_bp4_PI"
  type: "Convolution"
  bottom: "out_concat_bp3"
  top: "conv1_bp4_PI"
  param {
    name: "conv1_bp4_PI_w"
    lr_mult: 1
  }
  param {
    name: "conv1_bp4_PI_b"
    lr_mult: 1
  }
  convolution_param {
    num_output: 40
    pad: 2
    kernel_size: 7
    group: 5
    stride: 3
    weight_filler {
      type: "gaussian"
      std: 0.0714
    }
    bias_filler {
      type: "constant"
      value: 0
    }
  }
}
layer {
  name: "conv1_bp4_P"
  type: "Eltwise"
  bottom: "conv1_bp4_I"
  bottom: "conv1_bp4_PI"
  top: "conv1_bp4_P"
  eltwise_param {
    operation: SUM
    coeff: 1
    coeff: -1
  }
}
layer {
  name: "concat_conv1_bp4"
  type: "Concat"
  bottom: "conv1_bp4_I"
  bottom: "conv1_bp4_P"
  top: "concat_conv1_bp4"
}
layer {
  name: "relu_concat_conv1_bp4"
  type: "PReLU"
  bottom: "concat_conv1_bp4"
  top: "concat_conv1_bp4"
  prelu_param {
    channel_shared: true
  }
}
layer {
  name: "conv2_bp4_I"
  type: "Deconvolution"
  bottom: "concat_conv1_bp4"
  top: "conv2_bp4_I"
  param {
    name: "conv2_bp4_I_w"
    lr_mult: 1
  }
  param {
    name: "conv2_bp4_I_b"
    lr_mult: 1
  }
  convolution_param {
    num_output: 20
    pad: 2
    kernel_size: 7
    stride: 3
    weight_filler {
      type: "gaussian"
      std: 0.0452
    }
    bias_filler {
      type: "constant"
      value: 0
    }
  }
}
layer {
  name: "relu2_bp4_I"
  type: "PReLU"
  bottom: "conv2_bp4_I"
  top: "conv2_bp4_I"
  prelu_param {
    channel_shared: true
  }
}
layer {
  name: "conv2_bp4_PI"
  type: "Deconvolution"
  bottom: "concat_conv1_bp4"
  top: "conv2_bp4_PI"
  param {
    name: "conv2_bp4_PI_w"
    lr_mult: 1
  }
  param {
    name: "conv2_bp4_PI_b"
    lr_mult: 1
  }
  convolution_param {
    num_output: 20
    pad: 2
    kernel_size: 7
    group: 5
    stride: 3
    weight_filler {
      type: "gaussian"
      std: 0.101
    }
    bias_filler {
      type: "constant"
      value: 0
    }
  }
}
layer {
  name: "conv2_bp4_P"
  type: "Eltwise"
  bottom: "conv2_bp4_I"
  bottom: "conv2_bp4_PI"
  top: "conv2_bp4_P"
  eltwise_param {
    operation: SUM
    coeff: 1
    coeff: -1
  }
}
layer {
  name: "concat_conv2_bp4"
  type: "Concat"
  bottom: "conv2_bp4_I"
  bottom: "conv2_bp4_P"
  top: "concat_conv2_bp4"
}
layer {
  name: "weight_out_concat_bp3"
  type: "Convolution"
  bottom: "out_concat_bp3"
  top: "weight_out_concat_bp3"
  param {
    name: "weight_out_concat_bp3_w"
    lr_mult: 1
  }
  param {
    name: "weight_out_concat_bp3_b"
    lr_mult: 1
  }
  convolution_param {
    num_output: 40
    pad: 0
    kernel_size: 1
    stride: 1
    weight_filler {
      type: "gaussian"
      std: 0.2236
    }
    bias_filler {
      type: "constant"
      value: 0
    }
  }
}
layer {
  name: "eltwise1_bp4"
  type: "Eltwise"
  bottom: "weight_out_concat_bp3"
  bottom: "concat_conv2_bp4"
  top: "eltwise1_bp4"
  eltwise_param {
    operation: SUM
    coeff: 1
    coeff: -1
  }
}
layer {
  name: "conv3_bp4_I"
  type: "Convolution"
  bottom: "eltwise1_bp4"
  top: "conv3_bp4_I"
  param {
    name: "conv3_bp4_I_w"
    lr_mult: 1
  }
  param {
    name: "conv3_bp4_I_b"
    lr_mult: 1
  }
  convolution_param {
    num_output: 40
    pad: 2
    kernel_size: 7
    stride: 3
    weight_filler {
      type: "gaussian"
      std: 0.0319
    }
    bias_filler {
      type: "constant"
      value: 0
    }
  }
}
layer {
  name: "relu3_bp4_I"
  type: "PReLU"
  bottom: "conv3_bp4_I"
  top: "conv3_bp4_I"
  prelu_param {
    channel_shared: true
  }
}
layer {
  name: "conv3_bp4_PI"
  type: "Convolution"
  bottom: "eltwise1_bp4"
  top: "conv3_bp4_PI"
  param {
    name: "conv3_bp4_PI_w"
    lr_mult: 1
  }
  param {
    name: "conv3_bp4_PI_b"
    lr_mult: 1
  }
  convolution_param {
    num_output: 40
    pad: 2
    kernel_size: 7
    group: 5
    stride: 3
    weight_filler {
      type: "gaussian"
      std: 0.0714
    }
    bias_filler {
      type: "constant"
      value: 0
    }
  }
}
layer {
  name: "conv3_bp4_P"
  type: "Eltwise"
  bottom: "conv3_bp4_I"
  bottom: "conv3_bp4_PI"
  top: "conv3_bp4_P"
  eltwise_param {
    operation: SUM
    coeff: 1
    coeff: -1
  }
}
layer {
  name: "concat_conv3_bp4"
  type: "Concat"
  bottom: "conv3_bp4_I"
  bottom: "conv3_bp4_P"
  top: "concat_conv3_bp4"
}
layer {
  name: "weight_concat_conv1_bp4"
  type: "Convolution"
  bottom: "concat_conv1_bp4"
  top: "weight_concat_conv1_bp4"
  param {
    name: "weight_concat_conv1_bp4_w"
    lr_mult: 1
  }
  param {
    name: "weight_concat_conv1_bp4_b"
    lr_mult: 1
  }
  convolution_param {
    num_output: 80
    pad: 0
    kernel_size: 1
    stride: 1
    weight_filler {
      type: "gaussian"
      std: 0.1581
    }
    bias_filler {
      type: "constant"
      value: 0
    }
  }
}
layer {
  name: "eltwise2_bp4_1"
  type: "Eltwise"
  bottom: "weight_concat_conv1_bp4"
  bottom: "concat_conv3_bp4"
  top: "output_bp4_1"
  eltwise_param {
    operation: SUM
  }
}
layer {
  name: "eltwise2_bp4_2"
  type: "Eltwise"
  bottom: "output_bp4_1"
  bottom: "concat_conv3_bp2"
  top: "output_bp4"
  eltwise_param {
    operation: SUM
  }
}
layer {
  name: "relu_output_bp4"
  type: "PReLU"
  bottom: "output_bp4"
  top: "output_bp4"
  prelu_param {
    channel_shared: true
  }
}
layer {
  name: "conv_output_bp2"
  type: "Convolution"
  bottom: "output_bp2"
  top: "conv_output_bp2"
  param {
    name: "conv_outout_bp2_w"
    lr_mult: 1
  }
  param {
    name: "conv_outout_bp2_b"
    lr_mult: 1
  }
  convolution_param {
    num_output: 80
    pad: 0
    kernel_size: 1
    stride: 1
    weight_filler {
      type: "gaussian"
      std: 0.1581
    }
    bias_filler {
      type: "constant"
      value: 0
    }
  }
}
layer {
  name: "concat_bp4"
  type: "Concat"
  bottom: "conv_output_bp2"
  bottom: "output_bp4"
  top: "concat_bp4"
}
layer {
  name: "out_concat_bp4_I"
  type: "Convolution"
  bottom: "concat_bp4"
  top: "out_concat_bp4_I"
  param {
    name: "out_concat_bp4_I_w"
    lr_mult: 1
  }
  param {
    name: "out_concat_bp4_I_b"
    lr_mult: 1
  }
  convolution_param {
    num_output: 40
    pad: 1
    kernel_size: 3
    stride: 1
    weight_filler {
      type: "gaussian"
      std: 0.0745
    }
    bias_filler {
      type: "constant"
      value: 0
    }
  }
}
layer {
  name: "relu1_concat_bp4_I"
  type: "PReLU"
  bottom: "out_concat_bp4_I"
  top: "out_concat_bp4_I"
  prelu_param {
    channel_shared: true
  }
}
layer {
  name: "out_concat_bp4_PI"
  type: "Convolution"
  bottom: "out_concat_bp4_I"
  top: "out_concat_bp4_PI"
  param {
    name: "out_concat_bp4_PI_w"
    lr_mult: 1
  }
  param {
    name: "out_concat_bp4_PI_b"
    lr_mult: 1
  }
  convolution_param {
    num_output: 40
    pad: 0
    kernel_size: 1
    group: 5
    stride: 1
    weight_filler {
      type: "gaussian"
      std: 0.1667
    }
    bias_filler {
      type: "constant"
      value: 0
    }
  }
}
layer {
  name: "out_concat_bp4_P"
  type: "Eltwise"
  bottom: "out_concat_bp4_I"
  bottom: "out_concat_bp4_PI"
  top: "out_concat_bp4_P"
  eltwise_param {
    operation: SUM
    coeff: 1
    coeff: -1
  }
}
layer {
  name: "out_concat_bp4"
  type: "Concat"
  bottom: "out_concat_bp4_I"
  bottom: "out_concat_bp4_P"
  top: "out_concat_bp4"
}
layer {
  name: "relu_out_concat_bp4"
  type: "PReLU"
  bottom: "out_concat_bp4"
  top: "out_concat_bp4"
  prelu_param {
    channel_shared: true
  }
}
layer {
  name: "conv1_bp5_I"
  type: "Deconvolution"
  bottom: "out_concat_bp4"
  top: "conv1_bp5_I"
  param {
    name: "conv1_bp5_I_w"
    lr_mult: 1
  }
  param {
    name: "conv1_bp5_I_b"
    lr_mult: 1
  }
  convolution_param {
    num_output: 20
    pad: 2
    kernel_size: 7
    stride: 3
    weight_filler {
      type: "gaussian"
      std: 0.0452
    }
    bias_filler {
      type: "constant"
      value: 0
    }
  }
}
layer {
  name: "relu1_bp5_I"
  type:
I0627 17:51:21.963371  2422 layer_factory.hpp:77] Creating layer data
I0627 17:51:21.963434  2422 net.cpp:84] Creating Layer data
I0627 17:51:21.963450  2422 net.cpp:380] data -> data
I0627 17:51:21.963482  2422 net.cpp:380] data -> label
I0627 17:51:21.963506  2422 hdf5_data_layer.cpp:80] Loading list of HDF5 filenames from: examples/DecisionTree_CNN/extra/train.txt
I0627 17:51:22.001700  2422 hdf5_data_layer.cpp:94] Number of HDF5 files: 129
I0627 17:51:22.126780  2422 hdf5.cpp:32] Datatype class: H5T_FLOAT
I0627 17:51:34.549325  2422 net.cpp:122] Setting up data
I0627 17:51:34.549393  2422 net.cpp:129] Top shape: 8 5 32 32 (40960)
I0627 17:51:34.549408  2422 net.cpp:129] Top shape: 8 5 96 96 (368640)
I0627 17:51:34.549417  2422 net.cpp:137] Memory required for data: 1638400
I0627 17:51:34.549437  2422 layer_factory.hpp:77] Creating layer data_data_0_split
I0627 17:51:34.549473  2422 net.cpp:84] Creating Layer data_data_0_split
I0627 17:51:34.549489  2422 net.cpp:406] data_data_0_split <- data
I0627 17:51:34.549521  2422 net.cpp:380] data_data_0_split -> data_data_0_split_0
I0627 17:51:34.549554  2422 net.cpp:380] data_data_0_split -> data_data_0_split_1
I0627 17:51:34.549649  2422 net.cpp:122] Setting up data_data_0_split
I0627 17:51:34.549667  2422 net.cpp:129] Top shape: 8 5 32 32 (40960)
I0627 17:51:34.549688  2422 net.cpp:129] Top shape: 8 5 32 32 (40960)
I0627 17:51:34.549705  2422 net.cpp:137] Memory required for data: 1966080
I0627 17:51:34.549713  2422 layer_factory.hpp:77] Creating layer conv0_I
I0627 17:51:34.549757  2422 net.cpp:84] Creating Layer conv0_I
I0627 17:51:34.549767  2422 net.cpp:406] conv0_I <- data_data_0_split_0
I0627 17:51:34.549789  2422 net.cpp:380] conv0_I -> conv0_I
I0627 17:51:38.433950  2422 net.cpp:122] Setting up conv0_I
I0627 17:51:38.434001  2422 net.cpp:129] Top shape: 8 320 32 32 (2621440)
I0627 17:51:38.434010  2422 net.cpp:137] Memory required for data: 12451840
I0627 17:51:38.434049  2422 layer_factory.hpp:77] Creating layer relu0_I
I0627 17:51:38.434109  2422 net.cpp:84] Creating Layer relu0_I
I0627 17:51:38.434123  2422 net.cpp:406] relu0_I <- conv0_I
I0627 17:51:38.434144  2422 net.cpp:367] relu0_I -> conv0_I (in-place)
I0627 17:51:38.435900  2422 net.cpp:122] Setting up relu0_I
I0627 17:51:38.435928  2422 net.cpp:129] Top shape: 8 320 32 32 (2621440)
I0627 17:51:38.435935  2422 net.cpp:137] Memory required for data: 22937600
I0627 17:51:38.435961  2422 layer_factory.hpp:77] Creating layer conv0_I_relu0_I_0_split
I0627 17:51:38.435992  2422 net.cpp:84] Creating Layer conv0_I_relu0_I_0_split
I0627 17:51:38.436004  2422 net.cpp:406] conv0_I_relu0_I_0_split <- conv0_I
I0627 17:51:38.436024  2422 net.cpp:380] conv0_I_relu0_I_0_split -> conv0_I_relu0_I_0_split_0
I0627 17:51:38.436049  2422 net.cpp:380] conv0_I_relu0_I_0_split -> conv0_I_relu0_I_0_split_1
I0627 17:51:38.436139  2422 net.cpp:122] Setting up conv0_I_relu0_I_0_split
I0627 17:51:38.436154  2422 net.cpp:129] Top shape: 8 320 32 32 (2621440)
I0627 17:51:38.436189  2422 net.cpp:129] Top shape: 8 320 32 32 (2621440)
I0627 17:51:38.436200  2422 net.cpp:137] Memory required for data: 43909120
I0627 17:51:38.436209  2422 layer_factory.hpp:77] Creating layer conv0_PI
I0627 17:51:38.436234  2422 net.cpp:84] Creating Layer conv0_PI
I0627 17:51:38.436246  2422 net.cpp:406] conv0_PI <- data_data_0_split_1
I0627 17:51:38.436259  2422 net.cpp:380] conv0_PI -> conv0_PI
I0627 17:51:38.451895  2422 net.cpp:122] Setting up conv0_PI
I0627 17:51:38.451928  2422 net.cpp:129] Top shape: 8 320 32 32 (2621440)
I0627 17:51:38.451938  2422 net.cpp:137] Memory required for data: 54394880
I0627 17:51:38.451956  2422 layer_factory.hpp:77] Creating layer conv0_P
I0627 17:51:38.451982  2422 net.cpp:84] Creating Layer conv0_P
I0627 17:51:38.451992  2422 net.cpp:406] conv0_P <- conv0_I_relu0_I_0_split_0
I0627 17:51:38.452002  2422 net.cpp:406] conv0_P <- conv0_PI
I0627 17:51:38.452011  2422 net.cpp:380] conv0_P -> conv0_P
I0627 17:51:38.452086  2422 net.cpp:122] Setting up conv0_P
I0627 17:51:38.452102  2422 net.cpp:129] Top shape: 8 320 32 32 (2621440)
I0627 17:51:38.452108  2422 net.cpp:137] Memory required for data: 64880640
I0627 17:51:38.452114  2422 layer_factory.hpp:77] Creating layer conv1_I
I0627 17:51:38.452136  2422 net.cpp:84] Creating Layer conv1_I
I0627 17:51:38.452145  2422 net.cpp:406] conv1_I <- conv0_I_relu0_I_0_split_1
I0627 17:51:38.452159  2422 net.cpp:380] conv1_I -> conv1_I
I0627 17:51:38.455870  2422 net.cpp:122] Setting up conv1_I
I0627 17:51:38.455899  2422 net.cpp:129] Top shape: 8 40 32 32 (327680)
I0627 17:51:38.455909  2422 net.cpp:137] Memory required for data: 66191360
I0627 17:51:38.455921  2422 layer_factory.hpp:77] Creating layer conv1_P
I0627 17:51:38.455947  2422 net.cpp:84] Creating Layer conv1_P
I0627 17:51:38.455958  2422 net.cpp:406] conv1_P <- conv0_P
I0627 17:51:38.455972  2422 net.cpp:380] conv1_P -> conv1_P
I0627 17:51:38.459738  2422 net.cpp:122] Setting up conv1_P
I0627 17:51:38.459769  2422 net.cpp:129] Top shape: 8 40 32 32 (327680)
I0627 17:51:38.459779  2422 net.cpp:137] Memory required for data: 67502080
I0627 17:51:38.459796  2422 layer_factory.hpp:77] Creating layer output_bp0
I0627 17:51:38.459810  2422 net.cpp:84] Creating Layer output_bp0
I0627 17:51:38.459816  2422 net.cpp:406] output_bp0 <- conv1_I
I0627 17:51:38.459826  2422 net.cpp:406] output_bp0 <- conv1_P
I0627 17:51:38.459838  2422 net.cpp:380] output_bp0 -> output_bp0
I0627 17:51:38.459897  2422 net.cpp:122] Setting up output_bp0
I0627 17:51:38.459911  2422 net.cpp:129] Top shape: 8 80 32 32 (655360)
I0627 17:51:38.459918  2422 net.cpp:137] Memory required for data: 70123520
I0627 17:51:38.459924  2422 layer_factory.hpp:77] Creating layer relu_output_bp0
I0627 17:51:38.459935  2422 net.cpp:84] Creating Layer relu_output_bp0
I0627 17:51:38.459941  2422 net.cpp:406] relu_output_bp0 <- output_bp0
I0627 17:51:38.459954  2422 net.cpp:367] relu_output_bp0 -> output_bp0 (in-place)
I0627 17:51:38.460178  2422 net.cpp:122] Setting up relu_output_bp0
I0627 17:51:38.460196  2422 net.cpp:129] Top shape: 8 80 32 32 (655360)
I0627 17:51:38.460223  2422 net.cpp:137] Memory required for data: 72744960
I0627 17:51:38.460237  2422 layer_factory.hpp:77] Creating layer output_bp0_relu_output_bp0_0_split
I0627 17:51:38.460252  2422 net.cpp:84] Creating Layer output_bp0_relu_output_bp0_0_split
I0627 17:51:38.460260  2422 net.cpp:406] output_bp0_relu_output_bp0_0_split <- output_bp0
I0627 17:51:38.460273  2422 net.cpp:380] output_bp0_relu_output_bp0_0_split -> output_bp0_relu_output_bp0_0_split_0
I0627 17:51:38.460288  2422 net.cpp:380] output_bp0_relu_output_bp0_0_split -> output_bp0_relu_output_bp0_0_split_1
I0627 17:51:38.460301  2422 net.cpp:380] output_bp0_relu_output_bp0_0_split -> output_bp0_relu_output_bp0_0_split_2
I0627 17:51:38.460412  2422 net.cpp:122] Setting up output_bp0_relu_output_bp0_0_split
I0627 17:51:38.460425  2422 net.cpp:129] Top shape: 8 80 32 32 (655360)
I0627 17:51:38.460434  2422 net.cpp:129] Top shape: 8 80 32 32 (655360)
I0627 17:51:38.460443  2422 net.cpp:129] Top shape: 8 80 32 32 (655360)
I0627 17:51:38.460448  2422 net.cpp:137] Memory required for data: 80609280
I0627 17:51:38.460453  2422 layer_factory.hpp:77] Creating layer conv1_bp1_I
I0627 17:51:38.460474  2422 net.cpp:84] Creating Layer conv1_bp1_I
I0627 17:51:38.460484  2422 net.cpp:406] conv1_bp1_I <- output_bp0_relu_output_bp0_0_split_0
I0627 17:51:38.460499  2422 net.cpp:380] conv1_bp1_I -> conv1_bp1_I
I0627 17:51:38.465054  2422 net.cpp:122] Setting up conv1_bp1_I
I0627 17:51:38.465082  2422 net.cpp:129] Top shape: 8 20 96 96 (1474560)
I0627 17:51:38.465088  2422 net.cpp:137] Memory required for data: 86507520
I0627 17:51:38.465101  2422 layer_factory.hpp:77] Creating layer relu1_bp1_I
I0627 17:51:38.465111  2422 net.cpp:84] Creating Layer relu1_bp1_I
I0627 17:51:38.465123  2422 net.cpp:406] relu1_bp1_I <- conv1_bp1_I
I0627 17:51:38.465135  2422 net.cpp:367] relu1_bp1_I -> conv1_bp1_I (in-place)
I0627 17:51:38.466591  2422 net.cpp:122] Setting up relu1_bp1_I
I0627 17:51:38.466616  2422 net.cpp:129] Top shape: 8 20 96 96 (1474560)
I0627 17:51:38.466624  2422 net.cpp:137] Memory required for data: 92405760
I0627 17:51:38.466634  2422 layer_factory.hpp:77] Creating layer conv1_bp1_I_relu1_bp1_I_0_split
I0627 17:51:38.466646  2422 net.cpp:84] Creating Layer conv1_bp1_I_relu1_bp1_I_0_split
I0627 17:51:38.466653  2422 net.cpp:406] conv1_bp1_I_relu1_bp1_I_0_split <- conv1_bp1_I
I0627 17:51:38.466668  2422 net.cpp:380] conv1_bp1_I_relu1_bp1_I_0_split -> conv1_bp1_I_relu1_bp1_I_0_split_0
I0627 17:51:38.466698  2422 net.cpp:380] conv1_bp1_I_relu1_bp1_I_0_split -> conv1_bp1_I_relu1_bp1_I_0_split_1
I0627 17:51:38.466781  2422 net.cpp:122] Setting up conv1_bp1_I_relu1_bp1_I_0_split
I0627 17:51:38.466801  2422 net.cpp:129] Top shape: 8 20 96 96 (1474560)
I0627 17:51:38.466817  2422 net.cpp:129] Top shape: 8 20 96 96 (1474560)
I0627 17:51:38.466825  2422 net.cpp:137] Memory required for data: 104202240
I0627 17:51:38.466833  2422 layer_factory.hpp:77] Creating layer conv1_bp1_PI
I0627 17:51:38.466861  2422 net.cpp:84] Creating Layer conv1_bp1_PI
I0627 17:51:38.466871  2422 net.cpp:406] conv1_bp1_PI <- output_bp0_relu_output_bp0_0_split_1
I0627 17:51:38.466890  2422 net.cpp:380] conv1_bp1_PI -> conv1_bp1_PI
I0627 17:51:38.481506  2422 net.cpp:122] Setting up conv1_bp1_PI
I0627 17:51:38.481534  2422 net.cpp:129] Top shape: 8 20 96 96 (1474560)
I0627 17:51:38.481540  2422 net.cpp:137] Memory required for data: 110100480
I0627 17:51:38.481552  2422 layer_factory.hpp:77] Creating layer conv1_bp1_P
I0627 17:51:38.481572  2422 net.cpp:84] Creating Layer conv1_bp1_P
I0627 17:51:38.481582  2422 net.cpp:406] conv1_bp1_P <- conv1_bp1_I_relu1_bp1_I_0_split_0
I0627 17:51:38.481597  2422 net.cpp:406] conv1_bp1_P <- conv1_bp1_PI
I0627 17:51:38.481617  2422 net.cpp:380] conv1_bp1_P -> conv1_bp1_P
I0627 17:51:38.481683  2422 net.cpp:122] Setting up conv1_bp1_P
I0627 17:51:38.481698  2422 net.cpp:129] Top shape: 8 20 96 96 (1474560)
I0627 17:51:38.481705  2422 net.cpp:137] Memory required for data: 115998720
I0627 17:51:38.481714  2422 layer_factory.hpp:77] Creating layer concat_conv1_bp1
I0627 17:51:38.481745  2422 net.cpp:84] Creating Layer concat_conv1_bp1
I0627 17:51:38.481756  2422 net.cpp:406] concat_conv1_bp1 <- conv1_bp1_I_relu1_bp1_I_0_split_1
I0627 17:51:38.481767  2422 net.cpp:406] concat_conv1_bp1 <- conv1_bp1_P
I0627 17:51:38.481776  2422 net.cpp:380] concat_conv1_bp1 -> concat_conv1_bp1
I0627 17:51:38.481827  2422 net.cpp:122] Setting up concat_conv1_bp1
I0627 17:51:38.481839  2422 net.cpp:129] Top shape: 8 40 96 96 (2949120)
I0627 17:51:38.481845  2422 net.cpp:137] Memory required for data: 127795200
I0627 17:51:38.481851  2422 layer_factory.hpp:77] Creating layer relu_concat_conv1_bp1
I0627 17:51:38.481865  2422 net.cpp:84] Creating Layer relu_concat_conv1_bp1
I0627 17:51:38.481874  2422 net.cpp:406] relu_concat_conv1_bp1 <- concat_conv1_bp1
I0627 17:51:38.481894  2422 net.cpp:367] relu_concat_conv1_bp1 -> concat_conv1_bp1 (in-place)
I0627 17:51:38.483391  2422 net.cpp:122] Setting up relu_concat_conv1_bp1
I0627 17:51:38.483415  2422 net.cpp:129] Top shape: 8 40 96 96 (2949120)
I0627 17:51:38.483428  2422 net.cpp:137] Memory required for data: 139591680
I0627 17:51:38.483444  2422 layer_factory.hpp:77] Creating layer concat_conv1_bp1_relu_concat_conv1_bp1_0_split
I0627 17:51:38.483464  2422 net.cpp:84] Creating Layer concat_conv1_bp1_relu_concat_conv1_bp1_0_split
I0627 17:51:38.483475  2422 net.cpp:406] concat_conv1_bp1_relu_concat_conv1_bp1_0_split <- concat_conv1_bp1
I0627 17:51:38.483489  2422 net.cpp:380] concat_conv1_bp1_relu_concat_conv1_bp1_0_split -> concat_conv1_bp1_relu_concat_conv1_bp1_0_split_0
I0627 17:51:38.483510  2422 net.cpp:380] concat_conv1_bp1_relu_concat_conv1_bp1_0_split -> concat_conv1_bp1_relu_concat_conv1_bp1_0_split_1
I0627 17:51:38.483530  2422 net.cpp:380] concat_conv1_bp1_relu_concat_conv1_bp1_0_split -> concat_conv1_bp1_relu_concat_conv1_bp1_0_split_2
I0627 17:51:38.483633  2422 net.cpp:122] Setting up concat_conv1_bp1_relu_concat_conv1_bp1_0_split
I0627 17:51:38.483646  2422 net.cpp:129] Top shape: 8 40 96 96 (2949120)
I0627 17:51:38.483659  2422 net.cpp:129] Top shape: 8 40 96 96 (2949120)
I0627 17:51:38.483671  2422 net.cpp:129] Top shape: 8 40 96 96 (2949120)
I0627 17:51:38.483676  2422 net.cpp:137] Memory required for data: 174981120
I0627 17:51:38.483681  2422 layer_factory.hpp:77] Creating layer conv2_bp1_I
I0627 17:51:38.483700  2422 net.cpp:84] Creating Layer conv2_bp1_I
I0627 17:51:38.483709  2422 net.cpp:406] conv2_bp1_I <- concat_conv1_bp1_relu_concat_conv1_bp1_0_split_0
I0627 17:51:38.483721  2422 net.cpp:380] conv2_bp1_I -> conv2_bp1_I
I0627 17:51:38.488026  2422 net.cpp:122] Setting up conv2_bp1_I
I0627 17:51:38.488052  2422 net.cpp:129] Top shape: 8 40 32 32 (327680)
I0627 17:51:38.488059  2422 net.cpp:137] Memory required for data: 176291840
I0627 17:51:38.488077  2422 layer_factory.hpp:77] Creating layer relu2_bp1_I
I0627 17:51:38.488091  2422 net.cpp:84] Creating Layer relu2_bp1_I
I0627 17:51:38.488098  2422 net.cpp:406] relu2_bp1_I <- conv2_bp1_I
I0627 17:51:38.488109  2422 net.cpp:367] relu2_bp1_I -> conv2_bp1_I (in-place)
I0627 17:51:38.489403  2422 net.cpp:122] Setting up relu2_bp1_I
I0627 17:51:38.489425  2422 net.cpp:129] Top shape: 8 40 32 32 (327680)
I0627 17:51:38.489432  2422 net.cpp:137] Memory required for data: 177602560
I0627 17:51:38.489440  2422 layer_factory.hpp:77] Creating layer conv2_bp1_I_relu2_bp1_I_0_split
I0627 17:51:38.489450  2422 net.cpp:84] Creating Layer conv2_bp1_I_relu2_bp1_I_0_split
I0627 17:51:38.489456  2422 net.cpp:406] conv2_bp1_I_relu2_bp1_I_0_split <- conv2_bp1_I
I0627 17:51:38.489470  2422 net.cpp:380] conv2_bp1_I_relu2_bp1_I_0_split -> conv2_bp1_I_relu2_bp1_I_0_split_0
I0627 17:51:38.489485  2422 net.cpp:380] conv2_bp1_I_relu2_bp1_I_0_split -> conv2_bp1_I_relu2_bp1_I_0_split_1
I0627 17:51:38.489557  2422 net.cpp:122] Setting up conv2_bp1_I_relu2_bp1_I_0_split
I0627 17:51:38.489568  2422 net.cpp:129] Top shape: 8 40 32 32 (327680)
I0627 17:51:38.489576  2422 net.cpp:129] Top shape: 8 40 32 32 (327680)
I0627 17:51:38.489581  2422 net.cpp:137] Memory required for data: 180224000
I0627 17:51:38.489585  2422 layer_factory.hpp:77] Creating layer conv2_bp1_PI
I0627 17:51:38.489624  2422 net.cpp:84] Creating Layer conv2_bp1_PI
I0627 17:51:38.489639  2422 net.cpp:406] conv2_bp1_PI <- concat_conv1_bp1_relu_concat_conv1_bp1_0_split_1
I0627 17:51:38.489658  2422 net.cpp:380] conv2_bp1_PI -> conv2_bp1_PI
I0627 17:51:38.503072  2422 net.cpp:122] Setting up conv2_bp1_PI
I0627 17:51:38.503096  2422 net.cpp:129] Top shape: 8 40 32 32 (327680)
I0627 17:51:38.503109  2422 net.cpp:137] Memory required for data: 181534720
I0627 17:51:38.503125  2422 layer_factory.hpp:77] Creating layer conv2_bp1_P
I0627 17:51:38.503144  2422 net.cpp:84] Creating Layer conv2_bp1_P
I0627 17:51:38.503155  2422 net.cpp:406] conv2_bp1_P <- conv2_bp1_I_relu2_bp1_I_0_split_0
I0627 17:51:38.503166  2422 net.cpp:406] conv2_bp1_P <- conv2_bp1_PI
I0627 17:51:38.503180  2422 net.cpp:380] conv2_bp1_P -> conv2_bp1_P
I0627 17:51:38.503238  2422 net.cpp:122] Setting up conv2_bp1_P
I0627 17:51:38.503252  2422 net.cpp:129] Top shape: 8 40 32 32 (327680)
I0627 17:51:38.503258  2422 net.cpp:137] Memory required for data: 182845440
I0627 17:51:38.503265  2422 layer_factory.hpp:77] Creating layer concat_conv2_bp1
I0627 17:51:38.503275  2422 net.cpp:84] Creating Layer concat_conv2_bp1
I0627 17:51:38.503281  2422 net.cpp:406] concat_conv2_bp1 <- conv2_bp1_I_relu2_bp1_I_0_split_1
I0627 17:51:38.503289  2422 net.cpp:406] concat_conv2_bp1 <- conv2_bp1_P
I0627 17:51:38.503299  2422 net.cpp:380] concat_conv2_bp1 -> concat_conv2_bp1
I0627 17:51:38.503342  2422 net.cpp:122] Setting up concat_conv2_bp1
I0627 17:51:38.503353  2422 net.cpp:129] Top shape: 8 80 32 32 (655360)
I0627 17:51:38.503360  2422 net.cpp:137] Memory required for data: 185466880
I0627 17:51:38.503363  2422 layer_factory.hpp:77] Creating layer weight_output_bp0
I0627 17:51:38.503382  2422 net.cpp:84] Creating Layer weight_output_bp0
I0627 17:51:38.503391  2422 net.cpp:406] weight_output_bp0 <- output_bp0_relu_output_bp0_0_split_2
I0627 17:51:38.503403  2422 net.cpp:380] weight_output_bp0 -> weight_output_bp0
I0627 17:51:38.506407  2422 net.cpp:122] Setting up weight_output_bp0
I0627 17:51:38.506429  2422 net.cpp:129] Top shape: 8 80 32 32 (655360)
I0627 17:51:38.506435  2422 net.cpp:137] Memory required for data: 188088320
I0627 17:51:38.506448  2422 layer_factory.hpp:77] Creating layer eltwise1_bp1
I0627 17:51:38.506458  2422 net.cpp:84] Creating Layer eltwise1_bp1
I0627 17:51:38.506467  2422 net.cpp:406] eltwise1_bp1 <- weight_output_bp0
I0627 17:51:38.506475  2422 net.cpp:406] eltwise1_bp1 <- concat_conv2_bp1
I0627 17:51:38.506484  2422 net.cpp:380] eltwise1_bp1 -> eltwise1_bp1
I0627 17:51:38.506537  2422 net.cpp:122] Setting up eltwise1_bp1
I0627 17:51:38.506549  2422 net.cpp:129] Top shape: 8 80 32 32 (655360)
I0627 17:51:38.506553  2422 net.cpp:137] Memory required for data: 190709760
I0627 17:51:38.506559  2422 layer_factory.hpp:77] Creating layer eltwise1_bp1_eltwise1_bp1_0_split
I0627 17:51:38.506567  2422 net.cpp:84] Creating Layer eltwise1_bp1_eltwise1_bp1_0_split
I0627 17:51:38.506572  2422 net.cpp:406] eltwise1_bp1_eltwise1_bp1_0_split <- eltwise1_bp1
I0627 17:51:38.506583  2422 net.cpp:380] eltwise1_bp1_eltwise1_bp1_0_split -> eltwise1_bp1_eltwise1_bp1_0_split_0
I0627 17:51:38.506604  2422 net.cpp:380] eltwise1_bp1_eltwise1_bp1_0_split -> eltwise1_bp1_eltwise1_bp1_0_split_1
I0627 17:51:38.506669  2422 net.cpp:122] Setting up eltwise1_bp1_eltwise1_bp1_0_split
I0627 17:51:38.506682  2422 net.cpp:129] Top shape: 8 80 32 32 (655360)
I0627 17:51:38.506688  2422 net.cpp:129] Top shape: 8 80 32 32 (655360)
I0627 17:51:38.506693  2422 net.cpp:137] Memory required for data: 195952640
I0627 17:51:38.506698  2422 layer_factory.hpp:77] Creating layer conv3_bp1_I
I0627 17:51:38.506717  2422 net.cpp:84] Creating Layer conv3_bp1_I
I0627 17:51:38.506724  2422 net.cpp:406] conv3_bp1_I <- eltwise1_bp1_eltwise1_bp1_0_split_0
I0627 17:51:38.506736  2422 net.cpp:380] conv3_bp1_I -> conv3_bp1_I
I0627 17:51:38.510627  2422 net.cpp:122] Setting up conv3_bp1_I
I0627 17:51:38.510651  2422 net.cpp:129] Top shape: 8 20 96 96 (1474560)
I0627 17:51:38.510676  2422 net.cpp:137] Memory required for data: 201850880
I0627 17:51:38.510689  2422 layer_factory.hpp:77] Creating layer relu3_bp1_I
I0627 17:51:38.510699  2422 net.cpp:84] Creating Layer relu3_bp1_I
I0627 17:51:38.510705  2422 net.cpp:406] relu3_bp1_I <- conv3_bp1_I
I0627 17:51:38.510716  2422 net.cpp:367] relu3_bp1_I -> conv3_bp1_I (in-place)
I0627 17:51:38.510988  2422 net.cpp:122] Setting up relu3_bp1_I
I0627 17:51:38.511003  2422 net.cpp:129] Top shape: 8 20 96 96 (1474560)
I0627 17:51:38.511008  2422 net.cpp:137] Memory required for data: 207749120
I0627 17:51:38.511014  2422 layer_factory.hpp:77] Creating layer conv3_bp1_I_relu3_bp1_I_0_split
I0627 17:51:38.511024  2422 net.cpp:84] Creating Layer conv3_bp1_I_relu3_bp1_I_0_split
I0627 17:51:38.511029  2422 net.cpp:406] conv3_bp1_I_relu3_bp1_I_0_split <- conv3_bp1_I
I0627 17:51:38.511039  2422 net.cpp:380] conv3_bp1_I_relu3_bp1_I_0_split -> conv3_bp1_I_relu3_bp1_I_0_split_0
I0627 17:51:38.511050  2422 net.cpp:380] conv3_bp1_I_relu3_bp1_I_0_split -> conv3_bp1_I_relu3_bp1_I_0_split_1
I0627 17:51:38.511119  2422 net.cpp:122] Setting up conv3_bp1_I_relu3_bp1_I_0_split
I0627 17:51:38.511132  2422 net.cpp:129] Top shape: 8 20 96 96 (1474560)
I0627 17:51:38.511137  2422 net.cpp:129] Top shape: 8 20 96 96 (1474560)
I0627 17:51:38.511142  2422 net.cpp:137] Memory required for data: 219545600
I0627 17:51:38.511147  2422 layer_factory.hpp:77] Creating layer conv3_bp1_PI
I0627 17:51:38.511173  2422 net.cpp:84] Creating Layer conv3_bp1_PI
I0627 17:51:38.511180  2422 net.cpp:406] conv3_bp1_PI <- eltwise1_bp1_eltwise1_bp1_0_split_1
I0627 17:51:38.511190  2422 net.cpp:380] conv3_bp1_PI -> conv3_bp1_PI
I0627 17:51:38.523313  2422 net.cpp:122] Setting up conv3_bp1_PI
I0627 17:51:38.523339  2422 net.cpp:129] Top shape: 8 20 96 96 (1474560)
I0627 17:51:38.523344  2422 net.cpp:137] Memory required for data: 225443840
I0627 17:51:38.523355  2422 layer_factory.hpp:77] Creating layer conv3_bp1_P
I0627 17:51:38.523365  2422 net.cpp:84] Creating Layer conv3_bp1_P
I0627 17:51:38.523370  2422 net.cpp:406] conv3_bp1_P <- conv3_bp1_I_relu3_bp1_I_0_split_0
I0627 17:51:38.523377  2422 net.cpp:406] conv3_bp1_P <- conv3_bp1_PI
I0627 17:51:38.523387  2422 net.cpp:380] conv3_bp1_P -> conv3_bp1_P
I0627 17:51:38.523439  2422 net.cpp:122] Setting up conv3_bp1_P
I0627 17:51:38.523452  2422 net.cpp:129] Top shape: 8 20 96 96 (1474560)
I0627 17:51:38.523456  2422 net.cpp:137] Memory required for data: 231342080
I0627 17:51:38.523463  2422 layer_factory.hpp:77] Creating layer concat_conv3_bp1
I0627 17:51:38.523480  2422 net.cpp:84] Creating Layer concat_conv3_bp1
I0627 17:51:38.523488  2422 net.cpp:406] concat_conv3_bp1 <- conv3_bp1_I_relu3_bp1_I_0_split_1
I0627 17:51:38.523499  2422 net.cpp:406] concat_conv3_bp1 <- conv3_bp1_P
I0627 17:51:38.523510  2422 net.cpp:380] concat_conv3_bp1 -> concat_conv3_bp1
I0627 17:51:38.523563  2422 net.cpp:122] Setting up concat_conv3_bp1
I0627 17:51:38.523576  2422 net.cpp:129] Top shape: 8 40 96 96 (2949120)
I0627 17:51:38.523579  2422 net.cpp:137] Memory required for data: 243138560
I0627 17:51:38.523584  2422 layer_factory.hpp:77] Creating layer concat_conv3_bp1_concat_conv3_bp1_0_split
I0627 17:51:38.523602  2422 net.cpp:84] Creating Layer concat_conv3_bp1_concat_conv3_bp1_0_split
I0627 17:51:38.523609  2422 net.cpp:406] concat_conv3_bp1_concat_conv3_bp1_0_split <- concat_conv3_bp1
I0627 17:51:38.523624  2422 net.cpp:380] concat_conv3_bp1_concat_conv3_bp1_0_split -> concat_conv3_bp1_concat_conv3_bp1_0_split_0
I0627 17:51:38.523640  2422 net.cpp:380] concat_conv3_bp1_concat_conv3_bp1_0_split -> concat_conv3_bp1_concat_conv3_bp1_0_split_1
I0627 17:51:38.523656  2422 net.cpp:380] concat_conv3_bp1_concat_conv3_bp1_0_split -> concat_conv3_bp1_concat_conv3_bp1_0_split_2
I0627 17:51:38.523671  2422 net.cpp:380] concat_conv3_bp1_concat_conv3_bp1_0_split -> concat_conv3_bp1_concat_conv3_bp1_0_split_3
I0627 17:51:38.523684  2422 net.cpp:380] concat_conv3_bp1_concat_conv3_bp1_0_split -> concat_conv3_bp1_concat_conv3_bp1_0_split_4
I0627 17:51:38.523813  2422 net.cpp:122] Setting up concat_conv3_bp1_concat_conv3_bp1_0_split
I0627 17:51:38.523842  2422 net.cpp:129] Top shape: 8 40 96 96 (2949120)
I0627 17:51:38.523851  2422 net.cpp:129] Top shape: 8 40 96 96 (2949120)
I0627 17:51:38.523861  2422 net.cpp:129] Top shape: 8 40 96 96 (2949120)
I0627 17:51:38.523867  2422 net.cpp:129] Top shape: 8 40 96 96 (2949120)
I0627 17:51:38.523874  2422 net.cpp:129] Top shape: 8 40 96 96 (2949120)
I0627 17:51:38.523878  2422 net.cpp:137] Memory required for data: 302120960
I0627 17:51:38.523883  2422 layer_factory.hpp:77] Creating layer weight_concat_conv1_bp1
I0627 17:51:38.523900  2422 net.cpp:84] Creating Layer weight_concat_conv1_bp1
I0627 17:51:38.523910  2422 net.cpp:406] weight_concat_conv1_bp1 <- concat_conv1_bp1_relu_concat_conv1_bp1_0_split_2
I0627 17:51:38.523922  2422 net.cpp:380] weight_concat_conv1_bp1 -> weight_concat_conv1_bp1
I0627 17:51:38.526652  2422 net.cpp:122] Setting up weight_concat_conv1_bp1
I0627 17:51:38.526675  2422 net.cpp:129] Top shape: 8 40 96 96 (2949120)
I0627 17:51:38.526681  2422 net.cpp:137] Memory required for data: 313917440
I0627 17:51:38.526692  2422 layer_factory.hpp:77] Creating layer eltwise2_bp1
I0627 17:51:38.526703  2422 net.cpp:84] Creating Layer eltwise2_bp1
I0627 17:51:38.526710  2422 net.cpp:406] eltwise2_bp1 <- weight_concat_conv1_bp1
I0627 17:51:38.526716  2422 net.cpp:406] eltwise2_bp1 <- concat_conv3_bp1_concat_conv3_bp1_0_split_0
I0627 17:51:38.526724  2422 net.cpp:380] eltwise2_bp1 -> output_bp1
I0627 17:51:38.526772  2422 net.cpp:122] Setting up eltwise2_bp1
I0627 17:51:38.526783  2422 net.cpp:129] Top shape: 8 40 96 96 (2949120)
I0627 17:51:38.526788  2422 net.cpp:137] Memory required for data: 325713920
I0627 17:51:38.526793  2422 layer_factory.hpp:77] Creating layer relu_output_bp1
I0627 17:51:38.526800  2422 net.cpp:84] Creating Layer relu_output_bp1
I0627 17:51:38.526808  2422 net.cpp:406] relu_output_bp1 <- output_bp1
I0627 17:51:38.526815  2422 net.cpp:367] relu_output_bp1 -> output_bp1 (in-place)
I0627 17:51:38.528107  2422 net.cpp:122] Setting up relu_output_bp1
I0627 17:51:38.528128  2422 net.cpp:129] Top shape: 8 40 96 96 (2949120)
I0627 17:51:38.528133  2422 net.cpp:137] Memory required for data: 337510400
I0627 17:51:38.528142  2422 layer_factory.hpp:77] Creating layer output_bp1_relu_output_bp1_0_split
I0627 17:51:38.528156  2422 net.cpp:84] Creating Layer output_bp1_relu_output_bp1_0_split
I0627 17:51:38.528162  2422 net.cpp:406] output_bp1_relu_output_bp1_0_split <- output_bp1
I0627 17:51:38.528180  2422 net.cpp:380] output_bp1_relu_output_bp1_0_split -> output_bp1_relu_output_bp1_0_split_0
I0627 17:51:38.528195  2422 net.cpp:380] output_bp1_relu_output_bp1_0_split -> output_bp1_relu_output_bp1_0_split_1
I0627 17:51:38.528208  2422 net.cpp:380] output_bp1_relu_output_bp1_0_split -> output_bp1_relu_output_bp1_0_split_2
I0627 17:51:38.528218  2422 net.cpp:380] output_bp1_relu_output_bp1_0_split -> output_bp1_relu_output_bp1_0_split_3
I0627 17:51:38.528226  2422 net.cpp:380] output_bp1_relu_output_bp1_0_split -> output_bp1_relu_output_bp1_0_split_4
I0627 17:51:38.528348  2422 net.cpp:122] Setting up output_bp1_relu_output_bp1_0_split
I0627 17:51:38.528360  2422 net.cpp:129] Top shape: 8 40 96 96 (2949120)
I0627 17:51:38.528365  2422 net.cpp:129] Top shape: 8 40 96 96 (2949120)
I0627 17:51:38.528372  2422 net.cpp:129] Top shape: 8 40 96 96 (2949120)
I0627 17:51:38.528378  2422 net.cpp:129] Top shape: 8 40 96 96 (2949120)
I0627 17:51:38.528383  2422 net.cpp:129] Top shape: 8 40 96 96 (2949120)
I0627 17:51:38.528386  2422 net.cpp:137] Memory required for data: 396492800
I0627 17:51:38.528390  2422 layer_factory.hpp:77] Creating layer conv1_bp2_I
I0627 17:51:38.528406  2422 net.cpp:84] Creating Layer conv1_bp2_I
I0627 17:51:38.528411  2422 net.cpp:406] conv1_bp2_I <- output_bp1_relu_output_bp1_0_split_0
I0627 17:51:38.528421  2422 net.cpp:380] conv1_bp2_I -> conv1_bp2_I
I0627 17:51:38.532013  2422 net.cpp:122] Setting up conv1_bp2_I
I0627 17:51:38.532035  2422 net.cpp:129] Top shape: 8 40 32 32 (327680)
I0627 17:51:38.532040  2422 net.cpp:137] Memory required for data: 397803520
I0627 17:51:38.532074  2422 layer_factory.hpp:77] Creating layer relu1_bp2_I
I0627 17:51:38.532088  2422 net.cpp:84] Creating Layer relu1_bp2_I
I0627 17:51:38.532094  2422 net.cpp:406] relu1_bp2_I <- conv1_bp2_I
I0627 17:51:38.532101  2422 net.cpp:367] relu1_bp2_I -> conv1_bp2_I (in-place)
I0627 17:51:38.532277  2422 net.cpp:122] Setting up relu1_bp2_I
I0627 17:51:38.532294  2422 net.cpp:129] Top shape: 8 40 32 32 (327680)
I0627 17:51:38.532299  2422 net.cpp:137] Memory required for data: 399114240
I0627 17:51:38.532308  2422 layer_factory.hpp:77] Creating layer conv1_bp2_I_relu1_bp2_I_0_split
I0627 17:51:38.532320  2422 net.cpp:84] Creating Layer conv1_bp2_I_relu1_bp2_I_0_split
I0627 17:51:38.532328  2422 net.cpp:406] conv1_bp2_I_relu1_bp2_I_0_split <- conv1_bp2_I
I0627 17:51:38.532343  2422 net.cpp:380] conv1_bp2_I_relu1_bp2_I_0_split -> conv1_bp2_I_relu1_bp2_I_0_split_0
I0627 17:51:38.532358  2422 net.cpp:380] conv1_bp2_I_relu1_bp2_I_0_split -> conv1_bp2_I_relu1_bp2_I_0_split_1
I0627 17:51:38.532428  2422 net.cpp:122] Setting up conv1_bp2_I_relu1_bp2_I_0_split
I0627 17:51:38.532441  2422 net.cpp:129] Top shape: 8 40 32 32 (327680)
I0627 17:51:38.532449  2422 net.cpp:129] Top shape: 8 40 32 32 (327680)
I0627 17:51:38.532454  2422 net.cpp:137] Memory required for data: 401735680
I0627 17:51:38.532461  2422 layer_factory.hpp:77] Creating layer conv1_bp2_PI
I0627 17:51:38.532481  2422 net.cpp:84] Creating Layer conv1_bp2_PI
I0627 17:51:38.532491  2422 net.cpp:406] conv1_bp2_PI <- output_bp1_relu_output_bp1_0_split_1
I0627 17:51:38.532507  2422 net.cpp:380] conv1_bp2_PI -> conv1_bp2_PI
I0627 17:51:38.544034  2422 net.cpp:122] Setting up conv1_bp2_PI
I0627 17:51:38.544056  2422 net.cpp:129] Top shape: 8 40 32 32 (327680)
I0627 17:51:38.544062  2422 net.cpp:137] Memory required for data: 403046400
I0627 17:51:38.544071  2422 layer_factory.hpp:77] Creating layer conv1_bp2_P
I0627 17:51:38.544080  2422 net.cpp:84] Creating Layer conv1_bp2_P
I0627 17:51:38.544085  2422 net.cpp:406] conv1_bp2_P <- conv1_bp2_I_relu1_bp2_I_0_split_0
I0627 17:51:38.544093  2422 net.cpp:406] conv1_bp2_P <- conv1_bp2_PI
I0627 17:51:38.544106  2422 net.cpp:380] conv1_bp2_P -> conv1_bp2_P
I0627 17:51:38.544157  2422 net.cpp:122] Setting up conv1_bp2_P
I0627 17:51:38.544174  2422 net.cpp:129] Top shape: 8 40 32 32 (327680)
I0627 17:51:38.544180  2422 net.cpp:137] Memory required for data: 404357120
I0627 17:51:38.544185  2422 layer_factory.hpp:77] Creating layer concat_conv1_bp2
I0627 17:51:38.544195  2422 net.cpp:84] Creating Layer concat_conv1_bp2
I0627 17:51:38.544200  2422 net.cpp:406] concat_conv1_bp2 <- conv1_bp2_I_relu1_bp2_I_0_split_1
I0627 17:51:38.544208  2422 net.cpp:406] concat_conv1_bp2 <- conv1_bp2_P
I0627 17:51:38.544215  2422 net.cpp:380] concat_conv1_bp2 -> concat_conv1_bp2
I0627 17:51:38.544258  2422 net.cpp:122] Setting up concat_conv1_bp2
I0627 17:51:38.544270  2422 net.cpp:129] Top shape: 8 80 32 32 (655360)
I0627 17:51:38.544273  2422 net.cpp:137] Memory required for data: 406978560
I0627 17:51:38.544277  2422 layer_factory.hpp:77] Creating layer relu_concat_conv1_bp2
I0627 17:51:38.544291  2422 net.cpp:84] Creating Layer relu_concat_conv1_bp2
I0627 17:51:38.544297  2422 net.cpp:406] relu_concat_conv1_bp2 <- concat_conv1_bp2
I0627 17:51:38.544308  2422 net.cpp:367] relu_concat_conv1_bp2 -> concat_conv1_bp2 (in-place)
I0627 17:51:38.545420  2422 net.cpp:122] Setting up relu_concat_conv1_bp2
I0627 17:51:38.545439  2422 net.cpp:129] Top shape: 8 80 32 32 (655360)
I0627 17:51:38.545446  2422 net.cpp:137] Memory required for data: 409600000
I0627 17:51:38.545459  2422 layer_factory.hpp:77] Creating layer concat_conv1_bp2_relu_concat_conv1_bp2_0_split
I0627 17:51:38.545469  2422 net.cpp:84] Creating Layer concat_conv1_bp2_relu_concat_conv1_bp2_0_split
I0627 17:51:38.545477  2422 net.cpp:406] concat_conv1_bp2_relu_concat_conv1_bp2_0_split <- concat_conv1_bp2
I0627 17:51:38.545487  2422 net.cpp:380] concat_conv1_bp2_relu_concat_conv1_bp2_0_split -> concat_conv1_bp2_relu_concat_conv1_bp2_0_split_0
I0627 17:51:38.545516  2422 net.cpp:380] concat_conv1_bp2_relu_concat_conv1_bp2_0_split -> concat_conv1_bp2_relu_concat_conv1_bp2_0_split_1
I0627 17:51:38.545526  2422 net.cpp:380] concat_conv1_bp2_relu_concat_conv1_bp2_0_split -> concat_conv1_bp2_relu_concat_conv1_bp2_0_split_2
I0627 17:51:38.545610  2422 net.cpp:122] Setting up concat_conv1_bp2_relu_concat_conv1_bp2_0_split
I0627 17:51:38.545621  2422 net.cpp:129] Top shape: 8 80 32 32 (655360)
I0627 17:51:38.545627  2422 net.cpp:129] Top shape: 8 80 32 32 (655360)
I0627 17:51:38.545632  2422 net.cpp:129] Top shape: 8 80 32 32 (655360)
I0627 17:51:38.545636  2422 net.cpp:137] Memory required for data: 417464320
I0627 17:51:38.545640  2422 layer_factory.hpp:77] Creating layer conv2_bp2_I
I0627 17:51:38.545656  2422 net.cpp:84] Creating Layer conv2_bp2_I
I0627 17:51:38.545663  2422 net.cpp:406] conv2_bp2_I <- concat_conv1_bp2_relu_concat_conv1_bp2_0_split_0
I0627 17:51:38.545675  2422 net.cpp:380] conv2_bp2_I -> conv2_bp2_I
I0627 17:51:38.549145  2422 net.cpp:122] Setting up conv2_bp2_I
I0627 17:51:38.549167  2422 net.cpp:129] Top shape: 8 20 96 96 (1474560)
I0627 17:51:38.549171  2422 net.cpp:137] Memory required for data: 423362560
I0627 17:51:38.549181  2422 layer_factory.hpp:77] Creating layer relu2_bp2_I
I0627 17:51:38.549190  2422 net.cpp:84] Creating Layer relu2_bp2_I
I0627 17:51:38.549196  2422 net.cpp:406] relu2_bp2_I <- conv2_bp2_I
I0627 17:51:38.549204  2422 net.cpp:367] relu2_bp2_I -> conv2_bp2_I (in-place)
I0627 17:51:38.549427  2422 net.cpp:122] Setting up relu2_bp2_I
I0627 17:51:38.549439  2422 net.cpp:129] Top shape: 8 20 96 96 (1474560)
I0627 17:51:38.549444  2422 net.cpp:137] Memory required for data: 429260800
I0627 17:51:38.549450  2422 layer_factory.hpp:77] Creating layer conv2_bp2_I_relu2_bp2_I_0_split
I0627 17:51:38.549458  2422 net.cpp:84] Creating Layer conv2_bp2_I_relu2_bp2_I_0_split
I0627 17:51:38.549463  2422 net.cpp:406] conv2_bp2_I_relu2_bp2_I_0_split <- conv2_bp2_I
I0627 17:51:38.549473  2422 net.cpp:380] conv2_bp2_I_relu2_bp2_I_0_split -> conv2_bp2_I_relu2_bp2_I_0_split_0
I0627 17:51:38.549481  2422 net.cpp:380] conv2_bp2_I_relu2_bp2_I_0_split -> conv2_bp2_I_relu2_bp2_I_0_split_1
I0627 17:51:38.549538  2422 net.cpp:122] Setting up conv2_bp2_I_relu2_bp2_I_0_split
I0627 17:51:38.549548  2422 net.cpp:129] Top shape: 8 20 96 96 (1474560)
I0627 17:51:38.549554  2422 net.cpp:129] Top shape: 8 20 96 96 (1474560)
I0627 17:51:38.549558  2422 net.cpp:137] Memory required for data: 441057280
I0627 17:51:38.549562  2422 layer_factory.hpp:77] Creating layer conv2_bp2_PI
I0627 17:51:38.549576  2422 net.cpp:84] Creating Layer conv2_bp2_PI
I0627 17:51:38.549582  2422 net.cpp:406] conv2_bp2_PI <- concat_conv1_bp2_relu_concat_conv1_bp2_0_split_1
I0627 17:51:38.549592  2422 net.cpp:380] conv2_bp2_PI -> conv2_bp2_PI
I0627 17:51:38.560636  2422 net.cpp:122] Setting up conv2_bp2_PI
I0627 17:51:38.560658  2422 net.cpp:129] Top shape: 8 20 96 96 (1474560)
I0627 17:51:38.560663  2422 net.cpp:137] Memory required for data: 446955520
I0627 17:51:38.560672  2422 layer_factory.hpp:77] Creating layer conv2_bp2_P
I0627 17:51:38.560680  2422 net.cpp:84] Creating Layer conv2_bp2_P
I0627 17:51:38.560685  2422 net.cpp:406] conv2_bp2_P <- conv2_bp2_I_relu2_bp2_I_0_split_0
I0627 17:51:38.560693  2422 net.cpp:406] conv2_bp2_P <- conv2_bp2_PI
I0627 17:51:38.560700  2422 net.cpp:380] conv2_bp2_P -> conv2_bp2_P
I0627 17:51:38.560748  2422 net.cpp:122] Setting up conv2_bp2_P
I0627 17:51:38.560760  2422 net.cpp:129] Top shape: 8 20 96 96 (1474560)
I0627 17:51:38.560765  2422 net.cpp:137] Memory required for data: 452853760
I0627 17:51:38.560770  2422 layer_factory.hpp:77] Creating layer concat_conv2_bp2
I0627 17:51:38.560783  2422 net.cpp:84] Creating Layer concat_conv2_bp2
I0627 17:51:38.560791  2422 net.cpp:406] concat_conv2_bp2 <- conv2_bp2_I_relu2_bp2_I_0_split_1
I0627 17:51:38.560799  2422 net.cpp:406] concat_conv2_bp2 <- conv2_bp2_P
I0627 17:51:38.560811  2422 net.cpp:380] concat_conv2_bp2 -> concat_conv2_bp2
I0627 17:51:38.560856  2422 net.cpp:122] Setting up concat_conv2_bp2
I0627 17:51:38.560881  2422 net.cpp:129] Top shape: 8 40 96 96 (2949120)
I0627 17:51:38.560886  2422 net.cpp:137] Memory required for data: 464650240
I0627 17:51:38.560892  2422 layer_factory.hpp:77] Creating layer concat_conv2_bp2_concat_conv2_bp2_0_split
I0627 17:51:38.560905  2422 net.cpp:84] Creating Layer concat_conv2_bp2_concat_conv2_bp2_0_split
I0627 17:51:38.560914  2422 net.cpp:406] concat_conv2_bp2_concat_conv2_bp2_0_split <- concat_conv2_bp2
I0627 17:51:38.560923  2422 net.cpp:380] concat_conv2_bp2_concat_conv2_bp2_0_split -> concat_conv2_bp2_concat_conv2_bp2_0_split_0
I0627 17:51:38.560940  2422 net.cpp:380] concat_conv2_bp2_concat_conv2_bp2_0_split -> concat_conv2_bp2_concat_conv2_bp2_0_split_1
I0627 17:51:38.561002  2422 net.cpp:122] Setting up concat_conv2_bp2_concat_conv2_bp2_0_split
I0627 17:51:38.561012  2422 net.cpp:129] Top shape: 8 40 96 96 (2949120)
I0627 17:51:38.561018  2422 net.cpp:129] Top shape: 8 40 96 96 (2949120)
I0627 17:51:38.561022  2422 net.cpp:137] Memory required for data: 488243200
I0627 17:51:38.561028  2422 layer_factory.hpp:77] Creating layer weight_output_bp1
I0627 17:51:38.561048  2422 net.cpp:84] Creating Layer weight_output_bp1
I0627 17:51:38.561056  2422 net.cpp:406] weight_output_bp1 <- output_bp1_relu_output_bp1_0_split_2
I0627 17:51:38.561066  2422 net.cpp:380] weight_output_bp1 -> weight_output_bp1
I0627 17:51:38.563503  2422 net.cpp:122] Setting up weight_output_bp1
I0627 17:51:38.563524  2422 net.cpp:129] Top shape: 8 40 96 96 (2949120)
I0627 17:51:38.563535  2422 net.cpp:137] Memory required for data: 500039680
I0627 17:51:38.563549  2422 layer_factory.hpp:77] Creating layer eltwise1_bp2
I0627 17:51:38.563560  2422 net.cpp:84] Creating Layer eltwise1_bp2
I0627 17:51:38.563568  2422 net.cpp:406] eltwise1_bp2 <- weight_output_bp1
I0627 17:51:38.563577  2422 net.cpp:406] eltwise1_bp2 <- concat_conv2_bp2_concat_conv2_bp2_0_split_0
I0627 17:51:38.563590  2422 net.cpp:380] eltwise1_bp2 -> eltwise1_bp2
I0627 17:51:38.563637  2422 net.cpp:122] Setting up eltwise1_bp2
I0627 17:51:38.563648  2422 net.cpp:129] Top shape: 8 40 96 96 (2949120)
I0627 17:51:38.563654  2422 net.cpp:137] Memory required for data: 511836160
I0627 17:51:38.563659  2422 layer_factory.hpp:77] Creating layer eltwise1_bp2_eltwise1_bp2_0_split
I0627 17:51:38.563669  2422 net.cpp:84] Creating Layer eltwise1_bp2_eltwise1_bp2_0_split
I0627 17:51:38.563676  2422 net.cpp:406] eltwise1_bp2_eltwise1_bp2_0_split <- eltwise1_bp2
I0627 17:51:38.563688  2422 net.cpp:380] eltwise1_bp2_eltwise1_bp2_0_split -> eltwise1_bp2_eltwise1_bp2_0_split_0
I0627 17:51:38.563702  2422 net.cpp:380] eltwise1_bp2_eltwise1_bp2_0_split -> eltwise1_bp2_eltwise1_bp2_0_split_1
I0627 17:51:38.563765  2422 net.cpp:122] Setting up eltwise1_bp2_eltwise1_bp2_0_split
I0627 17:51:38.563776  2422 net.cpp:129] Top shape: 8 40 96 96 (2949120)
I0627 17:51:38.563781  2422 net.cpp:129] Top shape: 8 40 96 96 (2949120)
I0627 17:51:38.563787  2422 net.cpp:137] Memory required for data: 535429120
I0627 17:51:38.563792  2422 layer_factory.hpp:77] Creating layer conv3_bp2_I
I0627 17:51:38.563813  2422 net.cpp:84] Creating Layer conv3_bp2_I
I0627 17:51:38.563822  2422 net.cpp:406] conv3_bp2_I <- eltwise1_bp2_eltwise1_bp2_0_split_0
I0627 17:51:38.563832  2422 net.cpp:380] conv3_bp2_I -> conv3_bp2_I
I0627 17:51:38.567030  2422 net.cpp:122] Setting up conv3_bp2_I
I0627 17:51:38.567049  2422 net.cpp:129] Top shape: 8 40 32 32 (327680)
I0627 17:51:38.567056  2422 net.cpp:137] Memory required for data: 536739840
I0627 17:51:38.567068  2422 layer_factory.hpp:77] Creating layer relu3_bp2_I
I0627 17:51:38.567080  2422 net.cpp:84] Creating Layer relu3_bp2_I
I0627 17:51:38.567085  2422 net.cpp:406] relu3_bp2_I <- conv3_bp2_I
I0627 17:51:38.567092  2422 net.cpp:367] relu3_bp2_I -> conv3_bp2_I (in-place)
I0627 17:51:38.567245  2422 net.cpp:122] Setting up relu3_bp2_I
I0627 17:51:38.567257  2422 net.cpp:129] Top shape: 8 40 32 32 (327680)
I0627 17:51:38.567261  2422 net.cpp:137] Memory required for data: 538050560
I0627 17:51:38.567268  2422 layer_factory.hpp:77] Creating layer conv3_bp2_I_relu3_bp2_I_0_split
I0627 17:51:38.567289  2422 net.cpp:84] Creating Layer conv3_bp2_I_relu3_bp2_I_0_split
I0627 17:51:38.567294  2422 net.cpp:406] conv3_bp2_I_relu3_bp2_I_0_split <- conv3_bp2_I
I0627 17:51:38.567301  2422 net.cpp:380] conv3_bp2_I_relu3_bp2_I_0_split -> conv3_bp2_I_relu3_bp2_I_0_split_0
I0627 17:51:38.567313  2422 net.cpp:380] conv3_bp2_I_relu3_bp2_I_0_split -> conv3_bp2_I_relu3_bp2_I_0_split_1
I0627 17:51:38.567374  2422 net.cpp:122] Setting up conv3_bp2_I_relu3_bp2_I_0_split
I0627 17:51:38.567384  2422 net.cpp:129] Top shape: 8 40 32 32 (327680)
I0627 17:51:38.567389  2422 net.cpp:129] Top shape: 8 40 32 32 (327680)
I0627 17:51:38.567394  2422 net.cpp:137] Memory required for data: 540672000
I0627 17:51:38.567397  2422 layer_factory.hpp:77] Creating layer conv3_bp2_PI
I0627 17:51:38.567411  2422 net.cpp:84] Creating Layer conv3_bp2_PI
I0627 17:51:38.567418  2422 net.cpp:406] conv3_bp2_PI <- eltwise1_bp2_eltwise1_bp2_0_split_1
I0627 17:51:38.567427  2422 net.cpp:380] conv3_bp2_PI -> conv3_bp2_PI
I0627 17:51:38.577842  2422 net.cpp:122] Setting up conv3_bp2_PI
I0627 17:51:38.577863  2422 net.cpp:129] Top shape: 8 40 32 32 (327680)
I0627 17:51:38.577868  2422 net.cpp:137] Memory required for data: 541982720
I0627 17:51:38.577877  2422 layer_factory.hpp:77] Creating layer conv3_bp2_P
I0627 17:51:38.577885  2422 net.cpp:84] Creating Layer conv3_bp2_P
I0627 17:51:38.577890  2422 net.cpp:406] conv3_bp2_P <- conv3_bp2_I_relu3_bp2_I_0_split_0
I0627 17:51:38.577896  2422 net.cpp:406] conv3_bp2_P <- conv3_bp2_PI
I0627 17:51:38.577905  2422 net.cpp:380] conv3_bp2_P -> conv3_bp2_P
I0627 17:51:38.577946  2422 net.cpp:122] Setting up conv3_bp2_P
I0627 17:51:38.577958  2422 net.cpp:129] Top shape: 8 40 32 32 (327680)
I0627 17:51:38.577961  2422 net.cpp:137] Memory required for data: 543293440
I0627 17:51:38.577966  2422 layer_factory.hpp:77] Creating layer concat_conv3_bp2
I0627 17:51:38.577973  2422 net.cpp:84] Creating Layer concat_conv3_bp2
I0627 17:51:38.577977  2422 net.cpp:406] concat_conv3_bp2 <- conv3_bp2_I_relu3_bp2_I_0_split_1
I0627 17:51:38.577983  2422 net.cpp:406] concat_conv3_bp2 <- conv3_bp2_P
I0627 17:51:38.577991  2422 net.cpp:380] concat_conv3_bp2 -> concat_conv3_bp2
I0627 17:51:38.578027  2422 net.cpp:122] Setting up concat_conv3_bp2
I0627 17:51:38.578035  2422 net.cpp:129] Top shape: 8 80 32 32 (655360)
I0627 17:51:38.578039  2422 net.cpp:137] Memory required for data: 545914880
I0627 17:51:38.578043  2422 layer_factory.hpp:77] Creating layer concat_conv3_bp2_concat_conv3_bp2_0_split
I0627 17:51:38.578065  2422 net.cpp:84] Creating Layer concat_conv3_bp2_concat_conv3_bp2_0_split
I0627 17:51:38.578071  2422 net.cpp:406] concat_conv3_bp2_concat_conv3_bp2_0_split <- concat_conv3_bp2
I0627 17:51:38.578080  2422 net.cpp:380] concat_conv3_bp2_concat_conv3_bp2_0_split -> concat_conv3_bp2_concat_conv3_bp2_0_split_0
I0627 17:51:38.578089  2422 net.cpp:380] concat_conv3_bp2_concat_conv3_bp2_0_split -> concat_conv3_bp2_concat_conv3_bp2_0_split_1
I0627 17:51:38.578097  2422 net.cpp:380] concat_conv3_bp2_concat_conv3_bp2_0_split -> concat_conv3_bp2_concat_conv3_bp2_0_split_2
I0627 17:51:38.578105  2422 net.cpp:380] concat_conv3_bp2_concat_conv3_bp2_0_split -> concat_conv3_bp2_concat_conv3_bp2_0_split_3
I0627 17:51:38.578191  2422 net.cpp:122] Setting up concat_conv3_bp2_concat_conv3_bp2_0_split
I0627 17:51:38.578202  2422 net.cpp:129] Top shape: 8 80 32 32 (655360)
I0627 17:51:38.578207  2422 net.cpp:129] Top shape: 8 80 32 32 (655360)
I0627 17:51:38.578210  2422 net.cpp:129] Top shape: 8 80 32 32 (655360)
I0627 17:51:38.578215  2422 net.cpp:129] Top shape: 8 80 32 32 (655360)
I0627 17:51:38.578219  2422 net.cpp:137] Memory required for data: 556400640
I0627 17:51:38.578224  2422 layer_factory.hpp:77] Creating layer weight_concat_conv1_bp2
I0627 17:51:38.578236  2422 net.cpp:84] Creating Layer weight_concat_conv1_bp2
I0627 17:51:38.578246  2422 net.cpp:406] weight_concat_conv1_bp2 <- concat_conv1_bp2_relu_concat_conv1_bp2_0_split_2
I0627 17:51:38.578255  2422 net.cpp:380] weight_concat_conv1_bp2 -> weight_concat_conv1_bp2
I0627 17:51:38.580673  2422 net.cpp:122] Setting up weight_concat_conv1_bp2
I0627 17:51:38.580691  2422 net.cpp:129] Top shape: 8 80 32 32 (655360)
I0627 17:51:38.580695  2422 net.cpp:137] Memory required for data: 559022080
I0627 17:51:38.580705  2422 layer_factory.hpp:77] Creating layer eltwise2_bp2
I0627 17:51:38.580714  2422 net.cpp:84] Creating Layer eltwise2_bp2
I0627 17:51:38.580719  2422 net.cpp:406] eltwise2_bp2 <- weight_concat_conv1_bp2
I0627 17:51:38.580726  2422 net.cpp:406] eltwise2_bp2 <- concat_conv3_bp2_concat_conv3_bp2_0_split_0
I0627 17:51:38.580735  2422 net.cpp:380] eltwise2_bp2 -> output_bp2
I0627 17:51:38.580780  2422 net.cpp:122] Setting up eltwise2_bp2
I0627 17:51:38.580791  2422 net.cpp:129] Top shape: 8 80 32 32 (655360)
I0627 17:51:38.580795  2422 net.cpp:137] Memory required for data: 561643520
I0627 17:51:38.580799  2422 layer_factory.hpp:77] Creating layer relu_output_bp2
I0627 17:51:38.580812  2422 net.cpp:84] Creating Layer relu_output_bp2
I0627 17:51:38.580818  2422 net.cpp:406] relu_output_bp2 <- output_bp2
I0627 17:51:38.580828  2422 net.cpp:367] relu_output_bp2 -> output_bp2 (in-place)
I0627 17:51:38.580993  2422 net.cpp:122] Setting up relu_output_bp2
I0627 17:51:38.581007  2422 net.cpp:129] Top shape: 8 80 32 32 (655360)
I0627 17:51:38.581010  2422 net.cpp:137] Memory required for data: 564264960
I0627 17:51:38.581017  2422 layer_factory.hpp:77] Creating layer output_bp2_relu_output_bp2_0_split
I0627 17:51:38.581024  2422 net.cpp:84] Creating Layer output_bp2_relu_output_bp2_0_split
I0627 17:51:38.581028  2422 net.cpp:406] output_bp2_relu_output_bp2_0_split <- output_bp2
I0627 17:51:38.581035  2422 net.cpp:380] output_bp2_relu_output_bp2_0_split -> output_bp2_relu_output_bp2_0_split_0
I0627 17:51:38.581044  2422 net.cpp:380] output_bp2_relu_output_bp2_0_split -> output_bp2_relu_output_bp2_0_split_1
I0627 17:51:38.581053  2422 net.cpp:380] output_bp2_relu_output_bp2_0_split -> output_bp2_relu_output_bp2_0_split_2
I0627 17:51:38.581060  2422 net.cpp:380] output_bp2_relu_output_bp2_0_split -> output_bp2_relu_output_bp2_0_split_3
I0627 17:51:38.581151  2422 net.cpp:122] Setting up output_bp2_relu_output_bp2_0_split
I0627 17:51:38.581161  2422 net.cpp:129] Top shape: 8 80 32 32 (655360)
I0627 17:51:38.581166  2422 net.cpp:129] Top shape: 8 80 32 32 (655360)
I0627 17:51:38.581171  2422 net.cpp:129] Top shape: 8 80 32 32 (655360)
I0627 17:51:38.581174  2422 net.cpp:129] Top shape: 8 80 32 32 (655360)
I0627 17:51:38.581178  2422 net.cpp:137] Memory required for data: 574750720
I0627 17:51:38.581182  2422 layer_factory.hpp:77] Creating layer conv1_bp3_I
I0627 17:51:38.581192  2422 net.cpp:84] Creating Layer conv1_bp3_I
I0627 17:51:38.581197  2422 net.cpp:406] conv1_bp3_I <- output_bp2_relu_output_bp2_0_split_0
I0627 17:51:38.581207  2422 net.cpp:380] conv1_bp3_I -> conv1_bp3_I
I0627 17:51:38.585150  2422 net.cpp:122] Setting up conv1_bp3_I
I0627 17:51:38.585168  2422 net.cpp:129] Top shape: 8 20 96 96 (1474560)
I0627 17:51:38.585172  2422 net.cpp:137] Memory required for data: 580648960
I0627 17:51:38.585181  2422 layer_factory.hpp:77] Creating layer relu1_bp3_I
I0627 17:51:38.585191  2422 net.cpp:84] Creating Layer relu1_bp3_I
I0627 17:51:38.585196  2422 net.cpp:406] relu1_bp3_I <- conv1_bp3_I
I0627 17:51:38.585202  2422 net.cpp:367] relu1_bp3_I -> conv1_bp3_I (in-place)
I0627 17:51:38.585415  2422 net.cpp:122] Setting up relu1_bp3_I
I0627 17:51:38.585429  2422 net.cpp:129] Top shape: 8 20 96 96 (1474560)
I0627 17:51:38.585433  2422 net.cpp:137] Memory required for data: 586547200
I0627 17:51:38.585440  2422 layer_factory.hpp:77] Creating layer conv1_bp3_I_relu1_bp3_I_0_split
I0627 17:51:38.585450  2422 net.cpp:84] Creating Layer conv1_bp3_I_relu1_bp3_I_0_split
I0627 17:51:38.585456  2422 net.cpp:406] conv1_bp3_I_relu1_bp3_I_0_split <- conv1_bp3_I
I0627 17:51:38.585467  2422 net.cpp:380] conv1_bp3_I_relu1_bp3_I_0_split -> conv1_bp3_I_relu1_bp3_I_0_split_0
I0627 17:51:38.585479  2422 net.cpp:380] conv1_bp3_I_relu1_bp3_I_0_split -> conv1_bp3_I_relu1_bp3_I_0_split_1
I0627 17:51:38.585557  2422 net.cpp:122] Setting up conv1_bp3_I_relu1_bp3_I_0_split
I0627 17:51:38.585568  2422 net.cpp:129] Top shape: 8 20 96 96 (1474560)
I0627 17:51:38.585573  2422 net.cpp:129] Top shape: 8 20 96 96 (1474560)
I0627 17:51:38.585577  2422 net.cpp:137] Memory required for data: 598343680
I0627 17:51:38.585583  2422 layer_factory.hpp:77] Creating layer conv1_bp3_PI
I0627 17:51:38.585603  2422 net.cpp:84] Creating Layer conv1_bp3_PI
I0627 17:51:38.585610  2422 net.cpp:406] conv1_bp3_PI <- output_bp2_relu_output_bp2_0_split_1
I0627 17:51:38.585619  2422 net.cpp:380] conv1_bp3_PI -> conv1_bp3_PI
I0627 17:51:38.595417  2422 net.cpp:122] Setting up conv1_bp3_PI
I0627 17:51:38.595437  2422 net.cpp:129] Top shape: 8 20 96 96 (1474560)
I0627 17:51:38.595441  2422 net.cpp:137] Memory required for data: 604241920
I0627 17:51:38.595454  2422 layer_factory.hpp:77] Creating layer conv1_bp3_P
I0627 17:51:38.595464  2422 net.cpp:84] Creating Layer conv1_bp3_P
I0627 17:51:38.595472  2422 net.cpp:406] conv1_bp3_P <- conv1_bp3_I_relu1_bp3_I_0_split_0
I0627 17:51:38.595480  2422 net.cpp:406] conv1_bp3_P <- conv1_bp3_PI
I0627 17:51:38.595491  2422 net.cpp:380] conv1_bp3_P -> conv1_bp3_P
I0627 17:51:38.595537  2422 net.cpp:122] Setting up conv1_bp3_P
I0627 17:51:38.595548  2422 net.cpp:129] Top shape: 8 20 96 96 (1474560)
I0627 17:51:38.595551  2422 net.cpp:137] Memory required for data: 610140160
I0627 17:51:38.595556  2422 layer_factory.hpp:77] Creating layer concat_conv1_bp3
I0627 17:51:38.595566  2422 net.cpp:84] Creating Layer concat_conv1_bp3
I0627 17:51:38.595572  2422 net.cpp:406] concat_conv1_bp3 <- conv1_bp3_I_relu1_bp3_I_0_split_1
I0627 17:51:38.595580  2422 net.cpp:406] concat_conv1_bp3 <- conv1_bp3_P
I0627 17:51:38.595588  2422 net.cpp:380] concat_conv1_bp3 -> concat_conv1_bp3
I0627 17:51:38.595629  2422 net.cpp:122] Setting up concat_conv1_bp3
I0627 17:51:38.595640  2422 net.cpp:129] Top shape: 8 40 96 96 (2949120)
I0627 17:51:38.595644  2422 net.cpp:137] Memory required for data: 621936640
I0627 17:51:38.595649  2422 layer_factory.hpp:77] Creating layer relu_concat_conv1_bp3
I0627 17:51:38.595659  2422 net.cpp:84] Creating Layer relu_concat_conv1_bp3
I0627 17:51:38.595664  2422 net.cpp:406] relu_concat_conv1_bp3 <- concat_conv1_bp3
I0627 17:51:38.595672  2422 net.cpp:367] relu_concat_conv1_bp3 -> concat_conv1_bp3 (in-place)
I0627 17:51:38.596756  2422 net.cpp:122] Setting up relu_concat_conv1_bp3
I0627 17:51:38.596776  2422 net.cpp:129] Top shape: 8 40 96 96 (2949120)
I0627 17:51:38.596782  2422 net.cpp:137] Memory required for data: 633733120
I0627 17:51:38.596791  2422 layer_factory.hpp:77] Creating layer concat_conv1_bp3_relu_concat_conv1_bp3_0_split
I0627 17:51:38.596801  2422 net.cpp:84] Creating Layer concat_conv1_bp3_relu_concat_conv1_bp3_0_split
I0627 17:51:38.596807  2422 net.cpp:406] concat_conv1_bp3_relu_concat_conv1_bp3_0_split <- concat_conv1_bp3
I0627 17:51:38.596819  2422 net.cpp:380] concat_conv1_bp3_relu_concat_conv1_bp3_0_split -> concat_conv1_bp3_relu_concat_conv1_bp3_0_split_0
I0627 17:51:38.596832  2422 net.cpp:380] concat_conv1_bp3_relu_concat_conv1_bp3_0_split -> concat_conv1_bp3_relu_concat_conv1_bp3_0_split_1
I0627 17:51:38.596844  2422 net.cpp:380] concat_conv1_bp3_relu_concat_conv1_bp3_0_split -> concat_conv1_bp3_relu_concat_conv1_bp3_0_split_2
I0627 17:51:38.596920  2422 net.cpp:122] Setting up concat_conv1_bp3_relu_concat_conv1_bp3_0_split
I0627 17:51:38.596930  2422 net.cpp:129] Top shape: 8 40 96 96 (2949120)
I0627 17:51:38.596935  2422 net.cpp:129] Top shape: 8 40 96 96 (2949120)
I0627 17:51:38.596940  2422 net.cpp:129] Top shape: 8 40 96 96 (2949120)
I0627 17:51:38.596946  2422 net.cpp:137] Memory required for data: 669122560
I0627 17:51:38.596951  2422 layer_factory.hpp:77] Creating layer conv2_bp3_I
I0627 17:51:38.596967  2422 net.cpp:84] Creating Layer conv2_bp3_I
I0627 17:51:38.596974  2422 net.cpp:406] conv2_bp3_I <- concat_conv1_bp3_relu_concat_conv1_bp3_0_split_0
I0627 17:51:38.596983  2422 net.cpp:380] conv2_bp3_I -> conv2_bp3_I
I0627 17:51:38.599869  2422 net.cpp:122] Setting up conv2_bp3_I
I0627 17:51:38.599896  2422 net.cpp:129] Top shape: 8 40 32 32 (327680)
I0627 17:51:38.599901  2422 net.cpp:137] Memory required for data: 670433280
I0627 17:51:38.599910  2422 layer_factory.hpp:77] Creating layer relu2_bp3_I
I0627 17:51:38.599916  2422 net.cpp:84] Creating Layer relu2_bp3_I
I0627 17:51:38.599920  2422 net.cpp:406] relu2_bp3_I <- conv2_bp3_I
I0627 17:51:38.599928  2422 net.cpp:367] relu2_bp3_I -> conv2_bp3_I (in-place)
I0627 17:51:38.600075  2422 net.cpp:122] Setting up relu2_bp3_I
I0627 17:51:38.600087  2422 net.cpp:129] Top shape: 8 40 32 32 (327680)
I0627 17:51:38.600090  2422 net.cpp:137] Memory required for data: 671744000
I0627 17:51:38.600096  2422 layer_factory.hpp:77] Creating layer conv2_bp3_I_relu2_bp3_I_0_split
I0627 17:51:38.600103  2422 net.cpp:84] Creating Layer conv2_bp3_I_relu2_bp3_I_0_split
I0627 17:51:38.600111  2422 net.cpp:406] conv2_bp3_I_relu2_bp3_I_0_split <- conv2_bp3_I
I0627 17:51:38.600121  2422 net.cpp:380] conv2_bp3_I_relu2_bp3_I_0_split -> conv2_bp3_I_relu2_bp3_I_0_split_0
I0627 17:51:38.600131  2422 net.cpp:380] conv2_bp3_I_relu2_bp3_I_0_split -> conv2_bp3_I_relu2_bp3_I_0_split_1
I0627 17:51:38.600199  2422 net.cpp:122] Setting up conv2_bp3_I_relu2_bp3_I_0_split
I0627 17:51:38.600210  2422 net.cpp:129] Top shape: 8 40 32 32 (327680)
I0627 17:51:38.600215  2422 net.cpp:129] Top shape: 8 40 32 32 (327680)
I0627 17:51:38.600219  2422 net.cpp:137] Memory required for data: 674365440
I0627 17:51:38.600224  2422 layer_factory.hpp:77] Creating layer conv2_bp3_PI
I0627 17:51:38.600240  2422 net.cpp:84] Creating Layer conv2_bp3_PI
I0627 17:51:38.600248  2422 net.cpp:406] conv2_bp3_PI <- concat_conv1_bp3_relu_concat_conv1_bp3_0_split_1
I0627 17:51:38.600260  2422 net.cpp:380] conv2_bp3_PI -> conv2_bp3_PI
I0627 17:51:38.609747  2422 net.cpp:122] Setting up conv2_bp3_PI
I0627 17:51:38.609766  2422 net.cpp:129] Top shape: 8 40 32 32 (327680)
I0627 17:51:38.609768  2422 net.cpp:137] Memory required for data: 675676160
I0627 17:51:38.609776  2422 layer_factory.hpp:77] Creating layer conv2_bp3_P
I0627 17:51:38.609786  2422 net.cpp:84] Creating Layer conv2_bp3_P
I0627 17:51:38.609791  2422 net.cpp:406] conv2_bp3_P <- conv2_bp3_I_relu2_bp3_I_0_split_0
I0627 17:51:38.609797  2422 net.cpp:406] conv2_bp3_P <- conv2_bp3_PI
I0627 17:51:38.609802  2422 net.cpp:380] conv2_bp3_P -> conv2_bp3_P
I0627 17:51:38.609848  2422 net.cpp:122] Setting up conv2_bp3_P
I0627 17:51:38.609858  2422 net.cpp:129] Top shape: 8 40 32 32 (327680)
I0627 17:51:38.609861  2422 net.cpp:137] Memory required for data: 676986880
I0627 17:51:38.609864  2422 layer_factory.hpp:77] Creating layer concat_conv2_bp3
I0627 17:51:38.609870  2422 net.cpp:84] Creating Layer concat_conv2_bp3
I0627 17:51:38.609875  2422 net.cpp:406] concat_conv2_bp3 <- conv2_bp3_I_relu2_bp3_I_0_split_1
I0627 17:51:38.609880  2422 net.cpp:406] concat_conv2_bp3 <- conv2_bp3_P
I0627 17:51:38.609889  2422 net.cpp:380] concat_conv2_bp3 -> concat_conv2_bp3
I0627 17:51:38.609923  2422 net.cpp:122] Setting up concat_conv2_bp3
I0627 17:51:38.609932  2422 net.cpp:129] Top shape: 8 80 32 32 (655360)
I0627 17:51:38.609935  2422 net.cpp:137] Memory required for data: 679608320
I0627 17:51:38.609938  2422 layer_factory.hpp:77] Creating layer weight_output_bp2
I0627 17:51:38.609951  2422 net.cpp:84] Creating Layer weight_output_bp2
I0627 17:51:38.609959  2422 net.cpp:406] weight_output_bp2 <- output_bp2_relu_output_bp2_0_split_2
I0627 17:51:38.609968  2422 net.cpp:380] weight_output_bp2 -> weight_output_bp2
I0627 17:51:38.612151  2422 net.cpp:122] Setting up weight_output_bp2
I0627 17:51:38.612174  2422 net.cpp:129] Top shape: 8 80 32 32 (655360)
I0627 17:51:38.612180  2422 net.cpp:137] Memory required for data: 682229760
I0627 17:51:38.612205  2422 layer_factory.hpp:77] Creating layer eltwise1_bp3
I0627 17:51:38.612213  2422 net.cpp:84] Creating Layer eltwise1_bp3
I0627 17:51:38.612217  2422 net.cpp:406] eltwise1_bp3 <- weight_output_bp2
I0627 17:51:38.612223  2422 net.cpp:406] eltwise1_bp3 <- concat_conv2_bp3
I0627 17:51:38.612231  2422 net.cpp:380] eltwise1_bp3 -> eltwise1_bp3
I0627 17:51:38.612290  2422 net.cpp:122] Setting up eltwise1_bp3
I0627 17:51:38.612303  2422 net.cpp:129] Top shape: 8 80 32 32 (655360)
I0627 17:51:38.612308  2422 net.cpp:137] Memory required for data: 684851200
I0627 17:51:38.612311  2422 layer_factory.hpp:77] Creating layer eltwise1_bp3_eltwise1_bp3_0_split
I0627 17:51:38.612339  2422 net.cpp:84] Creating Layer eltwise1_bp3_eltwise1_bp3_0_split
I0627 17:51:38.612344  2422 net.cpp:406] eltwise1_bp3_eltwise1_bp3_0_split <- eltwise1_bp3
I0627 17:51:38.612351  2422 net.cpp:380] eltwise1_bp3_eltwise1_bp3_0_split -> eltwise1_bp3_eltwise1_bp3_0_split_0
I0627 17:51:38.612361  2422 net.cpp:380] eltwise1_bp3_eltwise1_bp3_0_split -> eltwise1_bp3_eltwise1_bp3_0_split_1
I0627 17:51:38.612418  2422 net.cpp:122] Setting up eltwise1_bp3_eltwise1_bp3_0_split
I0627 17:51:38.612428  2422 net.cpp:129] Top shape: 8 80 32 32 (655360)
I0627 17:51:38.612433  2422 net.cpp:129] Top shape: 8 80 32 32 (655360)
I0627 17:51:38.612438  2422 net.cpp:137] Memory required for data: 690094080
I0627 17:51:38.612443  2422 layer_factory.hpp:77] Creating layer conv3_bp3_I
I0627 17:51:38.612459  2422 net.cpp:84] Creating Layer conv3_bp3_I
I0627 17:51:38.612466  2422 net.cpp:406] conv3_bp3_I <- eltwise1_bp3_eltwise1_bp3_0_split_0
I0627 17:51:38.612474  2422 net.cpp:380] conv3_bp3_I -> conv3_bp3_I
I0627 17:51:38.615262  2422 net.cpp:122] Setting up conv3_bp3_I
I0627 17:51:38.615278  2422 net.cpp:129] Top shape: 8 20 96 96 (1474560)
I0627 17:51:38.615283  2422 net.cpp:137] Memory required for data: 695992320
I0627 17:51:38.615294  2422 layer_factory.hpp:77] Creating layer relu3_bp3_I
I0627 17:51:38.615305  2422 net.cpp:84] Creating Layer relu3_bp3_I
I0627 17:51:38.615312  2422 net.cpp:406] relu3_bp3_I <- conv3_bp3_I
I0627 17:51:38.615320  2422 net.cpp:367] relu3_bp3_I -> conv3_bp3_I (in-place)
I0627 17:51:38.616271  2422 net.cpp:122] Setting up relu3_bp3_I
I0627 17:51:38.616287  2422 net.cpp:129] Top shape: 8 20 96 96 (1474560)
I0627 17:51:38.616291  2422 net.cpp:137] Memory required for data: 701890560
I0627 17:51:38.616297  2422 layer_factory.hpp:77] Creating layer conv3_bp3_I_relu3_bp3_I_0_split
I0627 17:51:38.616303  2422 net.cpp:84] Creating Layer conv3_bp3_I_relu3_bp3_I_0_split
I0627 17:51:38.616308  2422 net.cpp:406] conv3_bp3_I_relu3_bp3_I_0_split <- conv3_bp3_I
I0627 17:51:38.616315  2422 net.cpp:380] conv3_bp3_I_relu3_bp3_I_0_split -> conv3_bp3_I_relu3_bp3_I_0_split_0
I0627 17:51:38.616324  2422 net.cpp:380] conv3_bp3_I_relu3_bp3_I_0_split -> conv3_bp3_I_relu3_bp3_I_0_split_1
I0627 17:51:38.616387  2422 net.cpp:122] Setting up conv3_bp3_I_relu3_bp3_I_0_split
I0627 17:51:38.616397  2422 net.cpp:129] Top shape: 8 20 96 96 (1474560)
I0627 17:51:38.616401  2422 net.cpp:129] Top shape: 8 20 96 96 (1474560)
I0627 17:51:38.616405  2422 net.cpp:137] Memory required for data: 713687040
I0627 17:51:38.616408  2422 layer_factory.hpp:77] Creating layer conv3_bp3_PI
I0627 17:51:38.616420  2422 net.cpp:84] Creating Layer conv3_bp3_PI
I0627 17:51:38.616425  2422 net.cpp:406] conv3_bp3_PI <- eltwise1_bp3_eltwise1_bp3_0_split_1
I0627 17:51:38.616434  2422 net.cpp:380] conv3_bp3_PI -> conv3_bp3_PI
I0627 17:51:38.625658  2422 net.cpp:122] Setting up conv3_bp3_PI
I0627 17:51:38.625674  2422 net.cpp:129] Top shape: 8 20 96 96 (1474560)
I0627 17:51:38.625679  2422 net.cpp:137] Memory required for data: 719585280
I0627 17:51:38.625686  2422 layer_factory.hpp:77] Creating layer conv3_bp3_P
I0627 17:51:38.625694  2422 net.cpp:84] Creating Layer conv3_bp3_P
I0627 17:51:38.625699  2422 net.cpp:406] conv3_bp3_P <- conv3_bp3_I_relu3_bp3_I_0_split_0
I0627 17:51:38.625705  2422 net.cpp:406] conv3_bp3_P <- conv3_bp3_PI
I0627 17:51:38.625710  2422 net.cpp:380] conv3_bp3_P -> conv3_bp3_P
I0627 17:51:38.625754  2422 net.cpp:122] Setting up conv3_bp3_P
I0627 17:51:38.625763  2422 net.cpp:129] Top shape: 8 20 96 96 (1474560)
I0627 17:51:38.625767  2422 net.cpp:137] Memory required for data: 725483520
I0627 17:51:38.625771  2422 layer_factory.hpp:77] Creating layer concat_conv3_bp3
I0627 17:51:38.625794  2422 net.cpp:84] Creating Layer concat_conv3_bp3
I0627 17:51:38.625799  2422 net.cpp:406] concat_conv3_bp3 <- conv3_bp3_I_relu3_bp3_I_0_split_1
I0627 17:51:38.625807  2422 net.cpp:406] concat_conv3_bp3 <- conv3_bp3_P
I0627 17:51:38.625815  2422 net.cpp:380] concat_conv3_bp3 -> concat_conv3_bp3
I0627 17:51:38.625855  2422 net.cpp:122] Setting up concat_conv3_bp3
I0627 17:51:38.625864  2422 net.cpp:129] Top shape: 8 40 96 96 (2949120)
I0627 17:51:38.625866  2422 net.cpp:137] Memory required for data: 737280000
I0627 17:51:38.625870  2422 layer_factory.hpp:77] Creating layer concat_conv3_bp3_concat_conv3_bp3_0_split
I0627 17:51:38.625877  2422 net.cpp:84] Creating Layer concat_conv3_bp3_concat_conv3_bp3_0_split
I0627 17:51:38.625880  2422 net.cpp:406] concat_conv3_bp3_concat_conv3_bp3_0_split <- concat_conv3_bp3
I0627 17:51:38.625888  2422 net.cpp:380] concat_conv3_bp3_concat_conv3_bp3_0_split -> concat_conv3_bp3_concat_conv3_bp3_0_split_0
I0627 17:51:38.625896  2422 net.cpp:380] concat_conv3_bp3_concat_conv3_bp3_0_split -> concat_conv3_bp3_concat_conv3_bp3_0_split_1
I0627 17:51:38.625906  2422 net.cpp:380] concat_conv3_bp3_concat_conv3_bp3_0_split -> concat_conv3_bp3_concat_conv3_bp3_0_split_2
I0627 17:51:38.625917  2422 net.cpp:380] concat_conv3_bp3_concat_conv3_bp3_0_split -> concat_conv3_bp3_concat_conv3_bp3_0_split_3
I0627 17:51:38.626005  2422 net.cpp:122] Setting up concat_conv3_bp3_concat_conv3_bp3_0_split
I0627 17:51:38.626015  2422 net.cpp:129] Top shape: 8 40 96 96 (2949120)
I0627 17:51:38.626019  2422 net.cpp:129] Top shape: 8 40 96 96 (2949120)
I0627 17:51:38.626024  2422 net.cpp:129] Top shape: 8 40 96 96 (2949120)
I0627 17:51:38.626031  2422 net.cpp:129] Top shape: 8 40 96 96 (2949120)
I0627 17:51:38.626037  2422 net.cpp:137] Memory required for data: 784465920
I0627 17:51:38.626040  2422 layer_factory.hpp:77] Creating layer weight_concat_conv1_bp3
I0627 17:51:38.626058  2422 net.cpp:84] Creating Layer weight_concat_conv1_bp3
I0627 17:51:38.626065  2422 net.cpp:406] weight_concat_conv1_bp3 <- concat_conv1_bp3_relu_concat_conv1_bp3_0_split_2
I0627 17:51:38.626073  2422 net.cpp:380] weight_concat_conv1_bp3 -> weight_concat_conv1_bp3
I0627 17:51:38.628319  2422 net.cpp:122] Setting up weight_concat_conv1_bp3
I0627 17:51:38.628336  2422 net.cpp:129] Top shape: 8 40 96 96 (2949120)
I0627 17:51:38.628341  2422 net.cpp:137] Memory required for data: 796262400
I0627 17:51:38.628355  2422 layer_factory.hpp:77] Creating layer eltwise2_bp3_1
I0627 17:51:38.628363  2422 net.cpp:84] Creating Layer eltwise2_bp3_1
I0627 17:51:38.628370  2422 net.cpp:406] eltwise2_bp3_1 <- weight_concat_conv1_bp3
I0627 17:51:38.628376  2422 net.cpp:406] eltwise2_bp3_1 <- concat_conv3_bp3_concat_conv3_bp3_0_split_0
I0627 17:51:38.628388  2422 net.cpp:380] eltwise2_bp3_1 -> output_bp3_1
I0627 17:51:38.628435  2422 net.cpp:122] Setting up eltwise2_bp3_1
I0627 17:51:38.628445  2422 net.cpp:129] Top shape: 8 40 96 96 (2949120)
I0627 17:51:38.628448  2422 net.cpp:137] Memory required for data: 808058880
I0627 17:51:38.628453  2422 layer_factory.hpp:77] Creating layer eltwise2_bp3_2
I0627 17:51:38.628460  2422 net.cpp:84] Creating Layer eltwise2_bp3_2
I0627 17:51:38.628468  2422 net.cpp:406] eltwise2_bp3_2 <- output_bp3_1
I0627 17:51:38.628474  2422 net.cpp:406] eltwise2_bp3_2 <- concat_conv3_bp1_concat_conv3_bp1_0_split_1
I0627 17:51:38.628484  2422 net.cpp:380] eltwise2_bp3_2 -> output_bp3
I0627 17:51:38.628523  2422 net.cpp:122] Setting up eltwise2_bp3_2
I0627 17:51:38.628533  2422 net.cpp:129] Top shape: 8 40 96 96 (2949120)
I0627 17:51:38.628536  2422 net.cpp:137] Memory required for data: 819855360
I0627 17:51:38.628540  2422 layer_factory.hpp:77] Creating layer relu_output_bp3
I0627 17:51:38.628548  2422 net.cpp:84] Creating Layer relu_output_bp3
I0627 17:51:38.628554  2422 net.cpp:406] relu_output_bp3 <- output_bp3
I0627 17:51:38.628559  2422 net.cpp:367] relu_output_bp3 -> output_bp3 (in-place)
I0627 17:51:38.629549  2422 net.cpp:122] Setting up relu_output_bp3
I0627 17:51:38.629566  2422 net.cpp:129] Top shape: 8 40 96 96 (2949120)
I0627 17:51:38.629583  2422 net.cpp:137] Memory required for data: 831651840
I0627 17:51:38.629590  2422 layer_factory.hpp:77] Creating layer output_bp3_relu_output_bp3_0_split
I0627 17:51:38.629597  2422 net.cpp:84] Creating Layer output_bp3_relu_output_bp3_0_split
I0627 17:51:38.629601  2422 net.cpp:406] output_bp3_relu_output_bp3_0_split <- output_bp3
I0627 17:51:38.629609  2422 net.cpp:380] output_bp3_relu_output_bp3_0_split -> output_bp3_relu_output_bp3_0_split_0
I0627 17:51:38.629617  2422 net.cpp:380] output_bp3_relu_output_bp3_0_split -> output_bp3_relu_output_bp3_0_split_1
I0627 17:51:38.629626  2422 net.cpp:380] output_bp3_relu_output_bp3_0_split -> output_bp3_relu_output_bp3_0_split_2
I0627 17:51:38.629695  2422 net.cpp:122] Setting up output_bp3_relu_output_bp3_0_split
I0627 17:51:38.629703  2422 net.cpp:129] Top shape: 8 40 96 96 (2949120)
I0627 17:51:38.629709  2422 net.cpp:129] Top shape: 8 40 96 96 (2949120)
I0627 17:51:38.629712  2422 net.cpp:129] Top shape: 8 40 96 96 (2949120)
I0627 17:51:38.629715  2422 net.cpp:137] Memory required for data: 867041280
I0627 17:51:38.629719  2422 layer_factory.hpp:77] Creating layer conv_output_bp1
I0627 17:51:38.629729  2422 net.cpp:84] Creating Layer conv_output_bp1
I0627 17:51:38.629734  2422 net.cpp:406] conv_output_bp1 <- output_bp1_relu_output_bp1_0_split_3
I0627 17:51:38.629741  2422 net.cpp:380] conv_output_bp1 -> conv_output_bp1
I0627 17:51:38.631922  2422 net.cpp:122] Setting up conv_output_bp1
I0627 17:51:38.631937  2422 net.cpp:129] Top shape: 8 40 96 96 (2949120)
I0627 17:51:38.631940  2422 net.cpp:137] Memory required for data: 878837760
I0627 17:51:38.631948  2422 layer_factory.hpp:77] Creating layer conv_output_bp1_conv_output_bp1_0_split
I0627 17:51:38.631956  2422 net.cpp:84] Creating Layer conv_output_bp1_conv_output_bp1_0_split
I0627 17:51:38.631960  2422 net.cpp:406] conv_output_bp1_conv_output_bp1_0_split <- conv_output_bp1
I0627 17:51:38.631968  2422 net.cpp:380] conv_output_bp1_conv_output_bp1_0_split -> conv_output_bp1_conv_output_bp1_0_split_0
I0627 17:51:38.631976  2422 net.cpp:380] conv_output_bp1_conv_output_bp1_0_split -> conv_output_bp1_conv_output_bp1_0_split_1
I0627 17:51:38.631984  2422 net.cpp:380] conv_output_bp1_conv_output_bp1_0_split -> conv_output_bp1_conv_output_bp1_0_split_2
I0627 17:51:38.632064  2422 net.cpp:122] Setting up conv_output_bp1_conv_output_bp1_0_split
I0627 17:51:38.632074  2422 net.cpp:129] Top shape: 8 40 96 96 (2949120)
I0627 17:51:38.632078  2422 net.cpp:129] Top shape: 8 40 96 96 (2949120)
I0627 17:51:38.632082  2422 net.cpp:129] Top shape: 8 40 96 96 (2949120)
I0627 17:51:38.632086  2422 net.cpp:137] Memory required for data: 914227200
I0627 17:51:38.632089  2422 layer_factory.hpp:77] Creating layer concat_bp3
I0627 17:51:38.632098  2422 net.cpp:84] Creating Layer concat_bp3
I0627 17:51:38.632102  2422 net.cpp:406] concat_bp3 <- conv_output_bp1_conv_output_bp1_0_split_0
I0627 17:51:38.632107  2422 net.cpp:406] concat_bp3 <- output_bp3_relu_output_bp3_0_split_0
I0627 17:51:38.632114  2422 net.cpp:380] concat_bp3 -> concat_bp3
I0627 17:51:38.632186  2422 net.cpp:122] Setting up concat_bp3
I0627 17:51:38.632196  2422 net.cpp:129] Top shape: 8 80 96 96 (5898240)
I0627 17:51:38.632200  2422 net.cpp:137] Memory required for data: 937820160
I0627 17:51:38.632203  2422 layer_factory.hpp:77] Creating layer out_concat_bp3_I
I0627 17:51:38.632213  2422 net.cpp:84] Creating Layer out_concat_bp3_I
I0627 17:51:38.632217  2422 net.cpp:406] out_concat_bp3_I <- concat_bp3
I0627 17:51:38.632225  2422 net.cpp:380] out_concat_bp3_I -> out_concat_bp3_I
I0627 17:51:38.641690  2422 net.cpp:122] Setting up out_concat_bp3_I
I0627 17:51:38.641706  2422 net.cpp:129] Top shape: 8 20 96 96 (1474560)
I0627 17:51:38.641710  2422 net.cpp:137] Memory required for data: 943718400
I0627 17:51:38.641717  2422 layer_factory.hpp:77] Creating layer relu1_concat_bp3_I
I0627 17:51:38.641726  2422 net.cpp:84] Creating Layer relu1_concat_bp3_I
I0627 17:51:38.641731  2422 net.cpp:406] relu1_concat_bp3_I <- out_concat_bp3_I
I0627 17:51:38.641736  2422 net.cpp:367] relu1_concat_bp3_I -> out_concat_bp3_I (in-place)
I0627 17:51:38.641930  2422 net.cpp:122] Setting up relu1_concat_bp3_I
I0627 17:51:38.641942  2422 net.cpp:129] Top shape: 8 20 96 96 (1474560)
I0627 17:51:38.641945  2422 net.cpp:137] Memory required for data: 949616640
I0627 17:51:38.641950  2422 layer_factory.hpp:77] Creating layer out_concat_bp3_I_relu1_concat_bp3_I_0_split
I0627 17:51:38.641959  2422 net.cpp:84] Creating Layer out_concat_bp3_I_relu1_concat_bp3_I_0_split
I0627 17:51:38.641963  2422 net.cpp:406] out_concat_bp3_I_relu1_concat_bp3_I_0_split <- out_concat_bp3_I
I0627 17:51:38.641969  2422 net.cpp:380] out_concat_bp3_I_relu1_concat_bp3_I_0_split -> out_concat_bp3_I_relu1_concat_bp3_I_0_split_0
I0627 17:51:38.641984  2422 net.cpp:380] out_concat_bp3_I_relu1_concat_bp3_I_0_split -> out_concat_bp3_I_relu1_concat_bp3_I_0_split_1
I0627 17:51:38.641991  2422 net.cpp:380] out_concat_bp3_I_relu1_concat_bp3_I_0_split -> out_concat_bp3_I_relu1_concat_bp3_I_0_split_2
I0627 17:51:38.642055  2422 net.cpp:122] Setting up out_concat_bp3_I_relu1_concat_bp3_I_0_split
I0627 17:51:38.642063  2422 net.cpp:129] Top shape: 8 20 96 96 (1474560)
I0627 17:51:38.642067  2422 net.cpp:129] Top shape: 8 20 96 96 (1474560)
I0627 17:51:38.642071  2422 net.cpp:129] Top shape: 8 20 96 96 (1474560)
I0627 17:51:38.642074  2422 net.cpp:137] Memory required for data: 967311360
I0627 17:51:38.642077  2422 layer_factory.hpp:77] Creating layer out_concat_bp3_PI
I0627 17:51:38.642091  2422 net.cpp:84] Creating Layer out_concat_bp3_PI
I0627 17:51:38.642098  2422 net.cpp:406] out_concat_bp3_PI <- out_concat_bp3_I_relu1_concat_bp3_I_0_split_0
I0627 17:51:38.642109  2422 net.cpp:380] out_concat_bp3_PI -> out_concat_bp3_PI
I0627 17:51:38.650581  2422 net.cpp:122] Setting up out_concat_bp3_PI
I0627 17:51:38.650598  2422 net.cpp:129] Top shape: 8 20 96 96 (1474560)
I0627 17:51:38.650601  2422 net.cpp:137] Memory required for data: 973209600
I0627 17:51:38.650614  2422 layer_factory.hpp:77] Creating layer out_concat_bp3_P
I0627 17:51:38.650625  2422 net.cpp:84] Creating Layer out_concat_bp3_P
I0627 17:51:38.650631  2422 net.cpp:406] out_concat_bp3_P <- out_concat_bp3_I_relu1_concat_bp3_I_0_split_1
I0627 17:51:38.650638  2422 net.cpp:406] out_concat_bp3_P <- out_concat_bp3_PI
I0627 17:51:38.650647  2422 net.cpp:380] out_concat_bp3_P -> out_concat_bp3_P
I0627 17:51:38.650689  2422 net.cpp:122] Setting up out_concat_bp3_P
I0627 17:51:38.650698  2422 net.cpp:129] Top shape: 8 20 96 96 (1474560)
I0627 17:51:38.650701  2422 net.cpp:137] Memory required for data: 979107840
I0627 17:51:38.650704  2422 layer_factory.hpp:77] Creating layer out_concat_bp3
I0627 17:51:38.650715  2422 net.cpp:84] Creating Layer out_concat_bp3
I0627 17:51:38.650720  2422 net.cpp:406] out_concat_bp3 <- out_concat_bp3_I_relu1_concat_bp3_I_0_split_2
I0627 17:51:38.650727  2422 net.cpp:406] out_concat_bp3 <- out_concat_bp3_P
I0627 17:51:38.650734  2422 net.cpp:380] out_concat_bp3 -> out_concat_bp3
I0627 17:51:38.650774  2422 net.cpp:122] Setting up out_concat_bp3
I0627 17:51:38.650781  2422 net.cpp:129] Top shape: 8 40 96 96 (2949120)
I0627 17:51:38.650784  2422 net.cpp:137] Memory required for data: 990904320
I0627 17:51:38.650787  2422 layer_factory.hpp:77] Creating layer relu_out_concat_bp3
I0627 17:51:38.650795  2422 net.cpp:84] Creating Layer relu_out_concat_bp3
I0627 17:51:38.650800  2422 net.cpp:406] relu_out_concat_bp3 <- out_concat_bp3
I0627 17:51:38.650809  2422 net.cpp:367] relu_out_concat_bp3 -> out_concat_bp3 (in-place)
I0627 17:51:38.651756  2422 net.cpp:122] Setting up relu_out_concat_bp3
I0627 17:51:38.651770  2422 net.cpp:129] Top shape: 8 40 96 96 (2949120)
I0627 17:51:38.651773  2422 net.cpp:137] Memory required for data: 1002700800
I0627 17:51:38.651782  2422 layer_factory.hpp:77] Creating layer out_concat_bp3_relu_out_concat_bp3_0_split
I0627 17:51:38.651793  2422 net.cpp:84] Creating Layer out_concat_bp3_relu_out_concat_bp3_0_split
I0627 17:51:38.651798  2422 net.cpp:406] out_concat_bp3_relu_out_concat_bp3_0_split <- out_concat_bp3
I0627 17:51:38.651806  2422 net.cpp:380] out_concat_bp3_relu_out_concat_bp3_0_split -> out_concat_bp3_relu_out_concat_bp3_0_split_0
I0627 17:51:38.651830  2422 net.cpp:380] out_concat_bp3_relu_out_concat_bp3_0_split -> out_concat_bp3_relu_out_concat_bp3_0_split_1
I0627 17:51:38.651844  2422 net.cpp:380] out_concat_bp3_relu_out_concat_bp3_0_split -> out_concat_bp3_relu_out_concat_bp3_0_split_2
I0627 17:51:38.651921  2422 net.cpp:122] Setting up out_concat_bp3_relu_out_concat_bp3_0_split
I0627 17:51:38.651931  2422 net.cpp:129] Top shape: 8 40 96 96 (2949120)
I0627 17:51:38.651934  2422 net.cpp:129] Top shape: 8 40 96 96 (2949120)
I0627 17:51:38.651939  2422 net.cpp:129] Top shape: 8 40 96 96 (2949120)
I0627 17:51:38.651944  2422 net.cpp:137] Memory required for data: 1038090240
I0627 17:51:38.651948  2422 layer_factory.hpp:77] Creating layer conv1_bp4_I
I0627 17:51:38.651960  2422 net.cpp:84] Creating Layer conv1_bp4_I
I0627 17:51:38.651967  2422 net.cpp:406] conv1_bp4_I <- out_concat_bp3_relu_out_concat_bp3_0_split_0
I0627 17:51:38.651978  2422 net.cpp:380] conv1_bp4_I -> conv1_bp4_I
I0627 17:51:38.654574  2422 net.cpp:122] Setting up conv1_bp4_I
I0627 17:51:38.654589  2422 net.cpp:129] Top shape: 8 40 32 32 (327680)
I0627 17:51:38.654594  2422 net.cpp:137] Memory required for data: 1039400960
I0627 17:51:38.654604  2422 layer_factory.hpp:77] Creating layer relu1_bp4_I
I0627 17:51:38.654616  2422 net.cpp:84] Creating Layer relu1_bp4_I
I0627 17:51:38.654621  2422 net.cpp:406] relu1_bp4_I <- conv1_bp4_I
I0627 17:51:38.654630  2422 net.cpp:367] relu1_bp4_I -> conv1_bp4_I (in-place)
I0627 17:51:38.654767  2422 net.cpp:122] Setting up relu1_bp4_I
I0627 17:51:38.654775  2422 net.cpp:129] Top shape: 8 40 32 32 (327680)
I0627 17:51:38.654778  2422 net.cpp:137] Memory required for data: 1040711680
I0627 17:51:38.654785  2422 layer_factory.hpp:77] Creating layer conv1_bp4_I_relu1_bp4_I_0_split
I0627 17:51:38.654795  2422 net.cpp:84] Creating Layer conv1_bp4_I_relu1_bp4_I_0_split
I0627 17:51:38.654800  2422 net.cpp:406] conv1_bp4_I_relu1_bp4_I_0_split <- conv1_bp4_I
I0627 17:51:38.654808  2422 net.cpp:380] conv1_bp4_I_relu1_bp4_I_0_split -> conv1_bp4_I_relu1_bp4_I_0_split_0
I0627 17:51:38.654819  2422 net.cpp:380] conv1_bp4_I_relu1_bp4_I_0_split -> conv1_bp4_I_relu1_bp4_I_0_split_1
I0627 17:51:38.654872  2422 net.cpp:122] Setting up conv1_bp4_I_relu1_bp4_I_0_split
I0627 17:51:38.654881  2422 net.cpp:129] Top shape: 8 40 32 32 (327680)
I0627 17:51:38.654884  2422 net.cpp:129] Top shape: 8 40 32 32 (327680)
I0627 17:51:38.654888  2422 net.cpp:137] Memory required for data: 1043333120
I0627 17:51:38.654892  2422 layer_factory.hpp:77] Creating layer conv1_bp4_PI
I0627 17:51:38.654906  2422 net.cpp:84] Creating Layer conv1_bp4_PI
I0627 17:51:38.654909  2422 net.cpp:406] conv1_bp4_PI <- out_concat_bp3_relu_out_concat_bp3_0_split_1
I0627 17:51:38.654918  2422 net.cpp:380] conv1_bp4_PI -> conv1_bp4_PI
I0627 17:51:38.663472  2422 net.cpp:122] Setting up conv1_bp4_PI
I0627 17:51:38.663487  2422 net.cpp:129] Top shape: 8 40 32 32 (327680)
I0627 17:51:38.663491  2422 net.cpp:137] Memory required for data: 1044643840
I0627 17:51:38.663498  2422 layer_factory.hpp:77] Creating layer conv1_bp4_P
I0627 17:51:38.663504  2422 net.cpp:84] Creating Layer conv1_bp4_P
I0627 17:51:38.663508  2422 net.cpp:406] conv1_bp4_P <- conv1_bp4_I_relu1_bp4_I_0_split_0
I0627 17:51:38.663512  2422 net.cpp:406] conv1_bp4_P <- conv1_bp4_PI
I0627 17:51:38.663519  2422 net.cpp:380] conv1_bp4_P -> conv1_bp4_P
I0627 17:51:38.663561  2422 net.cpp:122] Setting up conv1_bp4_P
I0627 17:51:38.663573  2422 net.cpp:129] Top shape: 8 40 32 32 (327680)
I0627 17:51:38.663575  2422 net.cpp:137] Memory required for data: 1045954560
I0627 17:51:38.663578  2422 layer_factory.hpp:77] Creating layer concat_conv1_bp4
I0627 17:51:38.663586  2422 net.cpp:84] Creating Layer concat_conv1_bp4
I0627 17:51:38.663591  2422 net.cpp:406] concat_conv1_bp4 <- conv1_bp4_I_relu1_bp4_I_0_split_1
I0627 17:51:38.663596  2422 net.cpp:406] concat_conv1_bp4 <- conv1_bp4_P
I0627 17:51:38.663607  2422 net.cpp:380] concat_conv1_bp4 -> concat_conv1_bp4
I0627 17:51:38.663655  2422 net.cpp:122] Setting up concat_conv1_bp4
I0627 17:51:38.663666  2422 net.cpp:129] Top shape: 8 80 32 32 (655360)
I0627 17:51:38.663668  2422 net.cpp:137] Memory required for data: 1048576000
I0627 17:51:38.663673  2422 layer_factory.hpp:77] Creating layer relu_concat_conv1_bp4
I0627 17:51:38.663681  2422 net.cpp:84] Creating Layer relu_concat_conv1_bp4
I0627 17:51:38.663686  2422 net.cpp:406] relu_concat_conv1_bp4 <- concat_conv1_bp4
I0627 17:51:38.663694  2422 net.cpp:367] relu_concat_conv1_bp4 -> concat_conv1_bp4 (in-place)
I0627 17:51:38.663828  2422 net.cpp:122] Setting up relu_concat_conv1_bp4
I0627 17:51:38.663837  2422 net.cpp:129] Top shape: 8 80 32 32 (655360)
I0627 17:51:38.663841  2422 net.cpp:137] Memory required for data: 1051197440
I0627 17:51:38.663844  2422 layer_factory.hpp:77] Creating layer concat_conv1_bp4_relu_concat_conv1_bp4_0_split
I0627 17:51:38.663851  2422 net.cpp:84] Creating Layer concat_conv1_bp4_relu_concat_conv1_bp4_0_split
I0627 17:51:38.663856  2422 net.cpp:406] concat_conv1_bp4_relu_concat_conv1_bp4_0_split <- concat_conv1_bp4
I0627 17:51:38.663861  2422 net.cpp:380] concat_conv1_bp4_relu_concat_conv1_bp4_0_split -> concat_conv1_bp4_relu_concat_conv1_bp4_0_split_0
I0627 17:51:38.663868  2422 net.cpp:380] concat_conv1_bp4_relu_concat_conv1_bp4_0_split -> concat_conv1_bp4_relu_concat_conv1_bp4_0_split_1
I0627 17:51:38.663874  2422 net.cpp:380] concat_conv1_bp4_relu_concat_conv1_bp4_0_split -> concat_conv1_bp4_relu_concat_conv1_bp4_0_split_2
I0627 17:51:38.663939  2422 net.cpp:122] Setting up concat_conv1_bp4_relu_concat_conv1_bp4_0_split
I0627 17:51:38.663946  2422 net.cpp:129] Top shape: 8 80 32 32 (655360)
I0627 17:51:38.663950  2422 net.cpp:129] Top shape: 8 80 32 32 (655360)
I0627 17:51:38.663954  2422 net.cpp:129] Top shape: 8 80 32 32 (655360)
I0627 17:51:38.663957  2422 net.cpp:137] Memory required for data: 1059061760
I0627 17:51:38.663960  2422 layer_factory.hpp:77] Creating layer conv2_bp4_I
I0627 17:51:38.663971  2422 net.cpp:84] Creating Layer conv2_bp4_I
I0627 17:51:38.663975  2422 net.cpp:406] conv2_bp4_I <- concat_conv1_bp4_relu_concat_conv1_bp4_0_split_0
I0627 17:51:38.663983  2422 net.cpp:380] conv2_bp4_I -> conv2_bp4_I
I0627 17:51:38.666505  2422 net.cpp:122] Setting up conv2_bp4_I
I0627 17:51:38.666520  2422 net.cpp:129] Top shape: 8 20 96 96 (1474560)
I0627 17:51:38.666524  2422 net.cpp:137] Memory required for data: 1064960000
I0627 17:51:38.666532  2422 layer_factory.hpp:77] Creating layer relu2_bp4_I
I0627 17:51:38.666538  2422 net.cpp:84] Creating Layer relu2_bp4_I
I0627 17:51:38.666540  2422 net.cpp:406] relu2_bp4_I <- conv2_bp4_I
I0627 17:51:38.666548  2422 net.cpp:367] relu2_bp4_I -> conv2_bp4_I (in-place)
I0627 17:51:38.667397  2422 net.cpp:122] Setting up relu2_bp4_I
I0627 17:51:38.667412  2422 net.cpp:129] Top shape: 8 20 96 96 (1474560)
I0627 17:51:38.667415  2422 net.cpp:137] Memory required for data: 1070858240
I0627 17:51:38.667420  2422 layer_factory.hpp:77] Creating layer conv2_bp4_I_relu2_bp4_I_0_split
I0627 17:51:38.667428  2422 net.cpp:84] Creating Layer conv2_bp4_I_relu2_bp4_I_0_split
I0627 17:51:38.667431  2422 net.cpp:406] conv2_bp4_I_relu2_bp4_I_0_split <- conv2_bp4_I
I0627 17:51:38.667438  2422 net.cpp:380] conv2_bp4_I_relu2_bp4_I_0_split -> conv2_bp4_I_relu2_bp4_I_0_split_0
I0627 17:51:38.667446  2422 net.cpp:380] conv2_bp4_I_relu2_bp4_I_0_split -> conv2_bp4_I_relu2_bp4_I_0_split_1
I0627 17:51:38.667503  2422 net.cpp:122] Setting up conv2_bp4_I_relu2_bp4_I_0_split
I0627 17:51:38.667512  2422 net.cpp:129] Top shape: 8 20 96 96 (1474560)
I0627 17:51:38.667516  2422 net.cpp:129] Top shape: 8 20 96 96 (1474560)
I0627 17:51:38.667520  2422 net.cpp:137] Memory required for data: 1082654720
I0627 17:51:38.667522  2422 layer_factory.hpp:77] Creating layer conv2_bp4_PI
I0627 17:51:38.667533  2422 net.cpp:84] Creating Layer conv2_bp4_PI
I0627 17:51:38.667537  2422 net.cpp:406] conv2_bp4_PI <- concat_conv1_bp4_relu_concat_conv1_bp4_0_split_1
I0627 17:51:38.667546  2422 net.cpp:380] conv2_bp4_PI -> conv2_bp4_PI
I0627 17:51:38.675781  2422 net.cpp:122] Setting up conv2_bp4_PI
I0627 17:51:38.675797  2422 net.cpp:129] Top shape: 8 20 96 96 (1474560)
I0627 17:51:38.675801  2422 net.cpp:137] Memory required for data: 1088552960
I0627 17:51:38.675808  2422 layer_factory.hpp:77] Creating layer conv2_bp4_P
I0627 17:51:38.675815  2422 net.cpp:84] Creating Layer conv2_bp4_P
I0627 17:51:38.675819  2422 net.cpp:406] conv2_bp4_P <- conv2_bp4_I_relu2_bp4_I_0_split_0
I0627 17:51:38.675823  2422 net.cpp:406] conv2_bp4_P <- conv2_bp4_PI
I0627 17:51:38.675830  2422 net.cpp:380] conv2_bp4_P -> conv2_bp4_P
I0627 17:51:38.675870  2422 net.cpp:122] Setting up conv2_bp4_P
I0627 17:51:38.675879  2422 net.cpp:129] Top shape: 8 20 96 96 (1474560)
I0627 17:51:38.675882  2422 net.cpp:137] Memory required for data: 1094451200
I0627 17:51:38.675885  2422 layer_factory.hpp:77] Creating layer concat_conv2_bp4
I0627 17:51:38.675894  2422 net.cpp:84] Creating Layer concat_conv2_bp4
I0627 17:51:38.675899  2422 net.cpp:406] concat_conv2_bp4 <- conv2_bp4_I_relu2_bp4_I_0_split_1
I0627 17:51:38.675905  2422 net.cpp:406] concat_conv2_bp4 <- conv2_bp4_P
I0627 17:51:38.675915  2422 net.cpp:380] concat_conv2_bp4 -> concat_conv2_bp4
I0627 17:51:38.675951  2422 net.cpp:122] Setting up concat_conv2_bp4
I0627 17:51:38.675959  2422 net.cpp:129] Top shape: 8 40 96 96 (2949120)
I0627 17:51:38.675962  2422 net.cpp:137] Memory required for data: 1106247680
I0627 17:51:38.675966  2422 layer_factory.hpp:77] Creating layer concat_conv2_bp4_concat_conv2_bp4_0_split
I0627 17:51:38.675976  2422 net.cpp:84] Creating Layer concat_conv2_bp4_concat_conv2_bp4_0_split
I0627 17:51:38.675981  2422 net.cpp:406] concat_conv2_bp4_concat_conv2_bp4_0_split <- concat_conv2_bp4
I0627 17:51:38.675987  2422 net.cpp:380] concat_conv2_bp4_concat_conv2_bp4_0_split -> concat_conv2_bp4_concat_conv2_bp4_0_split_0
I0627 17:51:38.675995  2422 net.cpp:380] concat_conv2_bp4_concat_conv2_bp4_0_split -> concat_conv2_bp4_concat_conv2_bp4_0_split_1
I0627 17:51:38.676043  2422 net.cpp:122] Setting up concat_conv2_bp4_concat_conv2_bp4_0_split
I0627 17:51:38.676050  2422 net.cpp:129] Top shape: 8 40 96 96 (2949120)
I0627 17:51:38.676054  2422 net.cpp:129] Top shape: 8 40 96 96 (2949120)
I0627 17:51:38.676057  2422 net.cpp:137] Memory required for data: 1129840640
I0627 17:51:38.676060  2422 layer_factory.hpp:77] Creating layer weight_out_concat_bp3
I0627 17:51:38.676072  2422 net.cpp:84] Creating Layer weight_out_concat_bp3
I0627 17:51:38.676076  2422 net.cpp:406] weight_out_concat_bp3 <- out_concat_bp3_relu_out_concat_bp3_0_split_2
I0627 17:51:38.676084  2422 net.cpp:380] weight_out_concat_bp3 -> weight_out_concat_bp3
I0627 17:51:38.678025  2422 net.cpp:122] Setting up weight_out_concat_bp3
I0627 17:51:38.678038  2422 net.cpp:129] Top shape: 8 40 96 96 (2949120)
I0627 17:51:38.678042  2422 net.cpp:137] Memory required for data: 1141637120
I0627 17:51:38.678050  2422 layer_factory.hpp:77] Creating layer eltwise1_bp4
I0627 17:51:38.678056  2422 net.cpp:84] Creating Layer eltwise1_bp4
I0627 17:51:38.678061  2422 net.cpp:406] eltwise1_bp4 <- weight_out_concat_bp3
I0627 17:51:38.678064  2422 net.cpp:406] eltwise1_bp4 <- concat_conv2_bp4_concat_conv2_bp4_0_split_0
I0627 17:51:38.678073  2422 net.cpp:380] eltwise1_bp4 -> eltwise1_bp4
I0627 17:51:38.678114  2422 net.cpp:122] Setting up eltwise1_bp4
I0627 17:51:38.678122  2422 net.cpp:129] Top shape: 8 40 96 96 (2949120)
I0627 17:51:38.678126  2422 net.cpp:137] Memory required for data: 1153433600
I0627 17:51:38.678129  2422 layer_factory.hpp:77] Creating layer eltwise1_bp4_eltwise1_bp4_0_split
I0627 17:51:38.678135  2422 net.cpp:84] Creating Layer eltwise1_bp4_eltwise1_bp4_0_split
I0627 17:51:38.678138  2422 net.cpp:406] eltwise1_bp4_eltwise1_bp4_0_split <- eltwise1_bp4
I0627 17:51:38.678143  2422 net.cpp:380] eltwise1_bp4_eltwise1_bp4_0_split -> eltwise1_bp4_eltwise1_bp4_0_split_0
I0627 17:51:38.678151  2422 net.cpp:380] eltwise1_bp4_eltwise1_bp4_0_split -> eltwise1_bp4_eltwise1_bp4_0_split_1
I0627 17:51:38.678200  2422 net.cpp:122] Setting up eltwise1_bp4_eltwise1_bp4_0_split
I0627 17:51:38.678217  2422 net.cpp:129] Top shape: 8 40 96 96 (2949120)
I0627 17:51:38.678222  2422 net.cpp:129] Top shape: 8 40 96 96 (2949120)
I0627 17:51:38.678225  2422 net.cpp:137] Memory required for data: 1177026560
I0627 17:51:38.678228  2422 layer_factory.hpp:77] Creating layer conv3_bp4_I
I0627 17:51:38.678239  2422 net.cpp:84] Creating Layer conv3_bp4_I
I0627 17:51:38.678243  2422 net.cpp:406] conv3_bp4_I <- eltwise1_bp4_eltwise1_bp4_0_split_0
I0627 17:51:38.678251  2422 net.cpp:380] conv3_bp4_I -> conv3_bp4_I
I0627 17:51:38.680763  2422 net.cpp:122] Setting up conv3_bp4_I
I0627 17:51:38.680776  2422 net.cpp:129] Top shape: 8 40 32 32 (327680)
I0627 17:51:38.680780  2422 net.cpp:137] Memory required for data: 1178337280
I0627 17:51:38.680788  2422 layer_factory.hpp:77] Creating layer relu3_bp4_I
I0627 17:51:38.680814  2422 net.cpp:84] Creating Layer relu3_bp4_I
I0627 17:51:38.680819  2422 net.cpp:406] relu3_bp4_I <- conv3_bp4_I
I0627 17:51:38.680825  2422 net.cpp:367] relu3_bp4_I -> conv3_bp4_I (in-place)
I0627 17:51:38.680956  2422 net.cpp:122] Setting up relu3_bp4_I
I0627 17:51:38.680966  2422 net.cpp:129] Top shape: 8 40 32 32 (327680)
I0627 17:51:38.680969  2422 net.cpp:137] Memory required for data: 1179648000
I0627 17:51:38.680975  2422 layer_factory.hpp:77] Creating layer conv3_bp4_I_relu3_bp4_I_0_split
I0627 17:51:38.680986  2422 net.cpp:84] Creating Layer conv3_bp4_I_relu3_bp4_I_0_split
I0627 17:51:38.680990  2422 net.cpp:406] conv3_bp4_I_relu3_bp4_I_0_split <- conv3_bp4_I
I0627 17:51:38.680999  2422 net.cpp:380] conv3_bp4_I_relu3_bp4_I_0_split -> conv3_bp4_I_relu3_bp4_I_0_split_0
I0627 17:51:38.681008  2422 net.cpp:380] conv3_bp4_I_relu3_bp4_I_0_split -> conv3_bp4_I_relu3_bp4_I_0_split_1
I0627 17:51:38.681061  2422 net.cpp:122] Setting up conv3_bp4_I_relu3_bp4_I_0_split
I0627 17:51:38.681071  2422 net.cpp:129] Top shape: 8 40 32 32 (327680)
I0627 17:51:38.681074  2422 net.cpp:129] Top shape: 8 40 32 32 (327680)
I0627 17:51:38.681077  2422 net.cpp:137] Memory required for data: 1182269440
I0627 17:51:38.681082  2422 layer_factory.hpp:77] Creating layer conv3_bp4_PI
I0627 17:51:38.681094  2422 net.cpp:84] Creating Layer conv3_bp4_PI
I0627 17:51:38.681100  2422 net.cpp:406] conv3_bp4_PI <- eltwise1_bp4_eltwise1_bp4_0_split_1
I0627 17:51:38.681109  2422 net.cpp:380] conv3_bp4_PI -> conv3_bp4_PI
I0627 17:51:38.689311  2422 net.cpp:122] Setting up conv3_bp4_PI
I0627 17:51:38.689324  2422 net.cpp:129] Top shape: 8 40 32 32 (327680)
I0627 17:51:38.689327  2422 net.cpp:137] Memory required for data: 1183580160
I0627 17:51:38.689334  2422 layer_factory.hpp:77] Creating layer conv3_bp4_P
I0627 17:51:38.689342  2422 net.cpp:84] Creating Layer conv3_bp4_P
I0627 17:51:38.689344  2422 net.cpp:406] conv3_bp4_P <- conv3_bp4_I_relu3_bp4_I_0_split_0
I0627 17:51:38.689352  2422 net.cpp:406] conv3_bp4_P <- conv3_bp4_PI
I0627 17:51:38.689357  2422 net.cpp:380] conv3_bp4_P -> conv3_bp4_P
I0627 17:51:38.689399  2422 net.cpp:122] Setting up conv3_bp4_P
I0627 17:51:38.689409  2422 net.cpp:129] Top shape: 8 40 32 32 (327680)
I0627 17:51:38.689411  2422 net.cpp:137] Memory required for data: 1184890880
I0627 17:51:38.689414  2422 layer_factory.hpp:77] Creating layer concat_conv3_bp4
I0627 17:51:38.689420  2422 net.cpp:84] Creating Layer concat_conv3_bp4
I0627 17:51:38.689424  2422 net.cpp:406] concat_conv3_bp4 <- conv3_bp4_I_relu3_bp4_I_0_split_1
I0627 17:51:38.689429  2422 net.cpp:406] concat_conv3_bp4 <- conv3_bp4_P
I0627 17:51:38.689435  2422 net.cpp:380] concat_conv3_bp4 -> concat_conv3_bp4
I0627 17:51:38.689469  2422 net.cpp:122] Setting up concat_conv3_bp4
I0627 17:51:38.689476  2422 net.cpp:129] Top shape: 8 80 32 32 (655360)
I0627 17:51:38.689479  2422 net.cpp:137] Memory required for data: 1187512320
I0627 17:51:38.689482  2422 layer_factory.hpp:77] Creating layer concat_conv3_bp4_concat_conv3_bp4_0_split
I0627 17:51:38.689488  2422 net.cpp:84] Creating Layer concat_conv3_bp4_concat_conv3_bp4_0_split
I0627 17:51:38.689492  2422 net.cpp:406] concat_conv3_bp4_concat_conv3_bp4_0_split <- concat_conv3_bp4
I0627 17:51:38.689509  2422 net.cpp:380] concat_conv3_bp4_concat_conv3_bp4_0_split -> concat_conv3_bp4_concat_conv3_bp4_0_split_0
I0627 17:51:38.689517  2422 net.cpp:380] concat_conv3_bp4_concat_conv3_bp4_0_split -> concat_conv3_bp4_concat_conv3_bp4_0_split_1
I0627 17:51:38.689524  2422 net.cpp:380] concat_conv3_bp4_concat_conv3_bp4_0_split -> concat_conv3_bp4_concat_conv3_bp4_0_split_2
I0627 17:51:38.689590  2422 net.cpp:122] Setting up concat_conv3_bp4_concat_conv3_bp4_0_split
I0627 17:51:38.689605  2422 net.cpp:129] Top shape: 8 80 32 32 (655360)
I0627 17:51:38.689610  2422 net.cpp:129] Top shape: 8 80 32 32 (655360)
I0627 17:51:38.689613  2422 net.cpp:129] Top shape: 8 80 32 32 (655360)
I0627 17:51:38.689616  2422 net.cpp:137] Memory required for data: 1195376640
I0627 17:51:38.689620  2422 layer_factory.hpp:77] Creating layer weight_concat_conv1_bp4
I0627 17:51:38.689630  2422 net.cpp:84] Creating Layer weight_concat_conv1_bp4
I0627 17:51:38.689635  2422 net.cpp:406] weight_concat_conv1_bp4 <- concat_conv1_bp4_relu_concat_conv1_bp4_0_split_2
I0627 17:51:38.689643  2422 net.cpp:380] weight_concat_conv1_bp4 -> weight_concat_conv1_bp4
I0627 17:51:38.691613  2422 net.cpp:122] Setting up weight_concat_conv1_bp4
I0627 17:51:38.691627  2422 net.cpp:129] Top shape: 8 80 32 32 (655360)
I0627 17:51:38.691632  2422 net.cpp:137] Memory required for data: 1197998080
I0627 17:51:38.691638  2422 layer_factory.hpp:77] Creating layer eltwise2_bp4_1
I0627 17:51:38.691646  2422 net.cpp:84] Creating Layer eltwise2_bp4_1
I0627 17:51:38.691650  2422 net.cpp:406] eltwise2_bp4_1 <- weight_concat_conv1_bp4
I0627 17:51:38.691655  2422 net.cpp:406] eltwise2_bp4_1 <- concat_conv3_bp4_concat_conv3_bp4_0_split_0
I0627 17:51:38.691661  2422 net.cpp:380] eltwise2_bp4_1 -> output_bp4_1
I0627 17:51:38.691701  2422 net.cpp:122] Setting up eltwise2_bp4_1
I0627 17:51:38.691709  2422 net.cpp:129] Top shape: 8 80 32 32 (655360)
I0627 17:51:38.691714  2422 net.cpp:137] Memory required for data: 1200619520
I0627 17:51:38.691716  2422 layer_factory.hpp:77] Creating layer eltwise2_bp4_2
I0627 17:51:38.691721  2422 net.cpp:84] Creating Layer eltwise2_bp4_2
I0627 17:51:38.691725  2422 net.cpp:406] eltwise2_bp4_2 <- output_bp4_1
I0627 17:51:38.691730  2422 net.cpp:406] eltwise2_bp4_2 <- concat_conv3_bp2_concat_conv3_bp2_0_split_1
I0627 17:51:38.691736  2422 net.cpp:380] eltwise2_bp4_2 -> output_bp4
I0627 17:51:38.691768  2422 net.cpp:122] Setting up eltwise2_bp4_2
I0627 17:51:38.691776  2422 net.cpp:129] Top shape: 8 80 32 32 (655360)
I0627 17:51:38.691779  2422 net.cpp:137] Memory required for data: 1203240960
I0627 17:51:38.691781  2422 layer_factory.hpp:77] Creating layer relu_output_bp4
I0627 17:51:38.691787  2422 net.cpp:84] Creating Layer relu_output_bp4
I0627 17:51:38.691790  2422 net.cpp:406] relu_output_bp4 <- output_bp4
I0627 17:51:38.691797  2422 net.cpp:367] relu_output_bp4 -> output_bp4 (in-place)
I0627 17:51:38.691936  2422 net.cpp:122] Setting up relu_output_bp4
I0627 17:51:38.691944  2422 net.cpp:129] Top shape: 8 80 32 32 (655360)
I0627 17:51:38.691947  2422 net.cpp:137] Memory required for data: 1205862400
I0627 17:51:38.691952  2422 layer_factory.hpp:77] Creating layer output_bp4_relu_output_bp4_0_split
I0627 17:51:38.691957  2422 net.cpp:84] Creating Layer output_bp4_relu_output_bp4_0_split
I0627 17:51:38.691960  2422 net.cpp:406] output_bp4_relu_output_bp4_0_split <- output_bp4
I0627 17:51:38.691967  2422 net.cpp:380] output_bp4_relu_output_bp4_0_split -> output_bp4_relu_output_bp4_0_split_0
I0627 17:51:38.691974  2422 net.cpp:380] output_bp4_relu_output_bp4_0_split -> output_bp4_relu_output_bp4_0_split_1
I0627 17:51:38.692021  2422 net.cpp:122] Setting up output_bp4_relu_output_bp4_0_split
I0627 17:51:38.692029  2422 net.cpp:129] Top shape: 8 80 32 32 (655360)
I0627 17:51:38.692032  2422 net.cpp:129] Top shape: 8 80 32 32 (655360)
I0627 17:51:38.692036  2422 net.cpp:137] Memory required for data: 1211105280
I0627 17:51:38.692039  2422 layer_factory.hpp:77] Creating layer conv_output_bp2
I0627 17:51:38.692049  2422 net.cpp:84] Creating Layer conv_output_bp2
I0627 17:51:38.692065  2422 net.cpp:406] conv_output_bp2 <- output_bp2_relu_output_bp2_0_split_3
I0627 17:51:38.692075  2422 net.cpp:380] conv_output_bp2 -> conv_output_bp2
I0627 17:51:38.694058  2422 net.cpp:122] Setting up conv_output_bp2
I0627 17:51:38.694072  2422 net.cpp:129] Top shape: 8 80 32 32 (655360)
I0627 17:51:38.694075  2422 net.cpp:137] Memory required for data: 1213726720
I0627 17:51:38.694083  2422 layer_factory.hpp:77] Creating layer conv_output_bp2_conv_output_bp2_0_split
I0627 17:51:38.694090  2422 net.cpp:84] Creating Layer conv_output_bp2_conv_output_bp2_0_split
I0627 17:51:38.694094  2422 net.cpp:406] conv_output_bp2_conv_output_bp2_0_split <- conv_output_bp2
I0627 17:51:38.694100  2422 net.cpp:380] conv_output_bp2_conv_output_bp2_0_split -> conv_output_bp2_conv_output_bp2_0_split_0
I0627 17:51:38.694109  2422 net.cpp:380] conv_output_bp2_conv_output_bp2_0_split -> conv_output_bp2_conv_output_bp2_0_split_1
I0627 17:51:38.694115  2422 net.cpp:380] conv_output_bp2_conv_output_bp2_0_split -> conv_output_bp2_conv_output_bp2_0_split_2
I0627 17:51:38.694191  2422 net.cpp:122] Setting up conv_output_bp2_conv_output_bp2_0_split
I0627 17:51:38.694200  2422 net.cpp:129] Top shape: 8 80 32 32 (655360)
I0627 17:51:38.694205  2422 net.cpp:129] Top shape: 8 80 32 32 (655360)
I0627 17:51:38.694208  2422 net.cpp:129] Top shape: 8 80 32 32 (655360)
I0627 17:51:38.694211  2422 net.cpp:137] Memory required for data: 1221591040
I0627 17:51:38.694213  2422 layer_factory.hpp:77] Creating layer concat_bp4
I0627 17:51:38.694221  2422 net.cpp:84] Creating Layer concat_bp4
I0627 17:51:38.694226  2422 net.cpp:406] concat_bp4 <- conv_output_bp2_conv_output_bp2_0_split_0
I0627 17:51:38.694232  2422 net.cpp:406] concat_bp4 <- output_bp4_relu_output_bp4_0_split_0
I0627 17:51:38.694238  2422 net.cpp:380] concat_bp4 -> concat_bp4
I0627 17:51:38.694275  2422 net.cpp:122] Setting up concat_bp4
I0627 17:51:38.694283  2422 net.cpp:129] Top shape: 8 160 32 32 (1310720)
I0627 17:51:38.694286  2422 net.cpp:137] Memory required for data: 1226833920
I0627 17:51:38.694288  2422 layer_factory.hpp:77] Creating layer out_concat_bp4_I
I0627 17:51:38.694303  2422 net.cpp:84] Creating Layer out_concat_bp4_I
I0627 17:51:38.694309  2422 net.cpp:406] out_concat_bp4_I <- concat_bp4
I0627 17:51:38.694319  2422 net.cpp:380] out_concat_bp4_I -> out_concat_bp4_I
I0627 17:51:38.696852  2422 net.cpp:122] Setting up out_concat_bp4_I
I0627 17:51:38.696868  2422 net.cpp:129] Top shape: 8 40 32 32 (327680)
I0627 17:51:38.696872  2422 net.cpp:137] Memory required for data: 1228144640
I0627 17:51:38.696879  2422 layer_factory.hpp:77] Creating layer relu1_concat_bp4_I
I0627 17:51:38.696885  2422 net.cpp:84] Creating Layer relu1_concat_bp4_I
I0627 17:51:38.696889  2422 net.cpp:406] relu1_concat_bp4_I <- out_concat_bp4_I
I0627 17:51:38.696895  2422 net.cpp:367] relu1_concat_bp4_I -> out_concat_bp4_I (in-place)
I0627 17:51:38.697031  2422 net.cpp:122] Setting up relu1_concat_bp4_I
I0627 17:51:38.697041  2422 net.cpp:129] Top shape: 8 40 32 32 (327680)
I0627 17:51:38.697043  2422 net.cpp:137] Memory required for data: 1229455360
I0627 17:51:38.697048  2422 layer_factory.hpp:77] Creating layer out_concat_bp4_I_relu1_concat_bp4_I_0_split
I0627 17:51:38.697055  2422 net.cpp:84] Creating Layer out_concat_bp4_I_relu1_concat_bp4_I_0_split
I0627 17:51:38.697059  2422 net.cpp:406] out_concat_bp4_I_relu1_concat_bp4_I_0_split <- out_concat_bp4_I
I0627 17:51:38.697065  2422 net.cpp:380] out_concat_bp4_I_relu1_concat_bp4_I_0_split -> out_concat_bp4_I_relu1_concat_bp4_I_0_split_0
I0627 17:51:38.697072  2422 net.cpp:380] out_concat_bp4_I_relu1_concat_bp4_I_0_split -> out_concat_bp4_I_relu1_concat_bp4_I_0_split_1
I0627 17:51:38.697079  2422 net.cpp:380] out_concat_bp4_I_relu1_concat_bp4_I_0_split -> out_concat_bp4_I_relu1_concat_bp4_I_0_split_2
I0627 17:51:38.697142  2422 net.cpp:122] Setting up out_concat_bp4_I_relu1_concat_bp4_I_0_split
I0627 17:51:38.697151  2422 net.cpp:129] Top shape: 8 40 32 32 (327680)
I0627 17:51:38.697155  2422 net.cpp:129] Top shape: 8 40 32 32 (327680)
I0627 17:51:38.697170  2422 net.cpp:129] Top shape: 8 40 32 32 (327680)
I0627 17:51:38.697172  2422 net.cpp:137] Memory required for data: 1233387520
I0627 17:51:38.697175  2422 layer_factory.hpp:77] Creating layer out_concat_bp4_PI
I0627 17:51:38.697186  2422 net.cpp:84] Creating Layer out_concat_bp4_PI
I0627 17:51:38.697190  2422 net.cpp:406] out_concat_bp4_PI <- out_concat_bp4_I_relu1_concat_bp4_I_0_split_0
I0627 17:51:38.697201  2422 net.cpp:380] out_concat_bp4_PI -> out_concat_bp4_PI
I0627 17:51:38.705844  2422 net.cpp:122] Setting up out_concat_bp4_PI
I0627 17:51:38.705860  2422 net.cpp:129] Top shape: 8 40 32 32 (327680)
I0627 17:51:38.705863  2422 net.cpp:137] Memory required for data: 1234698240
I0627 17:51:38.705870  2422 layer_factory.hpp:77] Creating layer out_concat_bp4_P
I0627 17:51:38.705878  2422 net.cpp:84] Creating Layer out_concat_bp4_P
I0627 17:51:38.705881  2422 net.cpp:406] out_concat_bp4_P <- out_concat_bp4_I_relu1_concat_bp4_I_0_split_1
I0627 17:51:38.705886  2422 net.cpp:406] out_concat_bp4_P <- out_concat_bp4_PI
I0627 17:51:38.705893  2422 net.cpp:380] out_concat_bp4_P -> out_concat_bp4_P
I0627 17:51:38.705935  2422 net.cpp:122] Setting up out_concat_bp4_P
I0627 17:51:38.705945  2422 net.cpp:129] Top shape: 8 40 32 32 (327680)
I0627 17:51:38.705948  2422 net.cpp:137] Memory required for data: 1236008960
I0627 17:51:38.705951  2422 layer_factory.hpp:77] Creating layer out_concat_bp4
I0627 17:51:38.705957  2422 net.cpp:84] Creating Layer out_concat_bp4
I0627 17:51:38.705961  2422 net.cpp:406] out_concat_bp4 <- out_concat_bp4_I_relu1_concat_bp4_I_0_split_2
I0627 17:51:38.705965  2422 net.cpp:406] out_concat_bp4 <- out_concat_bp4_P
I0627 17:51:38.705971  2422 net.cpp:380] out_concat_bp4 -> out_concat_bp4
I0627 17:51:38.706005  2422 net.cpp:122] Setting up out_concat_bp4
I0627 17:51:38.706012  2422 net.cpp:129] Top shape: 8 80 32 32 (655360)
I0627 17:51:38.706015  2422 net.cpp:137] Memory required for data: 1238630400
I0627 17:51:38.706018  2422 layer_factory.hpp:77] Creating layer relu_out_concat_bp4
I0627 17:51:38.706024  2422 net.cpp:84] Creating Layer relu_out_concat_bp4
I0627 17:51:38.706028  2422 net.cpp:406] relu_out_concat_bp4 <- out_concat_bp4
I0627 17:51:38.706033  2422 net.cpp:367] relu_out_concat_bp4 -> out_concat_bp4 (in-place)
I0627 17:51:38.706172  2422 net.cpp:122] Setting up relu_out_concat_bp4
I0627 17:51:38.706182  2422 net.cpp:129] Top shape: 8 80 32 32 (655360)
I0627 17:51:38.706184  2422 net.cpp:137] Memory required for data: 1241251840
I0627 17:51:38.706188  2422 layer_factory.hpp:77] Creating layer out_concat_bp4_relu_out_concat_bp4_0_split
I0627 17:51:38.706193  2422 net.cpp:84] Creating Layer out_concat_bp4_relu_out_concat_bp4_0_split
I0627 17:51:38.706197  2422 net.cpp:406] out_concat_bp4_relu_out_concat_bp4_0_split <- out_concat_bp4
I0627 17:51:38.706203  2422 net.cpp:380] out_concat_bp4_relu_out_concat_bp4_0_split -> out_concat_bp4_relu_out_concat_bp4_0_split_0
I0627 17:51:38.706210  2422 net.cpp:380] out_concat_bp4_relu_out_concat_bp4_0_split -> out_concat_bp4_relu_out_concat_bp4_0_split_1
I0627 17:51:38.706218  2422 net.cpp:380] out_concat_bp4_relu_out_concat_bp4_0_split -> out_concat_bp4_relu_out_concat_bp4_0_split_2
I0627 17:51:38.706280  2422 net.cpp:122] Setting up out_concat_bp4_relu_out_concat_bp4_0_split
I0627 17:51:38.706288  2422 net.cpp:129] Top shape: 8 80 32 32 (655360)
I0627 17:51:38.706291  2422 net.cpp:129] Top shape: 8 80 32 32 (655360)
I0627 17:51:38.706295  2422 net.cpp:129] Top shape: 8 80 32 32 (655360)
I0627 17:51:38.706298  2422 net.cpp:137] Memory required for data: 1249116160
I0627 17:51:38.706301  2422 layer_factory.hpp:77] Creating layer conv1_bp5_I
I0627 17:51:38.706312  2422 net.cpp:84] Creating Layer conv1_bp5_I
I0627 17:51:38.706316  2422 net.cpp:406] conv1_bp5_I <- out_concat_bp4_relu_out_concat_bp4_0_split_0
I0627 17:51:38.706322  2422 net.cpp:380] conv1_bp5_I -> conv1_bp5_I
I0627 17:51:38.708845  2422 net.cpp:122] Setting up conv1_bp5_I
I0627 17:51:38.708859  2422 net.cpp:129] Top shape: 8 20 96 96 (1474560)
I0627 17:51:38.708863  2422 net.cpp:137] Memory required for data: 1255014400
I0627 17:51:38.708880  2422 layer_factory.hpp:77] Creating layer relu1_bp5_I
I0627 17:51:38.708889  2422 net.cpp:84] Creating Layer relu1_bp5_I
I0627 17:51:38.708892  2422 net.cpp:406] relu1_bp5_I <- conv1_bp5_I
I0627 17:51:38.708897  2422 net.cpp:367] relu1_bp5_I -> conv1_bp5_I (in-place)
I0627 17:51:38.709771  2422 net.cpp:122] Setting up relu1_bp5_I
I0627 17:51:38.709785  2422 net.cpp:129] Top shape: 8 20 96 96 (1474560)
I0627 17:51:38.709789  2422 net.cpp:137] Memory required for data: 1260912640
I0627 17:51:38.709794  2422 layer_factory.hpp:77] Creating layer conv1_bp5_I_relu1_bp5_I_0_split
I0627 17:51:38.709801  2422 net.cpp:84] Creating Layer conv1_bp5_I_relu1_bp5_I_0_split
I0627 17:51:38.709805  2422 net.cpp:406] conv1_bp5_I_relu1_bp5_I_0_split <- conv1_bp5_I
I0627 17:51:38.709810  2422 net.cpp:380] conv1_bp5_I_relu1_bp5_I_0_split -> conv1_bp5_I_relu1_bp5_I_0_split_0
I0627 17:51:38.709820  2422 net.cpp:380] conv1_bp5_I_relu1_bp5_I_0_split -> conv1_bp5_I_relu1_bp5_I_0_split_1
I0627 17:51:38.709877  2422 net.cpp:122] Setting up conv1_bp5_I_relu1_bp5_I_0_split
I0627 17:51:38.709887  2422 net.cpp:129] Top shape: 8 20 96 96 (1474560)
I0627 17:51:38.709892  2422 net.cpp:129] Top shape: 8 20 96 96 (1474560)
I0627 17:51:38.709894  2422 net.cpp:137] Memory required for data: 1272709120
I0627 17:51:38.709897  2422 layer_factory.hpp:77] Creating layer conv1_bp5_PI
I0627 17:51:38.709911  2422 net.cpp:84] Creating Layer conv1_bp5_PI
I0627 17:51:38.709915  2422 net.cpp:406] conv1_bp5_PI <- out_concat_bp4_relu_out_concat_bp4_0_split_1
I0627 17:51:38.709923  2422 net.cpp:380] conv1_bp5_PI -> conv1_bp5_PI
I0627 17:51:38.718205  2422 net.cpp:122] Setting up conv1_bp5_PI
I0627 17:51:38.718219  2422 net.cpp:129] Top shape: 8 20 96 96 (1474560)
I0627 17:51:38.718224  2422 net.cpp:137] Memory required for data: 1278607360
I0627 17:51:38.718230  2422 layer_factory.hpp:77] Creating layer conv1_bp5_P
I0627 17:51:38.718238  2422 net.cpp:84] Creating Layer conv1_bp5_P
I0627 17:51:38.718242  2422 net.cpp:406] conv1_bp5_P <- conv1_bp5_I_relu1_bp5_I_0_split_0
I0627 17:51:38.718246  2422 net.cpp:406] conv1_bp5_P <- conv1_bp5_PI
I0627 17:51:38.718252  2422 net.cpp:380] conv1_bp5_P -> conv1_bp5_P
I0627 17:51:38.718294  2422 net.cpp:122] Setting up conv1_bp5_P
I0627 17:51:38.718303  2422 net.cpp:129] Top shape: 8 20 96 96 (1474560)
I0627 17:51:38.718307  2422 net.cpp:137] Memory required for data: 1284505600
I0627 17:51:38.718309  2422 layer_factory.hpp:77] Creating layer concat_conv1_bp5
I0627 17:51:38.718317  2422 net.cpp:84] Creating Layer concat_conv1_bp5
I0627 17:51:38.718322  2422 net.cpp:406] concat_conv1_bp5 <- conv1_bp5_I_relu1_bp5_I_0_split_1
I0627 17:51:38.718328  2422 net.cpp:406] concat_conv1_bp5 <- conv1_bp5_P
I0627 17:51:38.718335  2422 net.cpp:380] concat_conv1_bp5 -> concat_conv1_bp5
I0627 17:51:38.718370  2422 net.cpp:122] Setting up concat_conv1_bp5
I0627 17:51:38.718379  2422 net.cpp:129] Top shape: 8 40 96 96 (2949120)
I0627 17:51:38.718381  2422 net.cpp:137] Memory required for data: 1296302080
I0627 17:51:38.718384  2422 layer_factory.hpp:77] Creating layer relu_concat_conv1_bp5
I0627 17:51:38.718390  2422 net.cpp:84] Creating Layer relu_concat_conv1_bp5
I0627 17:51:38.718394  2422 net.cpp:406] relu_concat_conv1_bp5 <- concat_conv1_bp5
I0627 17:51:38.718400  2422 net.cpp:367] relu_concat_conv1_bp5 -> concat_conv1_bp5 (in-place)
I0627 17:51:38.719310  2422 net.cpp:122] Setting up relu_concat_conv1_bp5
I0627 17:51:38.719323  2422 net.cpp:129] Top shape: 8 40 96 96 (2949120)
I0627 17:51:38.719326  2422 net.cpp:137] Memory required for data: 1308098560
I0627 17:51:38.719331  2422 layer_factory.hpp:77] Creating layer concat_conv1_bp5_relu_concat_conv1_bp5_0_split
I0627 17:51:38.719338  2422 net.cpp:84] Creating Layer concat_conv1_bp5_relu_concat_conv1_bp5_0_split
I0627 17:51:38.719343  2422 net.cpp:406] concat_conv1_bp5_relu_concat_conv1_bp5_0_split <- concat_conv1_bp5
I0627 17:51:38.719348  2422 net.cpp:380] concat_conv1_bp5_relu_concat_conv1_bp5_0_split -> concat_conv1_bp5_relu_concat_conv1_bp5_0_split_0
I0627 17:51:38.719367  2422 net.cpp:380] concat_conv1_bp5_relu_concat_conv1_bp5_0_split -> concat_conv1_bp5_relu_concat_conv1_bp5_0_split_1
I0627 17:51:38.719379  2422 net.cpp:380] concat_conv1_bp5_relu_concat_conv1_bp5_0_split -> concat_conv1_bp5_relu_concat_conv1_bp5_0_split_2
I0627 17:51:38.719452  2422 net.cpp:122] Setting up concat_conv1_bp5_relu_concat_conv1_bp5_0_split
I0627 17:51:38.719460  2422 net.cpp:129] Top shape: 8 40 96 96 (2949120)
I0627 17:51:38.719465  2422 net.cpp:129] Top shape: 8 40 96 96 (2949120)
I0627 17:51:38.719468  2422 net.cpp:129] Top shape: 8 40 96 96 (2949120)
I0627 17:51:38.719471  2422 net.cpp:137] Memory required for data: 1343488000
I0627 17:51:38.719475  2422 layer_factory.hpp:77] Creating layer conv2_bp5_I
I0627 17:51:38.719486  2422 net.cpp:84] Creating Layer conv2_bp5_I
I0627 17:51:38.719491  2422 net.cpp:406] conv2_bp5_I <- concat_conv1_bp5_relu_concat_conv1_bp5_0_split_0
I0627 17:51:38.719502  2422 net.cpp:380] conv2_bp5_I -> conv2_bp5_I
I0627 17:51:38.722071  2422 net.cpp:122] Setting up conv2_bp5_I
I0627 17:51:38.722085  2422 net.cpp:129] Top shape: 8 40 32 32 (327680)
I0627 17:51:38.722088  2422 net.cpp:137] Memory required for data: 1344798720
I0627 17:51:38.722096  2422 layer_factory.hpp:77] Creating layer relu2_bp5_I
I0627 17:51:38.722103  2422 net.cpp:84] Creating Layer relu2_bp5_I
I0627 17:51:38.722107  2422 net.cpp:406] relu2_bp5_I <- conv2_bp5_I
I0627 17:51:38.722112  2422 net.cpp:367] relu2_bp5_I -> conv2_bp5_I (in-place)
I0627 17:51:38.722252  2422 net.cpp:122] Setting up relu2_bp5_I
I0627 17:51:38.722261  2422 net.cpp:129] Top shape: 8 40 32 32 (327680)
I0627 17:51:38.722265  2422 net.cpp:137] Memory required for data: 1346109440
I0627 17:51:38.722270  2422 layer_factory.hpp:77] Creating layer conv2_bp5_I_relu2_bp5_I_0_split
I0627 17:51:38.722276  2422 net.cpp:84] Creating Layer conv2_bp5_I_relu2_bp5_I_0_split
I0627 17:51:38.722280  2422 net.cpp:406] conv2_bp5_I_relu2_bp5_I_0_split <- conv2_bp5_I
I0627 17:51:38.722285  2422 net.cpp:380] conv2_bp5_I_relu2_bp5_I_0_split -> conv2_bp5_I_relu2_bp5_I_0_split_0
I0627 17:51:38.722291  2422 net.cpp:380] conv2_bp5_I_relu2_bp5_I_0_split -> conv2_bp5_I_relu2_bp5_I_0_split_1
I0627 17:51:38.722343  2422 net.cpp:122] Setting up conv2_bp5_I_relu2_bp5_I_0_split
I0627 17:51:38.722352  2422 net.cpp:129] Top shape: 8 40 32 32 (327680)
I0627 17:51:38.722354  2422 net.cpp:129] Top shape: 8 40 32 32 (327680)
I0627 17:51:38.722357  2422 net.cpp:137] Memory required for data: 1348730880
I0627 17:51:38.722360  2422 layer_factory.hpp:77] Creating layer conv2_bp5_PI
I0627 17:51:38.722373  2422 net.cpp:84] Creating Layer conv2_bp5_PI
I0627 17:51:38.722376  2422 net.cpp:406] conv2_bp5_PI <- concat_conv1_bp5_relu_concat_conv1_bp5_0_split_1
I0627 17:51:38.722383  2422 net.cpp:380] conv2_bp5_PI -> conv2_bp5_PI
I0627 17:51:38.730659  2422 net.cpp:122] Setting up conv2_bp5_PI
I0627 17:51:38.730675  2422 net.cpp:129] Top shape: 8 40 32 32 (327680)
I0627 17:51:38.730679  2422 net.cpp:137] Memory required for data: 1350041600
I0627 17:51:38.730685  2422 layer_factory.hpp:77] Creating layer conv2_bp5_P
I0627 17:51:38.730692  2422 net.cpp:84] Creating Layer conv2_bp5_P
I0627 17:51:38.730696  2422 net.cpp:406] conv2_bp5_P <- conv2_bp5_I_relu2_bp5_I_0_split_0
I0627 17:51:38.730700  2422 net.cpp:406] conv2_bp5_P <- conv2_bp5_PI
I0627 17:51:38.730707  2422 net.cpp:380] conv2_bp5_P -> conv2_bp5_P
I0627 17:51:38.730748  2422 net.cpp:122] Setting up conv2_bp5_P
I0627 17:51:38.730758  2422 net.cpp:129] Top shape: 8 40 32 32 (327680)
I0627 17:51:38.730762  2422 net.cpp:137] Memory required for data: 1351352320
I0627 17:51:38.730764  2422 layer_factory.hpp:77] Creating layer concat_conv2_bp5
I0627 17:51:38.730772  2422 net.cpp:84] Creating Layer concat_conv2_bp5
I0627 17:51:38.730775  2422 net.cpp:406] concat_conv2_bp5 <- conv2_bp5_I_relu2_bp5_I_0_split_1
I0627 17:51:38.730782  2422 net.cpp:406] concat_conv2_bp5 <- conv2_bp5_P
I0627 17:51:38.730787  2422 net.cpp:380] concat_conv2_bp5 -> concat_conv2_bp5
I0627 17:51:38.730821  2422 net.cpp:122] Setting up concat_conv2_bp5
I0627 17:51:38.730839  2422 net.cpp:129] Top shape: 8 80 32 32 (655360)
I0627 17:51:38.730842  2422 net.cpp:137] Memory required for data: 1353973760
I0627 17:51:38.730845  2422 layer_factory.hpp:77] Creating layer weight_out_concat_bp4
I0627 17:51:38.730859  2422 net.cpp:84] Creating Layer weight_out_concat_bp4
I0627 17:51:38.730862  2422 net.cpp:406] weight_out_concat_bp4 <- out_concat_bp4_relu_out_concat_bp4_0_split_2
I0627 17:51:38.730870  2422 net.cpp:380] weight_out_concat_bp4 -> weight_out_concat_bp4
I0627 17:51:38.732905  2422 net.cpp:122] Setting up weight_out_concat_bp4
I0627 17:51:38.732923  2422 net.cpp:129] Top shape: 8 80 32 32 (655360)
I0627 17:51:38.732925  2422 net.cpp:137] Memory required for data: 1356595200
I0627 17:51:38.732933  2422 layer_factory.hpp:77] Creating layer eltwise1_bp5
I0627 17:51:38.732939  2422 net.cpp:84] Creating Layer eltwise1_bp5
I0627 17:51:38.732944  2422 net.cpp:406] eltwise1_bp5 <- weight_out_concat_bp4
I0627 17:51:38.732949  2422 net.cpp:406] eltwise1_bp5 <- concat_conv2_bp5
I0627 17:51:38.732954  2422 net.cpp:380] eltwise1_bp5 -> eltwise1_bp5
I0627 17:51:38.732995  2422 net.cpp:122] Setting up eltwise1_bp5
I0627 17:51:38.733005  2422 net.cpp:129] Top shape: 8 80 32 32 (655360)
I0627 17:51:38.733006  2422 net.cpp:137] Memory required for data: 1359216640
I0627 17:51:38.733009  2422 layer_factory.hpp:77] Creating layer eltwise1_bp5_eltwise1_bp5_0_split
I0627 17:51:38.733017  2422 net.cpp:84] Creating Layer eltwise1_bp5_eltwise1_bp5_0_split
I0627 17:51:38.733021  2422 net.cpp:406] eltwise1_bp5_eltwise1_bp5_0_split <- eltwise1_bp5
I0627 17:51:38.733026  2422 net.cpp:380] eltwise1_bp5_eltwise1_bp5_0_split -> eltwise1_bp5_eltwise1_bp5_0_split_0
I0627 17:51:38.733034  2422 net.cpp:380] eltwise1_bp5_eltwise1_bp5_0_split -> eltwise1_bp5_eltwise1_bp5_0_split_1
I0627 17:51:38.733084  2422 net.cpp:122] Setting up eltwise1_bp5_eltwise1_bp5_0_split
I0627 17:51:38.733093  2422 net.cpp:129] Top shape: 8 80 32 32 (655360)
I0627 17:51:38.733098  2422 net.cpp:129] Top shape: 8 80 32 32 (655360)
I0627 17:51:38.733099  2422 net.cpp:137] Memory required for data: 1364459520
I0627 17:51:38.733103  2422 layer_factory.hpp:77] Creating layer conv3_bp5_I
I0627 17:51:38.733114  2422 net.cpp:84] Creating Layer conv3_bp5_I
I0627 17:51:38.733120  2422 net.cpp:406] conv3_bp5_I <- eltwise1_bp5_eltwise1_bp5_0_split_0
I0627 17:51:38.733129  2422 net.cpp:380] conv3_bp5_I -> conv3_bp5_I
I0627 17:51:38.735690  2422 net.cpp:122] Setting up conv3_bp5_I
I0627 17:51:38.735705  2422 net.cpp:129] Top shape: 8 20 96 96 (1474560)
I0627 17:51:38.735709  2422 net.cpp:137] Memory required for data: 1370357760
I0627 17:51:38.735716  2422 layer_factory.hpp:77] Creating layer relu3_bp5_I
I0627 17:51:38.735723  2422 net.cpp:84] Creating Layer relu3_bp5_I
I0627 17:51:38.735726  2422 net.cpp:406] relu3_bp5_I <- conv3_bp5_I
I0627 17:51:38.735731  2422 net.cpp:367] relu3_bp5_I -> conv3_bp5_I (in-place)
I0627 17:51:38.735925  2422 net.cpp:122] Setting up relu3_bp5_I
I0627 17:51:38.735935  2422 net.cpp:129] Top shape: 8 20 96 96 (1474560)
I0627 17:51:38.735939  2422 net.cpp:137] Memory required for data: 1376256000
I0627 17:51:38.735944  2422 layer_factory.hpp:77] Creating layer conv3_bp5_I_relu3_bp5_I_0_split
I0627 17:51:38.735949  2422 net.cpp:84] Creating Layer conv3_bp5_I_relu3_bp5_I_0_split
I0627 17:51:38.735951  2422 net.cpp:406] conv3_bp5_I_relu3_bp5_I_0_split <- conv3_bp5_I
I0627 17:51:38.735958  2422 net.cpp:380] conv3_bp5_I_relu3_bp5_I_0_split -> conv3_bp5_I_relu3_bp5_I_0_split_0
I0627 17:51:38.735965  2422 net.cpp:380] conv3_bp5_I_relu3_bp5_I_0_split -> conv3_bp5_I_relu3_bp5_I_0_split_1
I0627 17:51:38.736017  2422 net.cpp:122] Setting up conv3_bp5_I_relu3_bp5_I_0_split
I0627 17:51:38.736026  2422 net.cpp:129] Top shape: 8 20 96 96 (1474560)
I0627 17:51:38.736029  2422 net.cpp:129] Top shape: 8 20 96 96 (1474560)
I0627 17:51:38.736032  2422 net.cpp:137] Memory required for data: 1388052480
I0627 17:51:38.736034  2422 layer_factory.hpp:77] Creating layer conv3_bp5_PI
I0627 17:51:38.736054  2422 net.cpp:84] Creating Layer conv3_bp5_PI
I0627 17:51:38.736060  2422 net.cpp:406] conv3_bp5_PI <- eltwise1_bp5_eltwise1_bp5_0_split_1
I0627 17:51:38.736068  2422 net.cpp:380] conv3_bp5_PI -> conv3_bp5_PI
I0627 17:51:38.745308  2422 net.cpp:122] Setting up conv3_bp5_PI
I0627 17:51:38.745323  2422 net.cpp:129] Top shape: 8 20 96 96 (1474560)
I0627 17:51:38.745327  2422 net.cpp:137] Memory required for data: 1393950720
I0627 17:51:38.745335  2422 layer_factory.hpp:77] Creating layer conv3_bp5_P
I0627 17:51:38.745340  2422 net.cpp:84] Creating Layer conv3_bp5_P
I0627 17:51:38.745344  2422 net.cpp:406] conv3_bp5_P <- conv3_bp5_I_relu3_bp5_I_0_split_0
I0627 17:51:38.745350  2422 net.cpp:406] conv3_bp5_P <- conv3_bp5_PI
I0627 17:51:38.745358  2422 net.cpp:380] conv3_bp5_P -> conv3_bp5_P
I0627 17:51:38.745402  2422 net.cpp:122] Setting up conv3_bp5_P
I0627 17:51:38.745411  2422 net.cpp:129] Top shape: 8 20 96 96 (1474560)
I0627 17:51:38.745414  2422 net.cpp:137] Memory required for data: 1399848960
I0627 17:51:38.745417  2422 layer_factory.hpp:77] Creating layer concat_conv3_bp5
I0627 17:51:38.745425  2422 net.cpp:84] Creating Layer concat_conv3_bp5
I0627 17:51:38.745429  2422 net.cpp:406] concat_conv3_bp5 <- conv3_bp5_I_relu3_bp5_I_0_split_1
I0627 17:51:38.745436  2422 net.cpp:406] concat_conv3_bp5 <- conv3_bp5_P
I0627 17:51:38.745443  2422 net.cpp:380] concat_conv3_bp5 -> concat_conv3_bp5
I0627 17:51:38.745478  2422 net.cpp:122] Setting up concat_conv3_bp5
I0627 17:51:38.745487  2422 net.cpp:129] Top shape: 8 40 96 96 (2949120)
I0627 17:51:38.745491  2422 net.cpp:137] Memory required for data: 1411645440
I0627 17:51:38.745494  2422 layer_factory.hpp:77] Creating layer concat_conv3_bp5_concat_conv3_bp5_0_split
I0627 17:51:38.745499  2422 net.cpp:84] Creating Layer concat_conv3_bp5_concat_conv3_bp5_0_split
I0627 17:51:38.745503  2422 net.cpp:406] concat_conv3_bp5_concat_conv3_bp5_0_split <- concat_conv3_bp5
I0627 17:51:38.745510  2422 net.cpp:380] concat_conv3_bp5_concat_conv3_bp5_0_split -> concat_conv3_bp5_concat_conv3_bp5_0_split_0
I0627 17:51:38.745517  2422 net.cpp:380] concat_conv3_bp5_concat_conv3_bp5_0_split -> concat_conv3_bp5_concat_conv3_bp5_0_split_1
I0627 17:51:38.745523  2422 net.cpp:380] concat_conv3_bp5_concat_conv3_bp5_0_split -> concat_conv3_bp5_concat_conv3_bp5_0_split_2
I0627 17:51:38.745589  2422 net.cpp:122] Setting up concat_conv3_bp5_concat_conv3_bp5_0_split
I0627 17:51:38.745596  2422 net.cpp:129] Top shape: 8 40 96 96 (2949120)
I0627 17:51:38.745600  2422 net.cpp:129] Top shape: 8 40 96 96 (2949120)
I0627 17:51:38.745604  2422 net.cpp:129] Top shape: 8 40 96 96 (2949120)
I0627 17:51:38.745606  2422 net.cpp:137] Memory required for data: 1447034880
I0627 17:51:38.745609  2422 layer_factory.hpp:77] Creating layer weight_concat_conv1_bp5
I0627 17:51:38.745621  2422 net.cpp:84] Creating Layer weight_concat_conv1_bp5
I0627 17:51:38.745627  2422 net.cpp:406] weight_concat_conv1_bp5 <- concat_conv1_bp5_relu_concat_conv1_bp5_0_split_2
I0627 17:51:38.745638  2422 net.cpp:380] weight_concat_conv1_bp5 -> weight_concat_conv1_bp5
I0627 17:51:38.747629  2422 net.cpp:122] Setting up weight_concat_conv1_bp5
I0627 17:51:38.747643  2422 net.cpp:129] Top shape: 8 40 96 96 (2949120)
I0627 17:51:38.747647  2422 net.cpp:137] Memory required for data: 1458831360
I0627 17:51:38.747678  2422 layer_factory.hpp:77] Creating layer eltwise2_bp5_1
I0627 17:51:38.747687  2422 net.cpp:84] Creating Layer eltwise2_bp5_1
I0627 17:51:38.747694  2422 net.cpp:406] eltwise2_bp5_1 <- weight_concat_conv1_bp5
I0627 17:51:38.747699  2422 net.cpp:406] eltwise2_bp5_1 <- concat_conv3_bp5_concat_conv3_bp5_0_split_0
I0627 17:51:38.747709  2422 net.cpp:380] eltwise2_bp5_1 -> output_bp5_1
I0627 17:51:38.747750  2422 net.cpp:122] Setting up eltwise2_bp5_1
I0627 17:51:38.747758  2422 net.cpp:129] Top shape: 8 40 96 96 (2949120)
I0627 17:51:38.747761  2422 net.cpp:137] Memory required for data: 1470627840
I0627 17:51:38.747764  2422 layer_factory.hpp:77] Creating layer eltwise2_bp5_2
I0627 17:51:38.747771  2422 net.cpp:84] Creating Layer eltwise2_bp5_2
I0627 17:51:38.747786  2422 net.cpp:406] eltwise2_bp5_2 <- output_bp5_1
I0627 17:51:38.747790  2422 net.cpp:406] eltwise2_bp5_2 <- concat_conv3_bp3_concat_conv3_bp3_0_split_1
I0627 17:51:38.747797  2422 net.cpp:380] eltwise2_bp5_2 -> output_bp5_2
I0627 17:51:38.747833  2422 net.cpp:122] Setting up eltwise2_bp5_2
I0627 17:51:38.747840  2422 net.cpp:129] Top shape: 8 40 96 96 (2949120)
I0627 17:51:38.747843  2422 net.cpp:137] Memory required for data: 1482424320
I0627 17:51:38.747846  2422 layer_factory.hpp:77] Creating layer eltwise2_bp5_3
I0627 17:51:38.747853  2422 net.cpp:84] Creating Layer eltwise2_bp5_3
I0627 17:51:38.747856  2422 net.cpp:406] eltwise2_bp5_3 <- output_bp5_2
I0627 17:51:38.747860  2422 net.cpp:406] eltwise2_bp5_3 <- concat_conv3_bp1_concat_conv3_bp1_0_split_2
I0627 17:51:38.747867  2422 net.cpp:380] eltwise2_bp5_3 -> output_bp5
I0627 17:51:38.747900  2422 net.cpp:122] Setting up eltwise2_bp5_3
I0627 17:51:38.747906  2422 net.cpp:129] Top shape: 8 40 96 96 (2949120)
I0627 17:51:38.747910  2422 net.cpp:137] Memory required for data: 1494220800
I0627 17:51:38.747912  2422 layer_factory.hpp:77] Creating layer relu_output_bp5
I0627 17:51:38.747920  2422 net.cpp:84] Creating Layer relu_output_bp5
I0627 17:51:38.747923  2422 net.cpp:406] relu_output_bp5 <- output_bp5
I0627 17:51:38.747927  2422 net.cpp:367] relu_output_bp5 -> output_bp5 (in-place)
I0627 17:51:38.748838  2422 net.cpp:122] Setting up relu_output_bp5
I0627 17:51:38.748855  2422 net.cpp:129] Top shape: 8 40 96 96 (2949120)
I0627 17:51:38.748858  2422 net.cpp:137] Memory required for data: 1506017280
I0627 17:51:38.748863  2422 layer_factory.hpp:77] Creating layer output_bp5_relu_output_bp5_0_split
I0627 17:51:38.748869  2422 net.cpp:84] Creating Layer output_bp5_relu_output_bp5_0_split
I0627 17:51:38.748873  2422 net.cpp:406] output_bp5_relu_output_bp5_0_split <- output_bp5
I0627 17:51:38.748880  2422 net.cpp:380] output_bp5_relu_output_bp5_0_split -> output_bp5_relu_output_bp5_0_split_0
I0627 17:51:38.748888  2422 net.cpp:380] output_bp5_relu_output_bp5_0_split -> output_bp5_relu_output_bp5_0_split_1
I0627 17:51:38.748894  2422 net.cpp:380] output_bp5_relu_output_bp5_0_split -> output_bp5_relu_output_bp5_0_split_2
I0627 17:51:38.748965  2422 net.cpp:122] Setting up output_bp5_relu_output_bp5_0_split
I0627 17:51:38.748972  2422 net.cpp:129] Top shape: 8 40 96 96 (2949120)
I0627 17:51:38.748976  2422 net.cpp:129] Top shape: 8 40 96 96 (2949120)
I0627 17:51:38.748980  2422 net.cpp:129] Top shape: 8 40 96 96 (2949120)
I0627 17:51:38.748983  2422 net.cpp:137] Memory required for data: 1541406720
I0627 17:51:38.748986  2422 layer_factory.hpp:77] Creating layer conv_output_bp3
I0627 17:51:38.748996  2422 net.cpp:84] Creating Layer conv_output_bp3
I0627 17:51:38.748999  2422 net.cpp:406] conv_output_bp3 <- output_bp3_relu_output_bp3_0_split_1
I0627 17:51:38.749013  2422 net.cpp:380] conv_output_bp3 -> conv_output_bp3
I0627 17:51:38.751005  2422 net.cpp:122] Setting up conv_output_bp3
…
I0627 17:51:50.331181  2422 net.cpp:380] out_concat_bp7_relu_out_concat_bp7_0_split -> out_concat_bp7_relu_out_concat_bp7_0_split_0
I0627 17:51:50.331188  2422 net.cpp:380] out_concat_bp7_relu_out_concat_bp7_0_split -> out_concat_bp7_relu_out_concat_bp7_0_split_1
I0627 17:51:50.331194  2422 net.cpp:380] out_concat_bp7_relu_out_concat_bp7_0_split -> out_concat_bp7_relu_out_concat_bp7_0_split_2
I0627 17:51:50.331254  2422 net.cpp:122] Setting up out_concat_bp7_relu_out_concat_bp7_0_split
I0627 17:51:50.331260  2422 net.cpp:129] Top shape: 2 40 96 96 (737280)
I0627 17:51:50.331265  2422 net.cpp:129] Top shape: 2 40 96 96 (737280)
I0627 17:51:50.331269  2422 net.cpp:129] Top shape: 2 40 96 96 (737280)
I0627 17:51:50.331271  2422 net.cpp:137] Memory required for data: 590807040
I0627 17:51:50.331274  2422 layer_factory.hpp:77] Creating layer conv1_bp8_I
I0627 17:51:50.331285  2422 net.cpp:84] Creating Layer conv1_bp8_I
I0627 17:51:50.331290  2422 net.cpp:406] conv1_bp8_I <- out_concat_bp7_relu_out_concat_bp7_0_split_0
I0627 17:51:50.331296  2422 net.cpp:380] conv1_bp8_I -> conv1_bp8_I
I0627 17:51:50.334110  2422 net.cpp:122] Setting up conv1_bp8_I
I0627 17:51:50.334125  2422 net.cpp:129] Top shape: 2 40 32 32 (81920)
I0627 17:51:50.334127  2422 net.cpp:137] Memory required for data: 591134720
I0627 17:51:50.334134  2422 layer_factory.hpp:77] Creating layer relu1_bp8_I
I0627 17:51:50.334141  2422 net.cpp:84] Creating Layer relu1_bp8_I
I0627 17:51:50.334146  2422 net.cpp:406] relu1_bp8_I <- conv1_bp8_I
I0627 17:51:50.334151  2422 net.cpp:367] relu1_bp8_I -> conv1_bp8_I (in-place)
I0627 17:51:50.334273  2422 net.cpp:122] Setting up relu1_bp8_I
I0627 17:51:50.334282  2422 net.cpp:129] Top shape: 2 40 32 32 (81920)
I0627 17:51:50.334285  2422 net.cpp:137] Memory required for data: 591462400
I0627 17:51:50.334290  2422 layer_factory.hpp:77] Creating layer conv1_bp8_I_relu1_bp8_I_0_split
I0627 17:51:50.334295  2422 net.cpp:84] Creating Layer conv1_bp8_I_relu1_bp8_I_0_split
I0627 17:51:50.334300  2422 net.cpp:406] conv1_bp8_I_relu1_bp8_I_0_split <- conv1_bp8_I
I0627 17:51:50.334306  2422 net.cpp:380] conv1_bp8_I_relu1_bp8_I_0_split -> conv1_bp8_I_relu1_bp8_I_0_split_0
I0627 17:51:50.334312  2422 net.cpp:380] conv1_bp8_I_relu1_bp8_I_0_split -> conv1_bp8_I_relu1_bp8_I_0_split_1
I0627 17:51:50.334355  2422 net.cpp:122] Setting up conv1_bp8_I_relu1_bp8_I_0_split
I0627 17:51:50.334363  2422 net.cpp:129] Top shape: 2 40 32 32 (81920)
I0627 17:51:50.334367  2422 net.cpp:129] Top shape: 2 40 32 32 (81920)
I0627 17:51:50.334369  2422 net.cpp:137] Memory required for data: 592117760
I0627 17:51:50.334372  2422 layer_factory.hpp:77] Creating layer conv1_bp8_PI
I0627 17:51:50.334383  2422 net.cpp:84] Creating Layer conv1_bp8_PI
I0627 17:51:50.334386  2422 net.cpp:406] conv1_bp8_PI <- out_concat_bp7_relu_out_concat_bp7_0_split_1
I0627 17:51:50.334394  2422 net.cpp:380] conv1_bp8_PI -> conv1_bp8_PI
I0627 17:51:50.343920  2422 net.cpp:122] Setting up conv1_bp8_PI
I0627 17:51:50.343935  2422 net.cpp:129] Top shape: 2 40 32 32 (81920)
I0627 17:51:50.343938  2422 net.cpp:137] Memory required for data: 592445440
I0627 17:51:50.343945  2422 layer_factory.hpp:77] Creating layer conv1_bp8_P
I0627 17:51:50.343953  2422 net.cpp:84] Creating Layer conv1_bp8_P
I0627 17:51:50.343957  2422 net.cpp:406] conv1_bp8_P <- conv1_bp8_I_relu1_bp8_I_0_split_0
I0627 17:51:50.343962  2422 net.cpp:406] conv1_bp8_P <- conv1_bp8_PI
I0627 17:51:50.343978  2422 net.cpp:380] conv1_bp8_P -> conv1_bp8_P
I0627 17:51:50.344014  2422 net.cpp:122] Setting up conv1_bp8_P
I0627 17:51:50.344023  2422 net.cpp:129] Top shape: 2 40 32 32 (81920)
I0627 17:51:50.344027  2422 net.cpp:137] Memory required for data: 592773120
I0627 17:51:50.344029  2422 layer_factory.hpp:77] Creating layer concat_conv1_bp8
I0627 17:51:50.344035  2422 net.cpp:84] Creating Layer concat_conv1_bp8
I0627 17:51:50.344038  2422 net.cpp:406] concat_conv1_bp8 <- conv1_bp8_I_relu1_bp8_I_0_split_1
I0627 17:51:50.344045  2422 net.cpp:406] concat_conv1_bp8 <- conv1_bp8_P
I0627 17:51:50.344050  2422 net.cpp:380] concat_conv1_bp8 -> concat_conv1_bp8
I0627 17:51:50.344081  2422 net.cpp:122] Setting up concat_conv1_bp8
I0627 17:51:50.344089  2422 net.cpp:129] Top shape: 2 80 32 32 (163840)
I0627 17:51:50.344092  2422 net.cpp:137] Memory required for data: 593428480
I0627 17:51:50.344094  2422 layer_factory.hpp:77] Creating layer relu_concat_conv1_bp8
I0627 17:51:50.344100  2422 net.cpp:84] Creating Layer relu_concat_conv1_bp8
I0627 17:51:50.344103  2422 net.cpp:406] relu_concat_conv1_bp8 <- concat_conv1_bp8
I0627 17:51:50.344113  2422 net.cpp:367] relu_concat_conv1_bp8 -> concat_conv1_bp8 (in-place)
I0627 17:51:50.344247  2422 net.cpp:122] Setting up relu_concat_conv1_bp8
I0627 17:51:50.344256  2422 net.cpp:129] Top shape: 2 80 32 32 (163840)
I0627 17:51:50.344259  2422 net.cpp:137] Memory required for data: 594083840
I0627 17:51:50.344264  2422 layer_factory.hpp:77] Creating layer concat_conv1_bp8_relu_concat_conv1_bp8_0_split
I0627 17:51:50.344269  2422 net.cpp:84] Creating Layer concat_conv1_bp8_relu_concat_conv1_bp8_0_split
I0627 17:51:50.344274  2422 net.cpp:406] concat_conv1_bp8_relu_concat_conv1_bp8_0_split <- concat_conv1_bp8
I0627 17:51:50.344280  2422 net.cpp:380] concat_conv1_bp8_relu_concat_conv1_bp8_0_split -> concat_conv1_bp8_relu_concat_conv1_bp8_0_split_0
I0627 17:51:50.344287  2422 net.cpp:380] concat_conv1_bp8_relu_concat_conv1_bp8_0_split -> concat_conv1_bp8_relu_concat_conv1_bp8_0_split_1
I0627 17:51:50.344295  2422 net.cpp:380] concat_conv1_bp8_relu_concat_conv1_bp8_0_split -> concat_conv1_bp8_relu_concat_conv1_bp8_0_split_2
I0627 17:51:50.344352  2422 net.cpp:122] Setting up concat_conv1_bp8_relu_concat_conv1_bp8_0_split
I0627 17:51:50.344358  2422 net.cpp:129] Top shape: 2 80 32 32 (163840)
I0627 17:51:50.344362  2422 net.cpp:129] Top shape: 2 80 32 32 (163840)
I0627 17:51:50.344365  2422 net.cpp:129] Top shape: 2 80 32 32 (163840)
I0627 17:51:50.344368  2422 net.cpp:137] Memory required for data: 596049920
I0627 17:51:50.344372  2422 layer_factory.hpp:77] Creating layer conv2_bp8_I
I0627 17:51:50.344380  2422 net.cpp:84] Creating Layer conv2_bp8_I
I0627 17:51:50.344383  2422 net.cpp:406] conv2_bp8_I <- concat_conv1_bp8_relu_concat_conv1_bp8_0_split_0
I0627 17:51:50.344391  2422 net.cpp:380] conv2_bp8_I -> conv2_bp8_I
I0627 17:51:50.347321  2422 net.cpp:122] Setting up conv2_bp8_I
I0627 17:51:50.347337  2422 net.cpp:129] Top shape: 2 20 96 96 (368640)
I0627 17:51:50.347340  2422 net.cpp:137] Memory required for data: 597524480
I0627 17:51:50.347347  2422 layer_factory.hpp:77] Creating layer relu2_bp8_I
I0627 17:51:50.347352  2422 net.cpp:84] Creating Layer relu2_bp8_I
I0627 17:51:50.347357  2422 net.cpp:406] relu2_bp8_I <- conv2_bp8_I
I0627 17:51:50.347363  2422 net.cpp:367] relu2_bp8_I -> conv2_bp8_I (in-place)
I0627 17:51:50.348240  2422 net.cpp:122] Setting up relu2_bp8_I
I0627 17:51:50.348254  2422 net.cpp:129] Top shape: 2 20 96 96 (368640)
I0627 17:51:50.348258  2422 net.cpp:137] Memory required for data: 598999040
I0627 17:51:50.348263  2422 layer_factory.hpp:77] Creating layer conv2_bp8_I_relu2_bp8_I_0_split
I0627 17:51:50.348268  2422 net.cpp:84] Creating Layer conv2_bp8_I_relu2_bp8_I_0_split
I0627 17:51:50.348273  2422 net.cpp:406] conv2_bp8_I_relu2_bp8_I_0_split <- conv2_bp8_I
I0627 17:51:50.348280  2422 net.cpp:380] conv2_bp8_I_relu2_bp8_I_0_split -> conv2_bp8_I_relu2_bp8_I_0_split_0
I0627 17:51:50.348287  2422 net.cpp:380] conv2_bp8_I_relu2_bp8_I_0_split -> conv2_bp8_I_relu2_bp8_I_0_split_1
I0627 17:51:50.348347  2422 net.cpp:122] Setting up conv2_bp8_I_relu2_bp8_I_0_split
I0627 17:51:50.348356  2422 net.cpp:129] Top shape: 2 20 96 96 (368640)
I0627 17:51:50.348361  2422 net.cpp:129] Top shape: 2 20 96 96 (368640)
I0627 17:51:50.348363  2422 net.cpp:137] Memory required for data: 601948160
I0627 17:51:50.348366  2422 layer_factory.hpp:77] Creating layer conv2_bp8_PI
I0627 17:51:50.348376  2422 net.cpp:84] Creating Layer conv2_bp8_PI
I0627 17:51:50.348381  2422 net.cpp:406] conv2_bp8_PI <- concat_conv1_bp8_relu_concat_conv1_bp8_0_split_1
I0627 17:51:50.348388  2422 net.cpp:380] conv2_bp8_PI -> conv2_bp8_PI
I0627 17:51:50.357920  2422 net.cpp:122] Setting up conv2_bp8_PI
I0627 17:51:50.357935  2422 net.cpp:129] Top shape: 2 20 96 96 (368640)
I0627 17:51:50.357939  2422 net.cpp:137] Memory required for data: 603422720
I0627 17:51:50.357947  2422 layer_factory.hpp:77] Creating layer conv2_bp8_P
I0627 17:51:50.357956  2422 net.cpp:84] Creating Layer conv2_bp8_P
I0627 17:51:50.357961  2422 net.cpp:406] conv2_bp8_P <- conv2_bp8_I_relu2_bp8_I_0_split_0
I0627 17:51:50.357969  2422 net.cpp:406] conv2_bp8_P <- conv2_bp8_PI
I0627 17:51:50.357975  2422 net.cpp:380] conv2_bp8_P -> conv2_bp8_P
I0627 17:51:50.358008  2422 net.cpp:122] Setting up conv2_bp8_P
I0627 17:51:50.358014  2422 net.cpp:129] Top shape: 2 20 96 96 (368640)
I0627 17:51:50.358018  2422 net.cpp:137] Memory required for data: 604897280
I0627 17:51:50.358021  2422 layer_factory.hpp:77] Creating layer concat_conv2_bp8
I0627 17:51:50.358028  2422 net.cpp:84] Creating Layer concat_conv2_bp8
I0627 17:51:50.358031  2422 net.cpp:406] concat_conv2_bp8 <- conv2_bp8_I_relu2_bp8_I_0_split_1
I0627 17:51:50.358036  2422 net.cpp:406] concat_conv2_bp8 <- conv2_bp8_P
I0627 17:51:50.358042  2422 net.cpp:380] concat_conv2_bp8 -> concat_conv2_bp8
I0627 17:51:50.358072  2422 net.cpp:122] Setting up concat_conv2_bp8
I0627 17:51:50.358080  2422 net.cpp:129] Top shape: 2 40 96 96 (737280)
I0627 17:51:50.358084  2422 net.cpp:137] Memory required for data: 607846400
I0627 17:51:50.358088  2422 layer_factory.hpp:77] Creating layer concat_conv2_bp8_concat_conv2_bp8_0_split
I0627 17:51:50.358093  2422 net.cpp:84] Creating Layer concat_conv2_bp8_concat_conv2_bp8_0_split
I0627 17:51:50.358096  2422 net.cpp:406] concat_conv2_bp8_concat_conv2_bp8_0_split <- concat_conv2_bp8
I0627 17:51:50.358103  2422 net.cpp:380] concat_conv2_bp8_concat_conv2_bp8_0_split -> concat_conv2_bp8_concat_conv2_bp8_0_split_0
I0627 17:51:50.358110  2422 net.cpp:380] concat_conv2_bp8_concat_conv2_bp8_0_split -> concat_conv2_bp8_concat_conv2_bp8_0_split_1
I0627 17:51:50.358153  2422 net.cpp:122] Setting up concat_conv2_bp8_concat_conv2_bp8_0_split
I0627 17:51:50.358161  2422 net.cpp:129] Top shape: 2 40 96 96 (737280)
I0627 17:51:50.358165  2422 net.cpp:129] Top shape: 2 40 96 96 (737280)
I0627 17:51:50.358168  2422 net.cpp:137] Memory required for data: 613744640
I0627 17:51:50.358170  2422 layer_factory.hpp:77] Creating layer weight_out_concat_bp7
I0627 17:51:50.358181  2422 net.cpp:84] Creating Layer weight_out_concat_bp7
I0627 17:51:50.358186  2422 net.cpp:406] weight_out_concat_bp7 <- out_concat_bp7_relu_out_concat_bp7_0_split_2
I0627 17:51:50.358193  2422 net.cpp:380] weight_out_concat_bp7 -> weight_out_concat_bp7
I0627 17:51:50.360430  2422 net.cpp:122] Setting up weight_out_concat_bp7
I0627 17:51:50.360443  2422 net.cpp:129] Top shape: 2 40 96 96 (737280)
I0627 17:51:50.360448  2422 net.cpp:137] Memory required for data: 616693760
I0627 17:51:50.360457  2422 layer_factory.hpp:77] Creating layer eltwise1_bp8
I0627 17:51:50.360463  2422 net.cpp:84] Creating Layer eltwise1_bp8
I0627 17:51:50.360467  2422 net.cpp:406] eltwise1_bp8 <- weight_out_concat_bp7
I0627 17:51:50.360472  2422 net.cpp:406] eltwise1_bp8 <- concat_conv2_bp8_concat_conv2_bp8_0_split_0
I0627 17:51:50.360478  2422 net.cpp:380] eltwise1_bp8 -> eltwise1_bp8
I0627 17:51:50.360513  2422 net.cpp:122] Setting up eltwise1_bp8
I0627 17:51:50.360525  2422 net.cpp:129] Top shape: 2 40 96 96 (737280)
I0627 17:51:50.360528  2422 net.cpp:137] Memory required for data: 619642880
I0627 17:51:50.360541  2422 layer_factory.hpp:77] Creating layer eltwise1_bp8_eltwise1_bp8_0_split
I0627 17:51:50.360548  2422 net.cpp:84] Creating Layer eltwise1_bp8_eltwise1_bp8_0_split
I0627 17:51:50.360553  2422 net.cpp:406] eltwise1_bp8_eltwise1_bp8_0_split <- eltwise1_bp8
I0627 17:51:50.360558  2422 net.cpp:380] eltwise1_bp8_eltwise1_bp8_0_split -> eltwise1_bp8_eltwise1_bp8_0_split_0
I0627 17:51:50.360564  2422 net.cpp:380] eltwise1_bp8_eltwise1_bp8_0_split -> eltwise1_bp8_eltwise1_bp8_0_split_1
I0627 17:51:50.360611  2422 net.cpp:122] Setting up eltwise1_bp8_eltwise1_bp8_0_split
I0627 17:51:50.360618  2422 net.cpp:129] Top shape: 2 40 96 96 (737280)
I0627 17:51:50.360622  2422 net.cpp:129] Top shape: 2 40 96 96 (737280)
I0627 17:51:50.360625  2422 net.cpp:137] Memory required for data: 625541120
I0627 17:51:50.360628  2422 layer_factory.hpp:77] Creating layer conv3_bp8_I
I0627 17:51:50.360637  2422 net.cpp:84] Creating Layer conv3_bp8_I
I0627 17:51:50.360643  2422 net.cpp:406] conv3_bp8_I <- eltwise1_bp8_eltwise1_bp8_0_split_0
I0627 17:51:50.360649  2422 net.cpp:380] conv3_bp8_I -> conv3_bp8_I
I0627 17:51:50.363445  2422 net.cpp:122] Setting up conv3_bp8_I
I0627 17:51:50.363459  2422 net.cpp:129] Top shape: 2 40 32 32 (81920)
I0627 17:51:50.363463  2422 net.cpp:137] Memory required for data: 625868800
I0627 17:51:50.363471  2422 layer_factory.hpp:77] Creating layer relu3_bp8_I
I0627 17:51:50.363478  2422 net.cpp:84] Creating Layer relu3_bp8_I
I0627 17:51:50.363482  2422 net.cpp:406] relu3_bp8_I <- conv3_bp8_I
I0627 17:51:50.363488  2422 net.cpp:367] relu3_bp8_I -> conv3_bp8_I (in-place)
I0627 17:51:50.363615  2422 net.cpp:122] Setting up relu3_bp8_I
I0627 17:51:50.363625  2422 net.cpp:129] Top shape: 2 40 32 32 (81920)
I0627 17:51:50.363626  2422 net.cpp:137] Memory required for data: 626196480
I0627 17:51:50.363632  2422 layer_factory.hpp:77] Creating layer conv3_bp8_I_relu3_bp8_I_0_split
I0627 17:51:50.363639  2422 net.cpp:84] Creating Layer conv3_bp8_I_relu3_bp8_I_0_split
I0627 17:51:50.363642  2422 net.cpp:406] conv3_bp8_I_relu3_bp8_I_0_split <- conv3_bp8_I
I0627 17:51:50.363647  2422 net.cpp:380] conv3_bp8_I_relu3_bp8_I_0_split -> conv3_bp8_I_relu3_bp8_I_0_split_0
I0627 17:51:50.363654  2422 net.cpp:380] conv3_bp8_I_relu3_bp8_I_0_split -> conv3_bp8_I_relu3_bp8_I_0_split_1
I0627 17:51:50.363699  2422 net.cpp:122] Setting up conv3_bp8_I_relu3_bp8_I_0_split
I0627 17:51:50.363708  2422 net.cpp:129] Top shape: 2 40 32 32 (81920)
I0627 17:51:50.363710  2422 net.cpp:129] Top shape: 2 40 32 32 (81920)
I0627 17:51:50.363714  2422 net.cpp:137] Memory required for data: 626851840
I0627 17:51:50.363716  2422 layer_factory.hpp:77] Creating layer conv3_bp8_PI
I0627 17:51:50.363728  2422 net.cpp:84] Creating Layer conv3_bp8_PI
I0627 17:51:50.363730  2422 net.cpp:406] conv3_bp8_PI <- eltwise1_bp8_eltwise1_bp8_0_split_1
I0627 17:51:50.363739  2422 net.cpp:380] conv3_bp8_PI -> conv3_bp8_PI
I0627 17:51:50.373311  2422 net.cpp:122] Setting up conv3_bp8_PI
I0627 17:51:50.373327  2422 net.cpp:129] Top shape: 2 40 32 32 (81920)
I0627 17:51:50.373329  2422 net.cpp:137] Memory required for data: 627179520
I0627 17:51:50.373337  2422 layer_factory.hpp:77] Creating layer conv3_bp8_P
I0627 17:51:50.373343  2422 net.cpp:84] Creating Layer conv3_bp8_P
I0627 17:51:50.373347  2422 net.cpp:406] conv3_bp8_P <- conv3_bp8_I_relu3_bp8_I_0_split_0
I0627 17:51:50.373353  2422 net.cpp:406] conv3_bp8_P <- conv3_bp8_PI
I0627 17:51:50.373359  2422 net.cpp:380] conv3_bp8_P -> conv3_bp8_P
I0627 17:51:50.373394  2422 net.cpp:122] Setting up conv3_bp8_P
I0627 17:51:50.373399  2422 net.cpp:129] Top shape: 2 40 32 32 (81920)
I0627 17:51:50.373402  2422 net.cpp:137] Memory required for data: 627507200
I0627 17:51:50.373405  2422 layer_factory.hpp:77] Creating layer concat_conv3_bp8
I0627 17:51:50.373412  2422 net.cpp:84] Creating Layer concat_conv3_bp8
I0627 17:51:50.373415  2422 net.cpp:406] concat_conv3_bp8 <- conv3_bp8_I_relu3_bp8_I_0_split_1
I0627 17:51:50.373420  2422 net.cpp:406] concat_conv3_bp8 <- conv3_bp8_P
I0627 17:51:50.373437  2422 net.cpp:380] concat_conv3_bp8 -> concat_conv3_bp8
I0627 17:51:50.373471  2422 net.cpp:122] Setting up concat_conv3_bp8
I0627 17:51:50.373478  2422 net.cpp:129] Top shape: 2 80 32 32 (163840)
I0627 17:51:50.373482  2422 net.cpp:137] Memory required for data: 628162560
I0627 17:51:50.373486  2422 layer_factory.hpp:77] Creating layer weight_concat_conv1_bp8
I0627 17:51:50.373497  2422 net.cpp:84] Creating Layer weight_concat_conv1_bp8
I0627 17:51:50.373502  2422 net.cpp:406] weight_concat_conv1_bp8 <- concat_conv1_bp8_relu_concat_conv1_bp8_0_split_2
I0627 17:51:50.373508  2422 net.cpp:380] weight_concat_conv1_bp8 -> weight_concat_conv1_bp8
I0627 17:51:50.375785  2422 net.cpp:122] Setting up weight_concat_conv1_bp8
I0627 17:51:50.375800  2422 net.cpp:129] Top shape: 2 80 32 32 (163840)
I0627 17:51:50.375804  2422 net.cpp:137] Memory required for data: 628817920
I0627 17:51:50.375811  2422 layer_factory.hpp:77] Creating layer eltwise2_bp8_1
I0627 17:51:50.375818  2422 net.cpp:84] Creating Layer eltwise2_bp8_1
I0627 17:51:50.375823  2422 net.cpp:406] eltwise2_bp8_1 <- weight_concat_conv1_bp8
I0627 17:51:50.375828  2422 net.cpp:406] eltwise2_bp8_1 <- concat_conv3_bp8
I0627 17:51:50.375833  2422 net.cpp:380] eltwise2_bp8_1 -> output_bp8_1
I0627 17:51:50.375869  2422 net.cpp:122] Setting up eltwise2_bp8_1
I0627 17:51:50.375874  2422 net.cpp:129] Top shape: 2 80 32 32 (163840)
I0627 17:51:50.375876  2422 net.cpp:137] Memory required for data: 629473280
I0627 17:51:50.375880  2422 layer_factory.hpp:77] Creating layer eltwise2_bp8_2
I0627 17:51:50.375887  2422 net.cpp:84] Creating Layer eltwise2_bp8_2
I0627 17:51:50.375890  2422 net.cpp:406] eltwise2_bp8_2 <- output_bp8_1
I0627 17:51:50.375895  2422 net.cpp:406] eltwise2_bp8_2 <- concat_conv3_bp6_concat_conv3_bp6_0_split_1
I0627 17:51:50.375900  2422 net.cpp:380] eltwise2_bp8_2 -> output_bp8_2
I0627 17:51:50.375929  2422 net.cpp:122] Setting up eltwise2_bp8_2
I0627 17:51:50.375937  2422 net.cpp:129] Top shape: 2 80 32 32 (163840)
I0627 17:51:50.375941  2422 net.cpp:137] Memory required for data: 630128640
I0627 17:51:50.375943  2422 layer_factory.hpp:77] Creating layer eltwise2_bp8_3
I0627 17:51:50.375948  2422 net.cpp:84] Creating Layer eltwise2_bp8_3
I0627 17:51:50.375952  2422 net.cpp:406] eltwise2_bp8_3 <- output_bp8_2
I0627 17:51:50.375957  2422 net.cpp:406] eltwise2_bp8_3 <- concat_conv3_bp4_concat_conv3_bp4_0_split_2
I0627 17:51:50.375962  2422 net.cpp:380] eltwise2_bp8_3 -> output_bp8_3
I0627 17:51:50.375991  2422 net.cpp:122] Setting up eltwise2_bp8_3
I0627 17:51:50.375998  2422 net.cpp:129] Top shape: 2 80 32 32 (163840)
I0627 17:51:50.376003  2422 net.cpp:137] Memory required for data: 630784000
I0627 17:51:50.376005  2422 layer_factory.hpp:77] Creating layer eltwise2_bp8_4
I0627 17:51:50.376011  2422 net.cpp:84] Creating Layer eltwise2_bp8_4
I0627 17:51:50.376014  2422 net.cpp:406] eltwise2_bp8_4 <- output_bp8_3
I0627 17:51:50.376019  2422 net.cpp:406] eltwise2_bp8_4 <- concat_conv3_bp2_concat_conv3_bp2_0_split_3
I0627 17:51:50.376025  2422 net.cpp:380] eltwise2_bp8_4 -> output_bp8
I0627 17:51:50.376050  2422 net.cpp:122] Setting up eltwise2_bp8_4
I0627 17:51:50.376058  2422 net.cpp:129] Top shape: 2 80 32 32 (163840)
I0627 17:51:50.376061  2422 net.cpp:137] Memory required for data: 631439360
I0627 17:51:50.376065  2422 layer_factory.hpp:77] Creating layer relu_output_bp8
I0627 17:51:50.376070  2422 net.cpp:84] Creating Layer relu_output_bp8
I0627 17:51:50.376073  2422 net.cpp:406] relu_output_bp8 <- output_bp8
I0627 17:51:50.376077  2422 net.cpp:367] relu_output_bp8 -> output_bp8 (in-place)
I0627 17:51:50.376217  2422 net.cpp:122] Setting up relu_output_bp8
I0627 17:51:50.376227  2422 net.cpp:129] Top shape: 2 80 32 32 (163840)
I0627 17:51:50.376230  2422 net.cpp:137] Memory required for data: 632094720
I0627 17:51:50.376235  2422 layer_factory.hpp:77] Creating layer conv_output_bp6
I0627 17:51:50.376245  2422 net.cpp:84] Creating Layer conv_output_bp6
I0627 17:51:50.376250  2422 net.cpp:406] conv_output_bp6 <- output_bp6_relu_output_bp6_0_split_1
I0627 17:51:50.376271  2422 net.cpp:380] conv_output_bp6 -> conv_output_bp6
I0627 17:51:50.378537  2422 net.cpp:122] Setting up conv_output_bp6
I0627 17:51:50.378551  2422 net.cpp:129] Top shape: 2 80 32 32 (163840)
I0627 17:51:50.378554  2422 net.cpp:137] Memory required for data: 632750080
I0627 17:51:50.378562  2422 layer_factory.hpp:77] Creating layer concat_bp8
I0627 17:51:50.378571  2422 net.cpp:84] Creating Layer concat_bp8
I0627 17:51:50.378574  2422 net.cpp:406] concat_bp8 <- conv_output_bp6
I0627 17:51:50.378579  2422 net.cpp:406] concat_bp8 <- output_bp8
I0627 17:51:50.378583  2422 net.cpp:406] concat_bp8 <- conv_output_bp4_conv_output_bp4_0_split_1
I0627 17:51:50.378588  2422 net.cpp:406] concat_bp8 <- conv_output_bp2_conv_output_bp2_0_split_2
I0627 17:51:50.378593  2422 net.cpp:380] concat_bp8 -> concat_bp8
I0627 17:51:50.378631  2422 net.cpp:122] Setting up concat_bp8
I0627 17:51:50.378639  2422 net.cpp:129] Top shape: 2 320 32 32 (655360)
I0627 17:51:50.378643  2422 net.cpp:137] Memory required for data: 635371520
I0627 17:51:50.378645  2422 layer_factory.hpp:77] Creating layer out_concat_bp8_I
I0627 17:51:50.378656  2422 net.cpp:84] Creating Layer out_concat_bp8_I
I0627 17:51:50.378660  2422 net.cpp:406] out_concat_bp8_I <- concat_bp8
I0627 17:51:50.378667  2422 net.cpp:380] out_concat_bp8_I -> out_concat_bp8_I
I0627 17:51:50.381953  2422 net.cpp:122] Setting up out_concat_bp8_I
I0627 17:51:50.381968  2422 net.cpp:129] Top shape: 2 40 32 32 (81920)
I0627 17:51:50.381970  2422 net.cpp:137] Memory required for data: 635699200
I0627 17:51:50.381978  2422 layer_factory.hpp:77] Creating layer relu1_concat_bp8_I
I0627 17:51:50.381985  2422 net.cpp:84] Creating Layer relu1_concat_bp8_I
I0627 17:51:50.381990  2422 net.cpp:406] relu1_concat_bp8_I <- out_concat_bp8_I
I0627 17:51:50.381995  2422 net.cpp:367] relu1_concat_bp8_I -> out_concat_bp8_I (in-place)
I0627 17:51:50.382817  2422 net.cpp:122] Setting up relu1_concat_bp8_I
I0627 17:51:50.382831  2422 net.cpp:129] Top shape: 2 40 32 32 (81920)
I0627 17:51:50.382834  2422 net.cpp:137] Memory required for data: 636026880
I0627 17:51:50.382839  2422 layer_factory.hpp:77] Creating layer out_concat_bp8_I_relu1_concat_bp8_I_0_split
I0627 17:51:50.382845  2422 net.cpp:84] Creating Layer out_concat_bp8_I_relu1_concat_bp8_I_0_split
I0627 17:51:50.382849  2422 net.cpp:406] out_concat_bp8_I_relu1_concat_bp8_I_0_split <- out_concat_bp8_I
I0627 17:51:50.382856  2422 net.cpp:380] out_concat_bp8_I_relu1_concat_bp8_I_0_split -> out_concat_bp8_I_relu1_concat_bp8_I_0_split_0
I0627 17:51:50.382865  2422 net.cpp:380] out_concat_bp8_I_relu1_concat_bp8_I_0_split -> out_concat_bp8_I_relu1_concat_bp8_I_0_split_1
I0627 17:51:50.382871  2422 net.cpp:380] out_concat_bp8_I_relu1_concat_bp8_I_0_split -> out_concat_bp8_I_relu1_concat_bp8_I_0_split_2
I0627 17:51:50.382936  2422 net.cpp:122] Setting up out_concat_bp8_I_relu1_concat_bp8_I_0_split
I0627 17:51:50.382943  2422 net.cpp:129] Top shape: 2 40 32 32 (81920)
I0627 17:51:50.382948  2422 net.cpp:129] Top shape: 2 40 32 32 (81920)
I0627 17:51:50.382951  2422 net.cpp:129] Top shape: 2 40 32 32 (81920)
I0627 17:51:50.382954  2422 net.cpp:137] Memory required for data: 637009920
I0627 17:51:50.382958  2422 layer_factory.hpp:77] Creating layer out_concat_bp8_PI
I0627 17:51:50.382971  2422 net.cpp:84] Creating Layer out_concat_bp8_PI
I0627 17:51:50.382977  2422 net.cpp:406] out_concat_bp8_PI <- out_concat_bp8_I_relu1_concat_bp8_I_0_split_0
I0627 17:51:50.382987  2422 net.cpp:380] out_concat_bp8_PI -> out_concat_bp8_PI
I0627 17:51:50.392755  2422 net.cpp:122] Setting up out_concat_bp8_PI
I0627 17:51:50.392769  2422 net.cpp:129] Top shape: 2 40 32 32 (81920)
I0627 17:51:50.392772  2422 net.cpp:137] Memory required for data: 637337600
I0627 17:51:50.392781  2422 layer_factory.hpp:77] Creating layer out_concat_bp8_P
I0627 17:51:50.392788  2422 net.cpp:84] Creating Layer out_concat_bp8_P
I0627 17:51:50.392792  2422 net.cpp:406] out_concat_bp8_P <- out_concat_bp8_I_relu1_concat_bp8_I_0_split_1
I0627 17:51:50.392797  2422 net.cpp:406] out_concat_bp8_P <- out_concat_bp8_PI
I0627 17:51:50.392814  2422 net.cpp:380] out_concat_bp8_P -> out_concat_bp8_P
I0627 17:51:50.392860  2422 net.cpp:122] Setting up out_concat_bp8_P
I0627 17:51:50.392869  2422 net.cpp:129] Top shape: 2 40 32 32 (81920)
I0627 17:51:50.392873  2422 net.cpp:137] Memory required for data: 637665280
I0627 17:51:50.392875  2422 layer_factory.hpp:77] Creating layer out_concat_bp8
I0627 17:51:50.392880  2422 net.cpp:84] Creating Layer out_concat_bp8
I0627 17:51:50.392884  2422 net.cpp:406] out_concat_bp8 <- out_concat_bp8_I_relu1_concat_bp8_I_0_split_2
I0627 17:51:50.392889  2422 net.cpp:406] out_concat_bp8 <- out_concat_bp8_P
I0627 17:51:50.392897  2422 net.cpp:380] out_concat_bp8 -> out_concat_bp8
I0627 17:51:50.392932  2422 net.cpp:122] Setting up out_concat_bp8
I0627 17:51:50.392940  2422 net.cpp:129] Top shape: 2 80 32 32 (163840)
I0627 17:51:50.392943  2422 net.cpp:137] Memory required for data: 638320640
I0627 17:51:50.392946  2422 layer_factory.hpp:77] Creating layer relu_out_concat_bp8
I0627 17:51:50.392953  2422 net.cpp:84] Creating Layer relu_out_concat_bp8
I0627 17:51:50.392957  2422 net.cpp:406] relu_out_concat_bp8 <- out_concat_bp8
I0627 17:51:50.392964  2422 net.cpp:367] relu_out_concat_bp8 -> out_concat_bp8 (in-place)
I0627 17:51:50.393124  2422 net.cpp:122] Setting up relu_out_concat_bp8
I0627 17:51:50.393134  2422 net.cpp:129] Top shape: 2 80 32 32 (163840)
I0627 17:51:50.393137  2422 net.cpp:137] Memory required for data: 638976000
I0627 17:51:50.393142  2422 layer_factory.hpp:77] Creating layer out_concat_bp8_relu_out_concat_bp8_0_split
I0627 17:51:50.393149  2422 net.cpp:84] Creating Layer out_concat_bp8_relu_out_concat_bp8_0_split
I0627 17:51:50.393155  2422 net.cpp:406] out_concat_bp8_relu_out_concat_bp8_0_split <- out_concat_bp8
I0627 17:51:50.393163  2422 net.cpp:380] out_concat_bp8_relu_out_concat_bp8_0_split -> out_concat_bp8_relu_out_concat_bp8_0_split_0
I0627 17:51:50.393169  2422 net.cpp:380] out_concat_bp8_relu_out_concat_bp8_0_split -> out_concat_bp8_relu_out_concat_bp8_0_split_1
I0627 17:51:50.393175  2422 net.cpp:380] out_concat_bp8_relu_out_concat_bp8_0_split -> out_concat_bp8_relu_out_concat_bp8_0_split_2
I0627 17:51:50.393235  2422 net.cpp:122] Setting up out_concat_bp8_relu_out_concat_bp8_0_split
I0627 17:51:50.393244  2422 net.cpp:129] Top shape: 2 80 32 32 (163840)
I0627 17:51:50.393247  2422 net.cpp:129] Top shape: 2 80 32 32 (163840)
I0627 17:51:50.393250  2422 net.cpp:129] Top shape: 2 80 32 32 (163840)
I0627 17:51:50.393254  2422 net.cpp:137] Memory required for data: 640942080
I0627 17:51:50.393256  2422 layer_factory.hpp:77] Creating layer conv1_bp9_I
I0627 17:51:50.393267  2422 net.cpp:84] Creating Layer conv1_bp9_I
I0627 17:51:50.393272  2422 net.cpp:406] conv1_bp9_I <- out_concat_bp8_relu_out_concat_bp8_0_split_0
I0627 17:51:50.393282  2422 net.cpp:380] conv1_bp9_I -> conv1_bp9_I
I0627 17:51:50.396083  2422 net.cpp:122] Setting up conv1_bp9_I
I0627 17:51:50.396097  2422 net.cpp:129] Top shape: 2 20 96 96 (368640)
I0627 17:51:50.396100  2422 net.cpp:137] Memory required for data: 642416640
I0627 17:51:50.396108  2422 layer_factory.hpp:77] Creating layer relu1_bp9_I
I0627 17:51:50.396114  2422 net.cpp:84] Creating Layer relu1_bp9_I
I0627 17:51:50.396118  2422 net.cpp:406] relu1_bp9_I <- conv1_bp9_I
I0627 17:51:50.396126  2422 net.cpp:367] relu1_bp9_I -> conv1_bp9_I (in-place)
I0627 17:51:50.397017  2422 net.cpp:122] Setting up relu1_bp9_I
I0627 17:51:50.397032  2422 net.cpp:129] Top shape: 2 20 96 96 (368640)
I0627 17:51:50.397034  2422 net.cpp:137] Memory required for data: 643891200
I0627 17:51:50.397039  2422 layer_factory.hpp:77] Creating layer conv1_bp9_I_relu1_bp9_I_0_split
I0627 17:51:50.397047  2422 net.cpp:84] Creating Layer conv1_bp9_I_relu1_bp9_I_0_split
I0627 17:51:50.397052  2422 net.cpp:406] conv1_bp9_I_relu1_bp9_I_0_split <- conv1_bp9_I
I0627 17:51:50.397058  2422 net.cpp:380] conv1_bp9_I_relu1_bp9_I_0_split -> conv1_bp9_I_relu1_bp9_I_0_split_0
I0627 17:51:50.397068  2422 net.cpp:380] conv1_bp9_I_relu1_bp9_I_0_split -> conv1_bp9_I_relu1_bp9_I_0_split_1
I0627 17:51:50.397135  2422 net.cpp:122] Setting up conv1_bp9_I_relu1_bp9_I_0_split
I0627 17:51:50.397145  2422 net.cpp:129] Top shape: 2 20 96 96 (368640)
I0627 17:51:50.397148  2422 net.cpp:129] Top shape: 2 20 96 96 (368640)
I0627 17:51:50.397151  2422 net.cpp:137] Memory required for data: 646840320
I0627 17:51:50.397156  2422 layer_factory.hpp:77] Creating layer conv1_bp9_PI
I0627 17:51:50.397169  2422 net.cpp:84] Creating Layer conv1_bp9_PI
I0627 17:51:50.397176  2422 net.cpp:406] conv1_bp9_PI <- out_concat_bp8_relu_out_concat_bp8_0_split_1
I0627 17:51:50.397186  2422 net.cpp:380] conv1_bp9_PI -> conv1_bp9_PI
I0627 17:51:50.406839  2422 net.cpp:122] Setting up conv1_bp9_PI
I0627 17:51:50.406854  2422 net.cpp:129] Top shape: 2 20 96 96 (368640)
I0627 17:51:50.406857  2422 net.cpp:137] Memory required for data: 648314880
I0627 17:51:50.406864  2422 layer_factory.hpp:77] Creating layer conv1_bp9_P
I0627 17:51:50.406872  2422 net.cpp:84] Creating Layer conv1_bp9_P
I0627 17:51:50.406877  2422 net.cpp:406] conv1_bp9_P <- conv1_bp9_I_relu1_bp9_I_0_split_0
I0627 17:51:50.406882  2422 net.cpp:406] conv1_bp9_P <- conv1_bp9_PI
I0627 17:51:50.406886  2422 net.cpp:380] conv1_bp9_P -> conv1_bp9_P
I0627 17:51:50.406927  2422 net.cpp:122] Setting up conv1_bp9_P
I0627 17:51:50.406936  2422 net.cpp:129] Top shape: 2 20 96 96 (368640)
I0627 17:51:50.406939  2422 net.cpp:137] Memory required for data: 649789440
I0627 17:51:50.406944  2422 layer_factory.hpp:77] Creating layer concat_conv1_bp9
I0627 17:51:50.406950  2422 net.cpp:84] Creating Layer concat_conv1_bp9
I0627 17:51:50.406955  2422 net.cpp:406] concat_conv1_bp9 <- conv1_bp9_I_relu1_bp9_I_0_split_1
I0627 17:51:50.406958  2422 net.cpp:406] concat_conv1_bp9 <- conv1_bp9_P
I0627 17:51:50.406965  2422 net.cpp:380] concat_conv1_bp9 -> concat_conv1_bp9
I0627 17:51:50.407002  2422 net.cpp:122] Setting up concat_conv1_bp9
I0627 17:51:50.407011  2422 net.cpp:129] Top shape: 2 40 96 96 (737280)
I0627 17:51:50.407014  2422 net.cpp:137] Memory required for data: 652738560
I0627 17:51:50.407016  2422 layer_factory.hpp:77] Creating layer relu_concat_conv1_bp9
I0627 17:51:50.407024  2422 net.cpp:84] Creating Layer relu_concat_conv1_bp9
I0627 17:51:50.407029  2422 net.cpp:406] relu_concat_conv1_bp9 <- concat_conv1_bp9
I0627 17:51:50.407040  2422 net.cpp:367] relu_concat_conv1_bp9 -> concat_conv1_bp9 (in-place)
I0627 17:51:50.407981  2422 net.cpp:122] Setting up relu_concat_conv1_bp9
I0627 17:51:50.407996  2422 net.cpp:129] Top shape: 2 40 96 96 (737280)
I0627 17:51:50.407999  2422 net.cpp:137] Memory required for data: 655687680
I0627 17:51:50.408004  2422 layer_factory.hpp:77] Creating layer concat_conv1_bp9_relu_concat_conv1_bp9_0_split
I0627 17:51:50.408010  2422 net.cpp:84] Creating Layer concat_conv1_bp9_relu_concat_conv1_bp9_0_split
I0627 17:51:50.408015  2422 net.cpp:406] concat_conv1_bp9_relu_concat_conv1_bp9_0_split <- concat_conv1_bp9
I0627 17:51:50.408021  2422 net.cpp:380] concat_conv1_bp9_relu_concat_conv1_bp9_0_split -> concat_conv1_bp9_relu_concat_conv1_bp9_0_split_0
I0627 17:51:50.408030  2422 net.cpp:380] concat_conv1_bp9_relu_concat_conv1_bp9_0_split -> concat_conv1_bp9_relu_concat_conv1_bp9_0_split_1
I0627 17:51:50.408040  2422 net.cpp:380] concat_conv1_bp9_relu_concat_conv1_bp9_0_split -> concat_conv1_bp9_relu_concat_conv1_bp9_0_split_2
I0627 17:51:50.408108  2422 net.cpp:122] Setting up concat_conv1_bp9_relu_concat_conv1_bp9_0_split
I0627 17:51:50.408118  2422 net.cpp:129] Top shape: 2 40 96 96 (737280)
I0627 17:51:50.408120  2422 net.cpp:129] Top shape: 2 40 96 96 (737280)
I0627 17:51:50.408124  2422 net.cpp:129] Top shape: 2 40 96 96 (737280)
I0627 17:51:50.408129  2422 net.cpp:137] Memory required for data: 664535040
I0627 17:51:50.408133  2422 layer_factory.hpp:77] Creating layer conv2_bp9_I
I0627 17:51:50.408146  2422 net.cpp:84] Creating Layer conv2_bp9_I
I0627 17:51:50.408150  2422 net.cpp:406] conv2_bp9_I <- concat_conv1_bp9_relu_concat_conv1_bp9_0_split_0
I0627 17:51:50.408159  2422 net.cpp:380] conv2_bp9_I -> conv2_bp9_I
I0627 17:51:50.411010  2422 net.cpp:122] Setting up conv2_bp9_I
I0627 17:51:50.411034  2422 net.cpp:129] Top shape: 2 40 32 32 (81920)
I0627 17:51:50.411038  2422 net.cpp:137] Memory required for data: 664862720
I0627 17:51:50.411046  2422 layer_factory.hpp:77] Creating layer relu2_bp9_I
I0627 17:51:50.411052  2422 net.cpp:84] Creating Layer relu2_bp9_I
I0627 17:51:50.411056  2422 net.cpp:406] relu2_bp9_I <- conv2_bp9_I
I0627 17:51:50.411062  2422 net.cpp:367] relu2_bp9_I -> conv2_bp9_I (in-place)
I0627 17:51:50.411192  2422 net.cpp:122] Setting up relu2_bp9_I
I0627 17:51:50.411201  2422 net.cpp:129] Top shape: 2 40 32 32 (81920)
I0627 17:51:50.411204  2422 net.cpp:137] Memory required for data: 665190400
I0627 17:51:50.411211  2422 layer_factory.hpp:77] Creating layer conv2_bp9_I_relu2_bp9_I_0_split
I0627 17:51:50.411221  2422 net.cpp:84] Creating Layer conv2_bp9_I_relu2_bp9_I_0_split
I0627 17:51:50.411226  2422 net.cpp:406] conv2_bp9_I_relu2_bp9_I_0_split <- conv2_bp9_I
I0627 17:51:50.411232  2422 net.cpp:380] conv2_bp9_I_relu2_bp9_I_0_split -> conv2_bp9_I_relu2_bp9_I_0_split_0
I0627 17:51:50.411240  2422 net.cpp:380] conv2_bp9_I_relu2_bp9_I_0_split -> conv2_bp9_I_relu2_bp9_I_0_split_1
I0627 17:51:50.411295  2422 net.cpp:122] Setting up conv2_bp9_I_relu2_bp9_I_0_split
I0627 17:51:50.411303  2422 net.cpp:129] Top shape: 2 40 32 32 (81920)
I0627 17:51:50.411306  2422 net.cpp:129] Top shape: 2 40 32 32 (81920)
I0627 17:51:50.411309  2422 net.cpp:137] Memory required for data: 665845760
I0627 17:51:50.411314  2422 layer_factory.hpp:77] Creating layer conv2_bp9_PI
I0627 17:51:50.411326  2422 net.cpp:84] Creating Layer conv2_bp9_PI
I0627 17:51:50.411331  2422 net.cpp:406] conv2_bp9_PI <- concat_conv1_bp9_relu_concat_conv1_bp9_0_split_1
I0627 17:51:50.411339  2422 net.cpp:380] conv2_bp9_PI -> conv2_bp9_PI
I0627 17:51:50.421191  2422 net.cpp:122] Setting up conv2_bp9_PI
I0627 17:51:50.421206  2422 net.cpp:129] Top shape: 2 40 32 32 (81920)
I0627 17:51:50.421209  2422 net.cpp:137] Memory required for data: 666173440
I0627 17:51:50.421216  2422 layer_factory.hpp:77] Creating layer conv2_bp9_P
I0627 17:51:50.421224  2422 net.cpp:84] Creating Layer conv2_bp9_P
I0627 17:51:50.421228  2422 net.cpp:406] conv2_bp9_P <- conv2_bp9_I_relu2_bp9_I_0_split_0
I0627 17:51:50.421233  2422 net.cpp:406] conv2_bp9_P <- conv2_bp9_PI
I0627 17:51:50.421239  2422 net.cpp:380] conv2_bp9_P -> conv2_bp9_P
I0627 17:51:50.421283  2422 net.cpp:122] Setting up conv2_bp9_P
I0627 17:51:50.421290  2422 net.cpp:129] Top shape: 2 40 32 32 (81920)
I0627 17:51:50.421293  2422 net.cpp:137] Memory required for data: 666501120
I0627 17:51:50.421298  2422 layer_factory.hpp:77] Creating layer concat_conv2_bp9
I0627 17:51:50.421308  2422 net.cpp:84] Creating Layer concat_conv2_bp9
I0627 17:51:50.421311  2422 net.cpp:406] concat_conv2_bp9 <- conv2_bp9_I_relu2_bp9_I_0_split_1
I0627 17:51:50.421317  2422 net.cpp:406] concat_conv2_bp9 <- conv2_bp9_P
I0627 17:51:50.421324  2422 net.cpp:380] concat_conv2_bp9 -> concat_conv2_bp9
I0627 17:51:50.421363  2422 net.cpp:122] Setting up concat_conv2_bp9
I0627 17:51:50.421371  2422 net.cpp:129] Top shape: 2 80 32 32 (163840)
I0627 17:51:50.421375  2422 net.cpp:137] Memory required for data: 667156480
I0627 17:51:50.421377  2422 layer_factory.hpp:77] Creating layer weight_out_concat_bp8
I0627 17:51:50.421391  2422 net.cpp:84] Creating Layer weight_out_concat_bp8
I0627 17:51:50.421396  2422 net.cpp:406] weight_out_concat_bp8 <- out_concat_bp8_relu_out_concat_bp8_0_split_2
I0627 17:51:50.421406  2422 net.cpp:380] weight_out_concat_bp8 -> weight_out_concat_bp8
I0627 17:51:50.423485  2422 net.cpp:122] Setting up weight_out_concat_bp8
I0627 17:51:50.423499  2422 net.cpp:129] Top shape: 2 80 32 32 (163840)
I0627 17:51:50.423503  2422 net.cpp:137] Memory required for data: 667811840
I0627 17:51:50.423511  2422 layer_factory.hpp:77] Creating layer eltwise1_bp9
I0627 17:51:50.423518  2422 net.cpp:84] Creating Layer eltwise1_bp9
I0627 17:51:50.423523  2422 net.cpp:406] eltwise1_bp9 <- weight_out_concat_bp8
I0627 17:51:50.423528  2422 net.cpp:406] eltwise1_bp9 <- concat_conv2_bp9
I0627 17:51:50.423544  2422 net.cpp:380] eltwise1_bp9 -> eltwise1_bp9
I0627 17:51:50.423588  2422 net.cpp:122] Setting up eltwise1_bp9
I0627 17:51:50.423597  2422 net.cpp:129] Top shape: 2 80 32 32 (163840)
I0627 17:51:50.423600  2422 net.cpp:137] Memory required for data: 668467200
I0627 17:51:50.423604  2422 layer_factory.hpp:77] Creating layer eltwise1_bp9_eltwise1_bp9_0_split
I0627 17:51:50.423609  2422 net.cpp:84] Creating Layer eltwise1_bp9_eltwise1_bp9_0_split
I0627 17:51:50.423614  2422 net.cpp:406] eltwise1_bp9_eltwise1_bp9_0_split <- eltwise1_bp9
I0627 17:51:50.423619  2422 net.cpp:380] eltwise1_bp9_eltwise1_bp9_0_split -> eltwise1_bp9_eltwise1_bp9_0_split_0
I0627 17:51:50.423625  2422 net.cpp:380] eltwise1_bp9_eltwise1_bp9_0_split -> eltwise1_bp9_eltwise1_bp9_0_split_1
I0627 17:51:50.423672  2422 net.cpp:122] Setting up eltwise1_bp9_eltwise1_bp9_0_split
I0627 17:51:50.423681  2422 net.cpp:129] Top shape: 2 80 32 32 (163840)
I0627 17:51:50.423684  2422 net.cpp:129] Top shape: 2 80 32 32 (163840)
I0627 17:51:50.423686  2422 net.cpp:137] Memory required for data: 669777920
I0627 17:51:50.423689  2422 layer_factory.hpp:77] Creating layer conv3_bp9_I
I0627 17:51:50.423701  2422 net.cpp:84] Creating Layer conv3_bp9_I
I0627 17:51:50.423703  2422 net.cpp:406] conv3_bp9_I <- eltwise1_bp9_eltwise1_bp9_0_split_0
I0627 17:51:50.423712  2422 net.cpp:380] conv3_bp9_I -> conv3_bp9_I
I0627 17:51:50.426296  2422 net.cpp:122] Setting up conv3_bp9_I
I0627 17:51:50.426311  2422 net.cpp:129] Top shape: 2 20 96 96 (368640)
I0627 17:51:50.426314  2422 net.cpp:137] Memory required for data: 671252480
I0627 17:51:50.426321  2422 layer_factory.hpp:77] Creating layer relu3_bp9_I
I0627 17:51:50.426328  2422 net.cpp:84] Creating Layer relu3_bp9_I
I0627 17:51:50.426333  2422 net.cpp:406] relu3_bp9_I <- conv3_bp9_I
I0627 17:51:50.426338  2422 net.cpp:367] relu3_bp9_I -> conv3_bp9_I (in-place)
I0627 17:51:50.426525  2422 net.cpp:122] Setting up relu3_bp9_I
I0627 17:51:50.426537  2422 net.cpp:129] Top shape: 2 20 96 96 (368640)
I0627 17:51:50.426539  2422 net.cpp:137] Memory required for data: 672727040
I0627 17:51:50.426543  2422 layer_factory.hpp:77] Creating layer conv3_bp9_I_relu3_bp9_I_0_split
I0627 17:51:50.426549  2422 net.cpp:84] Creating Layer conv3_bp9_I_relu3_bp9_I_0_split
I0627 17:51:50.426553  2422 net.cpp:406] conv3_bp9_I_relu3_bp9_I_0_split <- conv3_bp9_I
I0627 17:51:50.426559  2422 net.cpp:380] conv3_bp9_I_relu3_bp9_I_0_split -> conv3_bp9_I_relu3_bp9_I_0_split_0
I0627 17:51:50.426568  2422 net.cpp:380] conv3_bp9_I_relu3_bp9_I_0_split -> conv3_bp9_I_relu3_bp9_I_0_split_1
I0627 17:51:50.426615  2422 net.cpp:122] Setting up conv3_bp9_I_relu3_bp9_I_0_split
I0627 17:51:50.426622  2422 net.cpp:129] Top shape: 2 20 96 96 (368640)
I0627 17:51:50.426626  2422 net.cpp:129] Top shape: 2 20 96 96 (368640)
I0627 17:51:50.426630  2422 net.cpp:137] Memory required for data: 675676160
I0627 17:51:50.426631  2422 layer_factory.hpp:77] Creating layer conv3_bp9_PI
I0627 17:51:50.426642  2422 net.cpp:84] Creating Layer conv3_bp9_PI
I0627 17:51:50.426647  2422 net.cpp:406] conv3_bp9_PI <- eltwise1_bp9_eltwise1_bp9_0_split_1
I0627 17:51:50.426653  2422 net.cpp:380] conv3_bp9_PI -> conv3_bp9_PI
I0627 17:51:50.435369  2422 net.cpp:122] Setting up conv3_bp9_PI
I0627 17:51:50.435384  2422 net.cpp:129] Top shape: 2 20 96 96 (368640)
I0627 17:51:50.435389  2422 net.cpp:137] Memory required for data: 677150720
I0627 17:51:50.435395  2422 layer_factory.hpp:77] Creating layer conv3_bp9_P
I0627 17:51:50.435400  2422 net.cpp:84] Creating Layer conv3_bp9_P
I0627 17:51:50.435405  2422 net.cpp:406] conv3_bp9_P <- conv3_bp9_I_relu3_bp9_I_0_split_0
I0627 17:51:50.435410  2422 net.cpp:406] conv3_bp9_P <- conv3_bp9_PI
I0627 17:51:50.435416  2422 net.cpp:380] conv3_bp9_P -> conv3_bp9_P
I0627 17:51:50.435461  2422 net.cpp:122] Setting up conv3_bp9_P
I0627 17:51:50.435470  2422 net.cpp:129] Top shape: 2 20 96 96 (368640)
I0627 17:51:50.435474  2422 net.cpp:137] Memory required for data: 678625280
I0627 17:51:50.435478  2422 layer_factory.hpp:77] Creating layer concat_conv3_bp9
I0627 17:51:50.435498  2422 net.cpp:84] Creating Layer concat_conv3_bp9
I0627 17:51:50.435503  2422 net.cpp:406] concat_conv3_bp9 <- conv3_bp9_I_relu3_bp9_I_0_split_1
I0627 17:51:50.435509  2422 net.cpp:406] concat_conv3_bp9 <- conv3_bp9_P
I0627 17:51:50.435519  2422 net.cpp:380] concat_conv3_bp9 -> concat_conv3_bp9
I0627 17:51:50.435559  2422 net.cpp:122] Setting up concat_conv3_bp9
I0627 17:51:50.435569  2422 net.cpp:129] Top shape: 2 40 96 96 (737280)
I0627 17:51:50.435571  2422 net.cpp:137] Memory required for data: 681574400
I0627 17:51:50.435575  2422 layer_factory.hpp:77] Creating layer weight_concat_conv1_bp9
I0627 17:51:50.435588  2422 net.cpp:84] Creating Layer weight_concat_conv1_bp9
I0627 17:51:50.435595  2422 net.cpp:406] weight_concat_conv1_bp9 <- concat_conv1_bp9_relu_concat_conv1_bp9_0_split_2
I0627 17:51:50.435606  2422 net.cpp:380] weight_concat_conv1_bp9 -> weight_concat_conv1_bp9
I0627 17:51:50.437882  2422 net.cpp:122] Setting up weight_concat_conv1_bp9
I0627 17:51:50.437896  2422 net.cpp:129] Top shape: 2 40 96 96 (737280)
I0627 17:51:50.437901  2422 net.cpp:137] Memory required for data: 684523520
I0627 17:51:50.437912  2422 layer_factory.hpp:77] Creating layer eltwise2_bp9_1
I0627 17:51:50.437922  2422 net.cpp:84] Creating Layer eltwise2_bp9_1
I0627 17:51:50.437925  2422 net.cpp:406] eltwise2_bp9_1 <- weight_concat_conv1_bp9
I0627 17:51:50.437932  2422 net.cpp:406] eltwise2_bp9_1 <- concat_conv3_bp9
I0627 17:51:50.437940  2422 net.cpp:380] eltwise2_bp9_1 -> output_bp9_1
I0627 17:51:50.437981  2422 net.cpp:122] Setting up eltwise2_bp9_1
I0627 17:51:50.437990  2422 net.cpp:129] Top shape: 2 40 96 96 (737280)
I0627 17:51:50.437994  2422 net.cpp:137] Memory required for data: 687472640
I0627 17:51:50.437997  2422 layer_factory.hpp:77] Creating layer eltwise2_bp9_2
I0627 17:51:50.438004  2422 net.cpp:84] Creating Layer eltwise2_bp9_2
I0627 17:51:50.438009  2422 net.cpp:406] eltwise2_bp9_2 <- output_bp9_1
I0627 17:51:50.438014  2422 net.cpp:406] eltwise2_bp9_2 <- concat_conv3_bp7_concat_conv3_bp7_0_split_1
I0627 17:51:50.438022  2422 net.cpp:380] eltwise2_bp9_2 -> output_bp9_2
I0627 17:51:50.438055  2422 net.cpp:122] Setting up eltwise2_bp9_2
I0627 17:51:50.438062  2422 net.cpp:129] Top shape: 2 40 96 96 (737280)
I0627 17:51:50.438064  2422 net.cpp:137] Memory required for data: 690421760
I0627 17:51:50.438068  2422 layer_factory.hpp:77] Creating layer eltwise2_bp9_3
I0627 17:51:50.438072  2422 net.cpp:84] Creating Layer eltwise2_bp9_3
I0627 17:51:50.438076  2422 net.cpp:406] eltwise2_bp9_3 <- output_bp9_2
I0627 17:51:50.438079  2422 net.cpp:406] eltwise2_bp9_3 <- concat_conv3_bp5_concat_conv3_bp5_0_split_2
I0627 17:51:50.438087  2422 net.cpp:380] eltwise2_bp9_3 -> output_bp9_3
I0627 17:51:50.438115  2422 net.cpp:122] Setting up eltwise2_bp9_3
I0627 17:51:50.438122  2422 net.cpp:129] Top shape: 2 40 96 96 (737280)
I0627 17:51:50.438124  2422 net.cpp:137] Memory required for data: 693370880
I0627 17:51:50.438127  2422 layer_factory.hpp:77] Creating layer eltwise2_bp9_4
I0627 17:51:50.438133  2422 net.cpp:84] Creating Layer eltwise2_bp9_4
I0627 17:51:50.438136  2422 net.cpp:406] eltwise2_bp9_4 <- output_bp9_3
I0627 17:51:50.438141  2422 net.cpp:406] eltwise2_bp9_4 <- concat_conv3_bp3_concat_conv3_bp3_0_split_3
I0627 17:51:50.438146  2422 net.cpp:380] eltwise2_bp9_4 -> output_bp9_4
I0627 17:51:50.438175  2422 net.cpp:122] Setting up eltwise2_bp9_4
I0627 17:51:50.438181  2422 net.cpp:129] Top shape: 2 40 96 96 (737280)
I0627 17:51:50.438184  2422 net.cpp:137] Memory required for data: 696320000
I0627 17:51:50.438189  2422 layer_factory.hpp:77] Creating layer eltwise2_bp9_5
I0627 17:51:50.438192  2422 net.cpp:84] Creating Layer eltwise2_bp9_5
I0627 17:51:50.438195  2422 net.cpp:406] eltwise2_bp9_5 <- output_bp9_4
I0627 17:51:50.438199  2422 net.cpp:406] eltwise2_bp9_5 <- concat_conv3_bp1_concat_conv3_bp1_0_split_4
I0627 17:51:50.438206  2422 net.cpp:380] eltwise2_bp9_5 -> output_bp9
I0627 17:51:50.438235  2422 net.cpp:122] Setting up eltwise2_bp9_5
I0627 17:51:50.438241  2422 net.cpp:129] Top shape: 2 40 96 96 (737280)
I0627 17:51:50.438256  2422 net.cpp:137] Memory required for data: 699269120
I0627 17:51:50.438261  2422 layer_factory.hpp:77] Creating layer concat_all
I0627 17:51:50.438266  2422 net.cpp:84] Creating Layer concat_all
I0627 17:51:50.438269  2422 net.cpp:406] concat_all <- concat_conv2_bp2_concat_conv2_bp2_0_split_1
I0627 17:51:50.438274  2422 net.cpp:406] concat_all <- concat_conv2_bp4_concat_conv2_bp4_0_split_1
I0627 17:51:50.438279  2422 net.cpp:406] concat_all <- concat_conv2_bp6_concat_conv2_bp6_0_split_1
I0627 17:51:50.438283  2422 net.cpp:406] concat_all <- concat_conv2_bp8_concat_conv2_bp8_0_split_1
I0627 17:51:50.438287  2422 net.cpp:406] concat_all <- output_bp1_relu_output_bp1_0_split_4
I0627 17:51:50.438292  2422 net.cpp:406] concat_all <- output_bp3_relu_output_bp3_0_split_2
I0627 17:51:50.438295  2422 net.cpp:406] concat_all <- output_bp5_relu_output_bp5_0_split_2
I0627 17:51:50.438298  2422 net.cpp:406] concat_all <- output_bp7_relu_output_bp7_0_split_1
I0627 17:51:50.438302  2422 net.cpp:406] concat_all <- output_bp9
I0627 17:51:50.438309  2422 net.cpp:380] concat_all -> concat_all
I0627 17:51:50.438350  2422 net.cpp:122] Setting up concat_all
I0627 17:51:50.438357  2422 net.cpp:129] Top shape: 2 360 96 96 (6635520)
I0627 17:51:50.438360  2422 net.cpp:137] Memory required for data: 725811200
I0627 17:51:50.438364  2422 layer_factory.hpp:77] Creating layer conv_final_1
I0627 17:51:50.438380  2422 net.cpp:84] Creating Layer conv_final_1
I0627 17:51:50.438386  2422 net.cpp:406] conv_final_1 <- concat_all
I0627 17:51:50.438393  2422 net.cpp:380] conv_final_1 -> conv_final_1
I0627 17:51:50.444420  2422 net.cpp:122] Setting up conv_final_1
I0627 17:51:50.444438  2422 net.cpp:129] Top shape: 2 128 96 96 (2359296)
I0627 17:51:50.444443  2422 net.cpp:137] Memory required for data: 735248384
I0627 17:51:50.444453  2422 layer_factory.hpp:77] Creating layer relu_final_1
I0627 17:51:50.444460  2422 net.cpp:84] Creating Layer relu_final_1
I0627 17:51:50.444466  2422 net.cpp:406] relu_final_1 <- conv_final_1
I0627 17:51:50.444473  2422 net.cpp:367] relu_final_1 -> conv_final_1 (in-place)
I0627 17:51:50.446290  2422 net.cpp:122] Setting up relu_final_1
I0627 17:51:50.446303  2422 net.cpp:129] Top shape: 2 128 96 96 (2359296)
I0627 17:51:50.446308  2422 net.cpp:137] Memory required for data: 744685568
I0627 17:51:50.446316  2422 layer_factory.hpp:77] Creating layer conv_final_2
I0627 17:51:50.446331  2422 net.cpp:84] Creating Layer conv_final_2
I0627 17:51:50.446338  2422 net.cpp:406] conv_final_2 <- conv_final_1
I0627 17:51:50.446349  2422 net.cpp:380] conv_final_2 -> conv_final_2
I0627 17:51:50.449141  2422 net.cpp:122] Setting up conv_final_2
I0627 17:51:50.449156  2422 net.cpp:129] Top shape: 2 64 96 96 (1179648)
I0627 17:51:50.449160  2422 net.cpp:137] Memory required for data: 749404160
I0627 17:51:50.449170  2422 layer_factory.hpp:77] Creating layer relu_final_2
I0627 17:51:50.449178  2422 net.cpp:84] Creating Layer relu_final_2
I0627 17:51:50.449183  2422 net.cpp:406] relu_final_2 <- conv_final_2
I0627 17:51:50.449193  2422 net.cpp:367] relu_final_2 -> conv_final_2 (in-place)
I0627 17:51:50.450248  2422 net.cpp:122] Setting up relu_final_2
I0627 17:51:50.450261  2422 net.cpp:129] Top shape: 2 64 96 96 (1179648)
I0627 17:51:50.450264  2422 net.cpp:137] Memory required for data: 754122752
I0627 17:51:50.450269  2422 layer_factory.hpp:77] Creating layer SR_final
I0627 17:51:50.450280  2422 net.cpp:84] Creating Layer SR_final
I0627 17:51:50.450284  2422 net.cpp:406] SR_final <- conv_final_2
I0627 17:51:50.450292  2422 net.cpp:380] SR_final -> SR_final
I0627 17:51:50.452392  2422 net.cpp:122] Setting up SR_final
I0627 17:51:50.452409  2422 net.cpp:129] Top shape: 2 5 96 96 (92160)
I0627 17:51:50.452412  2422 net.cpp:137] Memory required for data: 754491392
I0627 17:51:50.452419  2422 layer_factory.hpp:77] Creating layer eltwise_loss1
I0627 17:51:50.452425  2422 net.cpp:84] Creating Layer eltwise_loss1
I0627 17:51:50.452430  2422 net.cpp:406] eltwise_loss1 <- label
I0627 17:51:50.452433  2422 net.cpp:406] eltwise_loss1 <- SR_final
I0627 17:51:50.452450  2422 net.cpp:380] eltwise_loss1 -> diff1
I0627 17:51:50.452489  2422 net.cpp:122] Setting up eltwise_loss1
I0627 17:51:50.452498  2422 net.cpp:129] Top shape: 2 5 96 96 (92160)
I0627 17:51:50.452502  2422 net.cpp:137] Memory required for data: 754860032
I0627 17:51:50.452504  2422 layer_factory.hpp:77] Creating layer layer1
I0627 17:51:50.452510  2422 net.cpp:84] Creating Layer layer1
I0627 17:51:50.452514  2422 net.cpp:406] layer1 <- diff1
I0627 17:51:50.452519  2422 net.cpp:380] layer1 -> abs1
I0627 17:51:50.452551  2422 net.cpp:122] Setting up layer1
I0627 17:51:50.452558  2422 net.cpp:129] Top shape: 2 5 96 96 (92160)
I0627 17:51:50.452561  2422 net.cpp:137] Memory required for data: 755228672
I0627 17:51:50.452564  2422 layer_factory.hpp:77] Creating layer fc
I0627 17:51:50.452571  2422 net.cpp:84] Creating Layer fc
I0627 17:51:50.452574  2422 net.cpp:406] fc <- abs1
I0627 17:51:50.452581  2422 net.cpp:380] fc -> loss1
I0627 17:51:50.452765  2422 net.cpp:122] Setting up fc
I0627 17:51:50.452774  2422 net.cpp:129] Top shape: 2 1 (2)
I0627 17:51:50.452776  2422 net.cpp:132]     with loss weight 1
I0627 17:51:50.452785  2422 net.cpp:137] Memory required for data: 755228680
I0627 17:51:50.452791  2422 net.cpp:198] fc needs backward computation.
I0627 17:51:50.452795  2422 net.cpp:198] layer1 needs backward computation.
I0627 17:51:50.452797  2422 net.cpp:198] eltwise_loss1 needs backward computation.
I0627 17:51:50.452801  2422 net.cpp:198] SR_final needs backward computation.
…
